model.pth (torch, 252679 bytes, 10 tensors)

weight f4 [6, 3, 5, 5]
00000000: 3541 f3bd 9688 56be 83e3 a5bd 2b19 9fbe
00000010: 986b 4abe 4217 36bd deb8 b3bd 831d 63be
00000020: 6f42 ffbd 0043 27be 6b2d 253e cc6f 503d
00000030: 50e9 013e a346 053e b294 553e df74 5e3d
00000040: 3740 eb3c df7a 2d3e 917d a23e 3d6b 733e
00000050: 1e10 8d3c 970b 4a3c 42e0 b7ba 2297 ccbc
00000060: 71d5 6c3d 1fad 17be 12ee 07be 5c94 843d
00000070: ba43 54be 494b 40be 5426 9bbd 94aa 19bc
00000080: ec47 f6bd 4d65 3ebe 37e0 533c c0d3 423e
00000090: 497e 503e e826 693d 78c6 463e 4e36 703e
000000a0: 3dd4 063e d1c0 ef3d f01b 3a3e 9a6e 823e
000000b0: 1928 a13e 6d86 0f3c 2bd7 113e 5c84 c13d
000000c0: dad2 123c 4139 803b 4f24 00be 5df2 1abe
000000d0: 3823 49bd 7125 8ebe 7db1 01be c111 36be
000000e0: 6199 30bd b6e1 bbbd 849e 78be 8e4a f7bd
000000f0: d5c4 0e3e 6ccc 663d 7d5a e73c 870c 99bc
00000100: ef51 0c3e 218c 61bd 64c7 343c 23ea af3d
00000110: ac76 6a3e 22de 243e 173a b8bd ed5e 9cbc
00000120: d068 23be 836d b4bc e5b7 5dbe 6503 59bb
00000130: 877e 8fbd 3233 6b3d cf3b 303e 6de8 0c3e
00000140: 68d3 1bbe db25 63be f12e f23d 77c2 8f3e
00000150: af9e 223e c2b6 8cbe aa6b 3dbe bd07 8e3c
00000160: bb66 7c3e 2cf1 8c3e 90c6 4cbe 86f4 40be
00000170: a83c 263d 71c1 6c3e 2345 5e3e c328 5bbd
00000180: 63af 61bd b3db 93bc fcd7 a13d ff86 da3d
00000190: 60fe 47be 4924 5bbe 655f 94b9 7300 7c3d
000001a0: 250a ec3d 998a cbbe 5a9d 81be ce02 f6bc
000001b0: 2a94 893e 099e 123e c708 c9be a86f d8be
000001c0: 4f5e f33d 2e9a 683e a10d 8a3e 7ea2 90be
000001d0: a988 abbe e17a c43c aeae 703e adc0 2f3e
000001e0: 25d4 cfbd 39dd 16be 89b2 0ebd ee07 bd3d
000001f0: 719a 7b3d d925 e4bd 415e 3abe 1247 01bd
00000200: c4c5 333e 4355 073e 8dcc a9be b493 a5be
00000210: ffc3 df3d b9e5 863e 730d 533e c2de cdbe
00000220: 3437 8bbe 1eca 96bb a956 c53e af62 aa3e
00000230: 84ba 49be d7d3 87be a5a8 ac3d dfd4 683e
00000240: fdc0 683e a2a1 6cbd 67a6 06be 9df8 9c3d
00000250: 55ae a63d e138 223e 0c1a f5bd 699e 28be
00000260: 4646 25be 5a39 05be 1935 b2bd bec9 f1bd
00000270: f7af fabd 57dd 19bd e184 04bd 2301 e2bd
00000280: 89fa 02bd 0b1b 273d 48fb 843d f30d 2b3d
00000290: c22b babc 158d 9dbd 9fb0 85bd 4241 73bd
000002a0: 9911 9abd 2fe5 f6bd af55 58be e748 46be
000002b0: ccc7 8dbe 1d7f 6dbe 753f 04be fe58 dfbd
000002c0: b26d 38bd 285e d2bb cd39 82bc d966 0cbe
000002d0: 992e bebd ec81 85bd f640 843a e8ab bdbc
000002e0: e63d 8a3d c8a8 203e 4dca 4e3d edf9 783e
000002f0: 3367 823d 62f5 1c3d dbf3 22bd ddad 6a3c
00000300: 511a 0abd 7edf 603d d81b 683d 1dbe d9bd
00000310: 280d c7bd 8ed5 a2bd dd49 21be 7926 c4bd
00000320: ab05 0c3e 13ae f03c 59af 8f3d 4807 e03d
00000330: 320e 263e 91c6 2b3e 1d0f 4c3e 6013 7e3d
00000340: f7ec 173e d2eb 303e 7cf4 bb3e 390f cd3e
00000350: 6442 d63e 455d d73e 286e b93e e2bc 343e
00000360: 3539 433e 001f 4b3e 1655 003e 6ba0 5b3e
00000370: 60ba e1bc 096e 92bd 2557 a0bc 2a58 dc3c
00000380: 3644 ad3c 93a1 7fbe f078 a9be bb4f 37be
00000390: 9be0 b1be 3d75 76be 0f6f 3fbe 73aa 02be
000003a0: dff6 c8bd 828b 923b d259 15be d724 403e
000003b0: 9218 993e f20d 983e 24f5 4f3e d9cb ea3d
000003c0: 5c5e d53e 6c68 df3e cdd3 193f fa70 da3e
000003d0: 8b12 f93e 37ef 6c3e d878 ba3e 2235 ef3e
000003e0: 7381 db3e 046e b03e b586 a63d 8944 e93b
000003f0: e964 fe3b 33f2 23bc 262c 9b3d d138 d9bb
-0.11877672 -0.20950541 -0.08100035 -0.3107389 -0.19767606 -0.044455774 -0.08775495 -0.22179227
-0.12463843 -0.16334152 0.16130607 0.050887868 0.12686658 0.13015227 0.20857504 0.054310676
0.028717143 0.16941403 0.31736425 0.23771377 0.0172196 0.012331865 -0.0014028626 -0.02497441
0.05782074 -0.14812134 -0.1327441 0.0647361 -0.2072896 -0.18778719 -0.0757567 -0.009379048
-0.12025437 -0.1859333 0.012931875 0.19026089 0.20360674 0.05692187 0.19411647 0.23458216
0.131669 0.11706699 0.1817472 0.25475007 0.31475905 0.008760077 0.14242236 0.09449074
0.008961404 0.003913075 -0.1251385 -0.15131517 -0.049105853 -0.2776294 -0.12665363 -0.1778021
-0.043115024 -0.0917391 -0.24279219 -0.12074767 0.13942273 0.056347296 0.02824139 -0.018682731
0.1370313 -0.055065278 0.011033867 0.0858958 0.22896832 0.16100362 -0.08995455 -0.019088233
-0.15957952 -0.022024876 -0.21652181 -0.0033113596 -0.07006555 0.05742187 0.17210315 0.13760538
-0.15217364 -0.2218241 0.118253596 0.28078052 0.15880845 -0.27483183 -0.18498102 0.017337674
0.24648564 0.2752775 -0.1999762 -0.18843278 0.04058519 0.23120667 0.21706061 -0.05350567
-0.055098902 -0.018049097 0.07902524 0.1067028 -0.1953063 -0.2140056 -0.00028299834 0.061523866
0.115253724 -0.3975418 -0.25315362 -0.030030634 0.26870853 0.14318098 -0.3926451 -0.42272687
0.11883222 0.22715065 0.26963523 -0.28248972 -0.335027 0.023984374 0.23504135 0.17163344
-0.10147885 -0.14732827 -0.034838233 0.09230028 0.061426584 -0.11140031 -0.18200018 -0.03156192
0.1755591 0.13216119 -0.33163872 -0.3233925 0.10926055 0.2634714 0.20610599 -0.40209013
-0.27190554 -0.004601731 0.3854268 0.33278415 -0.19700056 -0.26528808 0.08430604 0.22737454
0.22729869 -0.057771333 -0.13149415 0.07664607 0.0813872 0.1584201 -0.11967859 -0.16466679
-0.16140088 -0.13010159 -0.08701534 -0.118060574 -0.12240594 -0.0375646 -0.032353286 -0.11035373
-0.03197721 0.040797275 0.064932406 0.04176135 -0.022725943 -0.07692925 -0.065278284 -0.059388407
-0.07522888 -0.12055432 -0.21126436 -0.19363748 -0.27691495 -0.23193021 -0.12914832 -0.10905646
-0.04502649 -0.0064199157 -0.015896702 -0.13711108 -0.092862315 -0.06518921 0.0010090161 -0.02315326
0.067500874 0.15689385 0.050485898 0.24314089 0.0636734 0.038319953 -0.03978334 0.014323679
-0.033716504 0.05490064 0.05666718 -0.10631964 -0.09719306 -0.079508886 -0.15750833 -0.095776506
0.13674037 0.02937988 0.07015867 0.10938889 0.16216353 0.16774966 0.1992764 0.062030196
0.14836489 0.17277458 0.36709964 0.40050676 0.41847527 0.42063347 0.36216855 0.17650178
0.19064792 0.19836044 0.12532458 0.21447913 -0.02755469 -0.07149894 -0.019572804 0.026897509
0.02115069 -0.2496398 -0.3310008 -0.17901509 -0.34741673 -0.2406816 -0.18694709 -0.12760334
-0.09812712 0.004472197 -0.14585045 0.18764053 0.29901558 0.2969814 0.20308357 0.11464662
0.41673553 0.43634355 0.6008881 0.4266432 0.4864696 0.23138128 0.3642032 0.46720225
0.428722 0.34458935 0.08131162 0.0071187657 0.0077634943 -0.010006475 0.0757678 -0.0066290875

bias f4 [6]
00000000: 8ce7 053e efda f63c 21e2 f8bd 3e9d a9be
00000010: d322 ebbe a0ea ebbe
0.1307661 0.030133693 -0.12152506 -0.3312778 -0.45925006 -0.46077442

weight f4 [16, 6, 5, 5]
00000000: fedf aa3c 6300 aebd 8a97 573c e8fd 32bd
00000010: e5d5 2b3d 3f7a 74bd e9c9 28bd 3018 07bd
00000020: add7 f6bc 823a 033d 41b8 833c 5907 723c
00000030: cc6d b43d 5752 1bbb 10fd 9bbd af71 993d
00000040: 7f79 5ebd d07f 8cbd fd07 18bd ea8d 713d
00000050: adee 86bc 170d a7bc 8479 76bd 44dd 823d
00000060: 70ca 02bd f0d4 02be 7a06 b43c c457 143c
00000070: 7cdd d93b 16b8 9c3c abf5 01bc ae35 87bd
00000080: c08a ef3c fdc9 b4bd 082c 50bd a7ed 933d
00000090: c2f8 743c 29e5 2bbd 907e 643d ef82 413d
000000a0: 1913 23bd df3b 0dbd d360 6f3b ef5f 53bd
000000b0: 5600 823d 0cc5 5bbb c554 093d 0b06 563d
000000c0: 2003 a0bd 0602 353d c317 cfbd 57e1 3f3c
000000d0: 961b b5bd e83d 173d beee 97bd ea59 f4bd
000000e0: c500 353d 1004 98bd d21a 85bd fa44 16bd
000000f0: 7849 563b 4646 a73b 989a 96bd bf46 7e3d
00000100: 3aa1 3d3c b424 b53c b529 213d ab2a 4e3d
00000110: 6ca7 03be 0830 813d e570 a23c 13e5 f13b
00000120: 3d45 4fbd ccf5 293d 353e c0bd 66da 17bd
00000130: c651 493c 0c66 04be b595 57bd 69ad 873d
00000140: 3968 cc3d 1ef2 7d3d 76f5 d439 8697 943d
00000150: e58f 9f3c 43ec 8dbd 4fcb 99bc 5e07 62bc
00000160: 6a48 4f3d b8d7 cbbc 188d c33b 1fac 37bd
00000170: d73c b73d d45e e4bd 69cd 1d3c 56a0 0fbd
00000180: 8ac3 7ebd bebf 53bd 081e 97bd 47ac af3b
00000190: 4daf dc3c 94b2 99bd 0a6b df3b 1dca 6dbd
000001a0: 1723 4dbd af61 263d 0894 393c ac74 01be
000001b0: 82bb 3e3c 7fd2 d8bd 2341 93bc e81b b73d
000001c0: 8abf 303d 694b 383d a18d 05be d475 8dbd
000001d0: a403 7bbd 4688 143d da54 aabc 687f e7bd
000001e0: 82ab 49bd 8d78 e2bd 6a91 a2bd d7cd 9abc
000001f0: 9931 52bd 5578 13bd e8d8 c13c 4154 c0bc
00000200: 18db b9bd 3abd 063d e056 603c f1d7 f3bc
00000210: a20f 85bd 627b f5bd 766b a2bd c01d 0fbc
00000220: 4a40 cebd b6f8 2dbd 719e 59bd e149 56bd
00000230: 53d6 bebd 71d2 e1bc a44e 93bd f4bc 1a3d
00000240: ff24 88bd 6bb0 193b 893b 73bc 4f1b bf3d
00000250: bd38 99bc 9c9b 873c cc95 78bd 489d 513c
00000260: 5e60 1b3c adbb 8b3d e12c f5bc 4c96 92bb
00000270: 4303 ca3d a80f 143e 33ea cb3d 8fbe ce39
00000280: 3284 483e 336f 203e 47a6 6f3e 0297 123e
00000290: 2769 013e caa8 0a3e 19c4 cb3d 3e4a 97ba
000002a0: cdd6 af3c d2f1 e23d bbd3 dd3b 0431 a53d
000002b0: 3167 fc3d 1cad ba3d 159c 063d c541 133d
000002c0: bf26 47bd 0dd7 9ebc 72e8 1c3c 5a37 cd3c
000002d0: 0e23 a83c 80dd 333d 1524 6e3c 1fc2 c6bd
000002e0: c441 cfbd 202e cd3d 48f9 be3d 48ec 7a3d
000002f0: acd8 8cbc 25ea fcbd f4f8 2a3d 68df bdbc
00000300: c3f8 693d 6247 8b3d 4ac3 433e 2fc9 a6bc
00000310: ffab 68bd b23d 92bd d043 fbbc 214a 223e
00000320: 4b7f 203d 98e1 823d e1af 9fbc c80d 91b9
00000330: a15c d13d d4b3 e7bc 8397 cb3c 8b2a 933d
00000340: 6f44 1e3c 9a67 62bc b781 e1bc 121c 213d
00000350: 4cdf df3d 7bd1 bf3d d195 c4bc d056 023d
00000360: c9c2 ca3d 7ef0 823d df49 873c 87f6 6abd
00000370: ca13 75bd fff6 2fbe c34d 54be bfd5 e7bd
00000380: 75f1 0dbc 352a cc3d 4adb 173e 6803 323e
00000390: ced0 233e 2064 0e3e 3aa9 123d ed5f c53d
000003a0: 1d3d ec3d 0688 123e 95a1 113d 7209 11ba
000003b0: abc5 173d 2dea 963d d584 3f3d aa4f 33bd
000003c0: c46e f5bd c6f5 c93c d379 00bd 335c e5bd
000003d0: 9b4a acbd 3568 d5bd bad2 89bd 85c9 6abd
000003e0: 01de 7bbd 4512 44be 633a 463e 5b23 573e
000003f0: e318 1c3e fe57 3e3e 7b9f 423e 205f 513d
0.02085876 -0.084961675 0.013158688 -0.043699175 0.041952033 -0.059686895 -0.04120818 -0.03298205
-0.03013214 0.03203822 0.01607907 0.01477226 0.088100046 -0.0023700201 -0.07616627 0.074923865
-0.054315086 -0.06860316 -0.037116993 0.05897323 -0.016471231 -0.020391984 -0.06017448 0.06389859
-0.03193134 -0.12776542 0.021975745 0.009054128 0.0066487174 0.019130748 -0.007932107 -0.066020355
0.029240966 -0.08827589 -0.05082324 0.07223063 0.014951887 -0.04196659 0.055784762 0.04724401
-0.039813135 -0.034480926 0.0036526218 -0.05160516 0.0634772 -0.0033534197 0.03352811 0.052251857
-0.07813096 0.044191383 -0.10111954 0.01171144 -0.08843152 0.036924273 -0.07418583 -0.11931212
0.044190187 -0.0742265 -0.06499256 -0.036686875 0.00326976 0.005104813 -0.07353705 0.062079187
0.011574084 0.022112228 0.039346416 0.05033366 -0.12856835 0.06307989 0.019829223 0.007382044
-0.05060314 0.041494176 -0.09386865 -0.037073515 0.012287563 -0.12929553 -0.052633006 0.06624872
0.099808164 0.06199848 0.00040618674 0.07255463 0.019477794 -0.06929829 -0.018773703 -0.013795702
0.05060617 -0.024883136 0.0059677474 -0.04484188 0.08947151 -0.111508995 0.009631493 -0.035065018
-0.0621982 -0.05169653 -0.07378775 0.005361113 0.026939059 -0.07504764 0.00681818 -0.05805408
-0.050082292 0.040620502 0.011326797 -0.12642163 0.011641385 -0.10587024 -0.017975396 0.089408696
0.043151416 0.04499379 -0.13042308 -0.069072396 -0.06128277 0.036262773 -0.020792414 -0.11303598
-0.04923583 -0.110581495 -0.07937892 -0.01889698 -0.05131683 -0.03600343 0.023663 -0.023477675
-0.09074992 0.032895304 0.013692588 -0.029766055 -0.06497122 -0.11986424 -0.07930653 -0.00873512
-0.10070856 -0.042473517 -0.053129617 -0.05231655 -0.09318223 -0.027566167 -0.07192734 0.037777856
-0.066476814 0.00234511 -0.014845737 0.093313806 -0.018703813 0.016553693 -0.060689732 0.012793846
0.009483425 0.06822906 -0.029928626 -0.004473483 0.098639034 0.14459097 0.09956779 0.0003943336
0.19581679 0.15667419 0.23403274 0.14315417 0.12637769 0.1354095 0.09949512 -0.0011542512
0.02146473 0.1108128 0.006769625 0.080659896 0.1232437 0.09115049 0.032863695 0.035951395
-0.048620936 -0.019389654 0.009576904 0.025050808 0.020524528 0.04391241 0.01453497 -0.097049944
-0.10119966 0.10018563 0.093248904 0.06126049 -0.017193161 -0.12349347 0.041741326 -0.023177817
0.057122003 0.068007246 0.19117466 -0.020359604 -0.056804653 -0.07140674 -0.030671984 0.1584859
0.039183896 0.06390685 -0.019493045 -0.00027666823 0.10222746 -0.02828399 0.02485252 0.07185849
0.0096598705 -0.013818646 -0.027527673 0.03933341 0.109312624 0.09366127 -0.02399722 0.031821072
0.099004336 0.063935265 0.016514717 -0.057364013 -0.059833325 -0.17184065 -0.20732789 -0.11320066
-0.008663525 0.09968988 0.14829746 0.17384112 0.15997621 0.13905382 0.03580592 0.09637437
0.11535094 0.14309701 0.035554487 -0.00055327185 0.037053745 0.07368884 0.046757538 -0.043777145
-0.119840175 0.024653327 -0.03136618 -0.11199226 -0.08412667 -0.104202665 -0.06729646 -0.05732109
-0.061491016 -0.19147594 0.1935821 0.21009581 0.15243869 0.18588254 0.1900615 0.05111611

bias f4 [16]
00000000: 9e33 9dbd 2b35 7dbe 571e bcbe 74fa bdbd
00000010: 5efe a93c 6e0a 6abe 683d 96bd dc7e 21bd
00000020: b103 b7bd 865d 84bd 4850 d9bd 772a 533d
00000030: 96be 7dbe 5831 7dbe 52d6 82bd 7f95 e1bd
-0.07675861 -0.24727313 -0.36741897 -0.09276286 0.020751175 -0.22855541 -0.07335931 -0.039427623
-0.08936251 -0.06463151 -0.106110156 0.05155417 -0.24779734 -0.24725854 -0.063885346 -0.11014842

weight f4 [120, 400]
00000000: 487c 9dbd 2c0f b9bb abd9 633c e24e 2abd
00000010: 81be e7bc 3b2c 51bc 3726 70bb 61c9 79bd
00000020: 4249 adbc c525 11bd ffce 49ba 2301 1bbd
00000030: c5ab 02bd 2df6 a0bd a743 0ebc bf9b 91bd
00000040: f2a4 64bb 9a80 a5bb a206 00bd 50b6 16bb
00000050: cd48 9ebd 4c75 4cbd 1cf6 28bc 5894 b9bc
00000060: ddb3 5fbc 12df 4dbd ce91 31bd 8c31 59bc
00000070: 5465 c6bc 7c3b 9f3b 5918 65bc cd07 f5ba
00000080: 4f4b 91bd 85f9 39bc a2dd baba c25f 19bc
00000090: 4905 b6bd 884c 303c a3eb 51bd dab3 81bd
000000a0: d06e 9bbd d221 8abd aebc 62bd 62d3 21bd
000000b0: d213 4bbd e922 3fbd 9e4f 0cbc b33d 533c
000000c0: 4c80 45bd 2645 6abd 2557 adbd 33c2 a33b
000000d0: 2b98 a6bd c13a 1b3c 3996 aabd e3da abbd
000000e0: 589f 203d 59c0 83bc 1341 02bb 1761 bc3b
000000f0: b4ad acbc 7d1c c6bb ed95 86bb 6ba5 aebc
00000100: 03e5 e5ba 6c3f 4fbc c897 82bd caa7 2abd
00000110: b4db 4bbd 6dd7 31bd 6441 ef3b 2838 07bd
00000120: 3b48 89bb a247 80bd 878d 81bd 76f1 e536
00000130: a614 48bc 8c0c 64bd 59a4 a7bc c32e bf3c
00000140: 5711 513c ef19 8ebd 5d64 8ebc feba 033d
00000150: 9c95 e4bc 6af9 03bd 29d7 4dba c327 553c
00000160: af62 20bd de72 213c b351 8e3c 52d8 66bd
00000170: 92c1 72bd e472 d7bb 933b 88bc 770d 913c
00000180: dda5 e8bc 118c 7abd 8162 f0bc 066e a33b
00000190: 224b 51bd 54dd 92bd a10a 68bd 6e71 a23c
000001a0: 343a 28bc 45e3 b1bc b663 23bd b9eb 2cbd
000001b0: 0323 b3bc 058d a0bd bda1 9f3c 2c88 6bbd
000001c0: 578c 15bd d328 e23c be3c 243c 3f5c adbd
000001d0: 5aa7 f2bc 2f78 92bc 39a2 85bd a465 883d
000001e0: d754 7ebc b500 aebd 2662 67bd 1a02 84bd
000001f0: ca8c 64bd d570 dfbc 88a6 39bd 328b 80bd
00000200: 199f 243b dcae b5bc fe95 2cbd f427 b0bc
00000210: a1ee b4bb 941b 993d d099 57bd f3b0 9abd
00000220: 8b21 99bd 3205 50bd 566b b4bc e355 5ebc
00000230: 4569 e0bc 5203 87bc beb6 5fbc 76a7 a7bd
00000240: 8488 97bc cb8c a0bd 29ff 31bd 3c4f 86bc
00000250: 444b 4ebd e222 27bd 513c 3d3c 4a37 1c3c
00000260: 61e7 2c3d a9f5 c23a 8980 0abd 6f54 44bd
00000270: 841d 1f3d 21b8 1ebd 4442 533b 5614 07bd
00000280: e085 eabc df83 87bd f3c7 8dbd 268d 96bd
00000290: c4c8 2abd 9141 4a3d 64a0 56bd 138d 82bc
000002a0: 316c 863d 75ad 173a c626 cc3b 838d 763b
000002b0: bf9d 0cbb 29b0 9cbc d753 cdbc 6708 4c3c
000002c0: b260 16bd 9f08 cf3a ee4a 97bd e13b debc
000002d0: 1e84 babc 6955 58bd 56aa 09bd b855 d33c
000002e0: c27c 9ebd 4c6a ecbb 8e14 70bd 4525 de3b
000002f0: 7a0c 24bd 0699 393b 45f8 77bc 22b2 68bd
00000300: 9a33 11bd 5df1 9ebd 9be9 8abd bf50 28bc
00000310: 86f8 343c 5eea 98bd 1e73 6abb 4e34 51bd
00000320: 91b2 08bd 2167 95bd a5e3 aebd 1016 dc3c
00000330: 17d5 8a3c e3b6 0cbd 270e ad3b e4f6 febb
00000340: 7a75 223c b21c 57bd 4701 d9bc d791 9cbd
00000350: 0c46 34bd 92f3 843a 63de 86bc 7ad7 683c
00000360: 3f0d e6bc 72fb 61bd 1e6c 9fbd ea46 e6bb
00000370: ac94 193c ea29 81bd d209 02bd 3d33 76bc
00000380: da22 d6bc 76e2 25bd 333e cfbc 8ecc 103c
00000390: d1f9 833b c650 4c3b 924f 023c 1330 95bd
000003a0: 2d9e 483c d253 04bd 08db 2bbd 9abb 82bd
000003b0: 9069 82bd 32ea 92bb b9b9 30bd 971b 72bc
000003c0: cf11 0c3c 2aca a5bd 0ce8 99bd 6b44 8fbd
000003d0: 30c4 a0bd 9888 98bd af50 82bc c746 633c
000003e0: d039 283d efb3 1abd 336e 73bd 8743 06bd
000003f0: c516 c8bc a15c 163b 974d 40bd 7ae6 2cbd
-0.076897204 -0.0056475606 0.013906877 -0.041579135 -0.028289082 -0.012766893 -0.0036643872 -0.060983066
-0.021153096 -0.03543641 -0.00076983863 -0.03784288 -0.031902093 -0.07859454 -0.008683122 -0.07109784
-0.0034888354 -0.005050731 -0.031256326 -0.002299685 -0.077287294 -0.04991655 -0.010312583 -0.022653744
-0.013653723 -0.050261565 -0.04335194 -0.013256442 -0.024218239 0.004859386 -0.013982856 -0.0018694341
-0.07094442 -0.011350994 -0.0014256726 -0.009361209 -0.08887727 0.010760434 -0.05125011 -0.06333132
-0.07589495 -0.06744732 -0.05535572 -0.03950823 -0.04957945 -0.046664152 -0.008563904 0.012893128
-0.048218057 -0.05719485 -0.08463887 0.0049975156 -0.081344925 0.009474457 -0.08329434 -0.08391359
0.039214462 -0.01608293 -0.0019875213 0.0057488787 -0.021078922 -0.0060458765 -0.004107228 -0.021319112
-0.0017539564 -0.012649398 -0.06376606 -0.041663922 -0.049770072 -0.043418337 0.0073014963 -0.03301254
-0.0041895187 -0.06263663 -0.06325822 6.8528416e-06 -0.012211954 -0.055676028 -0.02046411 0.023337727
0.012760482 -0.0693854 -0.017381841 0.03216075 -0.02790337 -0.03222028 -0.0007852191 0.013009968
-0.039156612 0.009854047 0.017372942 -0.056358643 -0.059266634 -0.0065749753 -0.01662997 0.017706616
-0.028399402 -0.061168734 -0.029343845 0.004987481 -0.051097043 -0.07171121 -0.05665076 0.019829478
-0.010267783 -0.021714816 -0.039890014 -0.04221699 -0.02186728 -0.07839397 0.019486303 -0.05750291
-0.03651079 0.027607357 0.010024248 -0.0846486 -0.029620815 -0.017879574 -0.06525082 0.066600114
-0.015523157 -0.084962286 -0.056490086 -0.06445713 -0.05579833 -0.027275482 -0.045324832 -0.062765494
0.0025119244 -0.022178106 -0.04213523 -0.021503426 -0.005521611 0.07475963 -0.05263692 -0.07553282
-0.07477101 -0.050786205 -0.022023838 -0.013570282 -0.027393946 -0.016481075 -0.013654409 -0.081862375
-0.018497713 -0.07839354 -0.04345623 -0.016395204 -0.050364748 -0.04080475 0.011550025 0.009534666
0.042212848 0.0014874238 -0.033813987 -0.047932085 0.038846508 -0.038749818 0.0032235542 -0.03297838
-0.02862829 -0.06616949 -0.06922903 -0.07351141 -0.04169537 0.049378935 -0.052399054 -0.01593641
0.065636046 0.000578604 0.006230208 0.0037620969 -0.0021456329 -0.019126968 -0.025064392 0.012453175
-0.03671331 0.0015795416 -0.073873386 -0.027128162 -0.022768077 -0.05281583 -0.03360971 0.02579771
-0.077386394 -0.00721482 -0.058613352 0.006779345 -0.04005096 0.002831997 -0.015134876 -0.056810506
-0.0354496 -0.0776088 -0.06782838 -0.010273158 0.011045581 -0.07466577 -0.0035774182 -0.051075272
-0.03337342 -0.07295061 -0.085395135 0.026865989 0.016947312 -0.034354102 0.005281228 -0.0077808965
0.009915704 -0.0525176 -0.026489867 -0.07645004 -0.044012114 0.001014339 -0.016463464 0.01421153
-0.028082488 -0.055171438 -0.077842936 -0.0070274966 0.009373825 -0.063068226 -0.031747647 -0.015026865
-0.026139665 -0.040499173 -0.025298214 0.008837832 0.004027583 0.0031176074 0.007953541 -0.0728456
0.012244743 -0.0323065 -0.04195693 -0.063834384 -0.06367791 -0.0044834847 -0.04314587 -0.014777086
0.008549168 -0.080952 -0.075149626 -0.069954716 -0.0784992 -0.07447928 -0.015907614 0.013871855
0.04107076 -0.037769254 -0.059431266 -0.032779243 -0.02442492 0.0022943395 -0.046948995 -0.042211987

bias f4 [120]
00000000: 55a1 b0bd fc12 4e3e b9e1 3dbd 8db3 1e3d
00000010: a028 59bd ea56 e1be a0d3 6cbd 35b7 c63c
00000020: 936e 8c3e dbe6 6fbc c0c4 1ebc 8a64 abbc
00000030: 36c4 1f3e 7913 9f3c c9d0 883c 823e 9d3c
00000040: 7a74 3abd b7e1 ba3e b583 b73a 2018 57bd
00000050: 4628 d8bc 4c64 88bd 9138 6ebd 89a9 0cbd
00000060: dc3a 173e b705 85bd 9f62 09be 5e23 13bd
00000070: d9c0 b33d 619f 6bbe f59b 07bd 7c0e 613c
00000080: 7242 8f3c 4ff7 56bd 19b4 673c cb1a 62bd
00000090: 9b8a c33d 71be ec3d e110 21be 05c3 963e
000000a0: 86d0 7fbc fd93 0d3f fae5 d83e 9174 7ebe
000000b0: 169d 88bb 4588 083c fb75 293c e66f 54be
000000c0: d03f 8bbd 43b2 133d 37de abbd 84d8 4bbe
000000d0: e851 a63e a345 fa3e 9742 c33e f3ec a9bc
000000e0: 518a 9a3c 014d f3bc 6bd9 373d de29 773c
000000f0: bd63 e23b ccfc b9bc e823 35bc 05df 803c
00000100: 6b60 13bf 5e01 1abe 40aa 5bbd b4be 153e
00000110: 39f2 e5bb 971e 983b a443 4e3e 7693 50bd
00000120: 32e2 1d3f 2807 5ebe fcc3 81be 708a 1f3f
00000130: 5056 76bd 5d7a 18be 7ea1 5dbd 55ea 2dbc
00000140: 627d f83d 41f6 5c3c 17ff f5bd b79b 043d
00000150: 6014 bfbc 936a 4abc 6887 753c cdba 79bd
00000160: c693 09bb 9c13 2c3d cbec 0dbd 5e45 a23c
00000170: 297e e7bc ba70 ecbc 56a8 9b3c b145 0e3c
00000180: ac4a 21bf 6167 073b 98f3 393c f5e5 0b3d
00000190: 8b6c 44be 73e1 ad3e 7ef6 02be 97f2 29bc
000001a0: ecf5 e3bc c538 5bbd 00ba 2bbd 362c 5fbd
000001b0: b7a4 f7bc 20e8 213e 8d88 84bc a5bc d93d
000001c0: 01c0 22be fc83 623b d760 87bd 774d 333d
000001d0: 8c73 72bc 9bef 71bc 2e5a 043d 92d4 f33e
-0.08624522 0.2012443 -0.046357844 0.03874545 -0.05301726 -0.44011623 -0.05781901 0.024257282
0.2742811 -0.014642443 -0.009690464 -0.020921964 0.15602192 0.019418465 0.016701119 0.019194845
-0.045521237 0.36500332 0.0014001044 -0.05251324 -0.026386391 -0.06659755 -0.058159415 -0.03434137
0.14768547 -0.06495231 -0.13416527 -0.0359224 0.08777017 -0.23010017 -0.033107717 0.0137363635
0.017487738 -0.052481946 0.01414206 -0.055201333 0.09547921 0.11559761 -0.15729095 0.29445663
-0.015613681 0.5530394 0.42362958 -0.24849154 -0.0041691167 0.00833327 0.01034307 -0.20745811
-0.06799281 0.036058675 -0.083919935 -0.19906813 0.32484365 0.48881254 0.38136742 -0.020742869
0.018864783 -0.029699804 0.04488508 0.0150856655 0.0069088624 -0.02270355 -0.011055924 0.015731344
-0.57569 -0.15039584 -0.05362916 0.14623529 -0.0070174006 0.0046423185 0.2014299 -0.05092188
0.6167327 -0.21682417 -0.25344837 0.62320614 -0.060140908 -0.14890428 -0.05410909 -0.010614951
0.1213329 0.013486446 -0.12011545 0.032375064 -0.023325145 -0.012354511 0.014985897 -0.060969163
-0.002099262 0.04201089 -0.03464965 0.019808467 -0.0282584 -0.028862346 0.019001167 0.008683608
-0.63004565 0.0020660984 0.011349581 0.03415485 -0.19182031 0.33961067 -0.12789342 -0.010372779
-0.027827226 -0.053520937 -0.04192543 -0.054485522 -0.03022991 0.15811205 -0.016178394 0.10631684
-0.15893556 0.0034563532 -0.066102676 0.043775048 -0.014798056 -0.014766599 0.032312565 0.47623116

weight f4 [84, 120]
00000000: 567c a63c ecda 2ebe e423 053e 680e 6b3e
00000010: 5762 0dbd fea8 d63d 4d34 a9bd af89 b6bd
00000020: 86d0 173e 2759 533d 2b67 05be 24f2 103d
00000030: b187 623e 3c5c 323d 02bc cb3d f605 86be
00000040: 8abc 723b 3929 d9be 2247 603d eba2 fe3d
00000050: 834b 38be f25d 38be 23b8 01bd 7c58 d5bc
00000060: 1450 04bd 044c 17bc 876d 37be 7add fe3d
00000070: 8ea3 703d 20db 933d c5c0 cabd 5b94 f0bd
00000080: a66a c339 bd90 e4bd 8bfc 77bc 1b4a 55be
00000090: 5eb6 e9bc 6f1b 16be d548 87be 640b 943d
000000a0: 598a 31bd b250 083e 8d07 78be 628d 203d
000000b0: 7860 103e a575 463d 23cf 703d 05d8 2f3d
000000c0: 19b4 963d 8f54 dd3c 2ac3 923d 773a ad3d
000000d0: bc2e d9bd 029c 2d3b 7785 4bbd 24ca bb3d
000000e0: c99c d83d e8db a1bd b63f c3be e851 893e
000000f0: fc11 78bd 19e6 b0bd ba92 2abd ed1f 7cbc
00000100: 86c6 d1bd ec29 76bd 467a e63d 316e 28be
00000110: 0b4b c9bd 92d6 b23d 038d 273e 4cdc a5bd
00000120: 7af1 26be 7bbb 7bbc 780f 993e c8d8 53be
00000130: 58a0 f3bd 4407 f1bd 7629 433e c8ee 693d
00000140: 0a16 e33d c9c6 94bd 7934 033e fe85 373d
00000150: 553c ca3d ff14 d93c 1eee 03bd c600 3e3d
00000160: 61dd fbbd b6ef 6fbe 8de0 82b9 566e 2cbc
00000170: 7ef8 513d 9b13 fe3d f13a 253e 9455 55bd
00000180: 0456 46bd 446e 5fbc 5423 72bc ec61 d63c
00000190: 243d 1e3e 3d3e e6be 1247 513d b757 11bd
000001a0: 7819 8cbd b995 5cbd 0dc3 993d 2d2a 1bbe
000001b0: 72e9 bdbd c331 60bd 8fd4 fabd b2d0 62bd
000001c0: 78bf 27bd 2fbc 34be ea58 593c 5518 08be
000001d0: 2a2f 4dbd eb86 da3d 2063 0bbe 9a9e 8bbc
000001e0: 3618 dd3d caa6 b3bd 1335 2bbe 2e55 80be
000001f0: 8116 003c d819 1dbe e335 6abd 2047 c33c
00000200: 91ef deba 6b2a 7e3d e9d7 c4bc 4f53 d53d
00000210: 600a 1a3d 3933 86bd c495 d43c 63bf 30bc
00000220: 21b8 c23d abe8 ab3a 3fcc 923c 0c50 9abd
00000230: dac9 c53c 51bd a6bb d077 15be fef5 90ba
00000240: 0840 123e 703f c73c 8fa9 86bd c801 57bc
00000250: 32d0 2c3e 8e6f 27ba d320 8bbe c03e 0fbe
00000260: dec0 70bb d3c6 28ba 049c a33d 9c96 53be
00000270: 75f6 26bd 5675 893c 4ee2 7b3a 0506 a2bc
00000280: 0a55 2b3b 797a c3bd 0c2e 2b3e c3af bfbd
00000290: e60b ef3c 5d54 903c 7017 c53c 8ff6 1ebe
000002a0: 67b9 ae3d 9d2d d33d 3892 b9bb 00d1 78be
000002b0: 9ca7 1c3e 2dc8 943e c8ca 03be 7700 5c3d
000002c0: 6aca 9d3d b751 883c a8b5 1e3d ee9a 93bd
000002d0: 02fa 113d 02e5 0a3e c623 be3b b46b 883d
000002e0: 7db0 c03d 1e2e 0b3e c07d f43d 9964 fdbc
000002f0: a4ef e9bc bed5 cf3d c5b7 48bd 64d3 803d
00000300: 7cfb a83d 21bc 02bd 3d21 a23c e5be 45bc
00000310: a946 fabc c9fa dabd 5e12 163d 03f7 c0bd
00000320: 3eff 813c 4206 f7bd af4c ffbd db55 bb3b
00000330: 083d 1c3b 6efb 243e d2a8 44be 76b7 bdbc
00000340: 4749 10bd 3a4b 223b f27e bd3d ec30 473d
00000350: b31f 38be c2e7 21bc a823 9cbd b061 a43c
00000360: b514 acbe d87f 2abd baa7 ac3c adaf c33d
00000370: 742c d9bc afe8 abbc 7026 d53d 6066 8ebc
00000380: e0c4 ed3d 77dd 173d ab18 b6bc 2818 46be
00000390: 63ff 823d d365 c73d 506c 2c3d 455c 1bbe
000003a0: 3220 893b 10fb 3f3d 793a 2b3c 7b49 7b3d
000003b0: 36d4 893c 538d b5bd 027b 823d 8960 8d3d
000003c0: 94d4 c8be 1be4 7dbe c93d 11bd 2fb6 a3bc
000003d0: af91 f53b e851 bbbd 8671 a3bd 0881 dcbd
000003e0: fe26 003d 6907 db3d 162a 233c cc9c 953d
000003f0: 3b2a 6ebe 1fab 823d 4ce0 fc3b 1c8f eb3d
0.02032296 -0.170757 0.13001972 0.22954714 -0.034517612 0.104814515 -0.08261929 -0.0891298
0.14825639 0.051598694 -0.13027637 0.035387173 0.22122075 0.043544993 0.09947969 -0.26176423
0.0037038648 -0.42414263 0.054755338 0.12433418 -0.17997555 -0.18004587 -0.031669747 -0.02604317
-0.03230293 -0.009234432 -0.17912875 0.12444587 0.058749728 0.07219529 -0.09900049 -0.117470466
0.00037272758 -0.11160419 -0.0151358945 -0.2082905 -0.028529342 -0.14658903 -0.26422754 0.07228735
-0.04334483 0.13312033 -0.2422163 0.039197333 0.140993 0.04845204 0.05879129 0.04293062
0.0735857 0.02701786 0.07166131 0.08458417 -0.10604617 0.0026490693 -0.04968783 0.09169415
0.105767794 -0.07903272 -0.38134545 0.26820302 -0.060564026 -0.08637638 -0.041643836 -0.015388471
-0.102429435 -0.060098574 0.112537906 -0.16448285 -0.098287664 0.08732332 0.16362385 -0.08098659
-0.16303053 -0.015364523 0.29894614 -0.20688164 -0.118958175 -0.11768964 0.19058785 0.057112485
0.11088188 -0.07264478 0.12812985 0.04480552 0.09874789 0.02649927 -0.032209508 0.046387456
-0.12298084 -0.23431286 -0.00024962836 -0.010524353 0.05126237 0.12406083 0.16135766 -0.052083567
-0.048421875 -0.013637129 -0.014778931 0.02616974 0.15453011 -0.4496936 0.05109317 -0.035484042
-0.06840795 -0.053853724 0.07507906 -0.15152808 -0.09273042 -0.054734956 -0.122475736 -0.05537481
-0.040954083 -0.17649911 0.013265828 -0.13290532 -0.050093807 0.10670265 -0.13612032 -0.0170434
0.107956335 -0.08772047 -0.16719465 -0.25064987 0.007817865 -0.1534189 -0.057180297 0.023837626
-0.0017008652 0.06205217 -0.024028735 0.104162805 0.03760755 -0.06552739 0.02595032 -0.010787818
0.09507776 0.0013115605 0.017919658 -0.07534799 0.024144102 -0.0050884862 -0.14596486 -0.001105964
0.14282238 0.024322242 -0.065753095 -0.013122983 0.16876295 -0.00063871674 -0.2717348 -0.13988781
-0.0036736052 -0.00064383185 0.07988742 -0.20662922 -0.040762383 0.016779583 0.0009608612 -0.019778261
0.0026143217 -0.09544844 0.16716784 -0.09359696 0.029180478 0.017618353 0.024059027 -0.15523742
0.085314564 0.103114344 -0.0056631826 -0.24298477 0.15298313 0.29058972 -0.12870324 0.05371138
0.07704623 0.016640527 0.03874746 -0.07207285 0.035638817 0.13563922 0.0058026044 0.06661168
0.094086625 0.13591811 0.119380474 -0.030931758 -0.028556652 0.1014819 -0.04900338 0.062903196
0.08251092 -0.031917695 0.01979124 -0.012069439 -0.030551272 -0.10692365 0.03663861 -0.09422114
0.01586878 -0.120617405 -0.12465798 0.005717022 0.0023840088 0.16111538 -0.19205025 -0.02315877
-0.035226133 0.0024764077 0.092527285 0.04863064 -0.17980842 -0.0098819155 -0.076239884 0.020066112
-0.33609548 -0.041625828 0.021076072 0.09554992 -0.026510455 -0.020984976 0.10407722 -0.0173828
0.116098166 0.03707644 -0.02222856 -0.19345152 0.063963674 0.09736218 0.042095482 -0.15171917
0.004184746 0.04687029 0.010450953 0.061349373 0.016824823 -0.08864846 0.06371118 0.06903178
-0.39224684 -0.24794047 -0.035459314 -0.019984333 0.0074941735 -0.09146482 -0.07980637 -0.10766798
0.031287186 0.10694773 0.009958765 0.07305297 -0.23258297 0.06380295 0.007717168 0.11501905

bias f4 [84]
00000000: 4ede 083e 6e79 2d3e 6c5e 0dbd da85 4fbd
00000010: f6aa 6abd ff0f fcbd 5708 063f f405 33be
00000020: ed77 903d 1d4c 2f3e 9016 58bd 6195 153e
00000030: d3bd 69bd bc96 48be 8776 cd3d 1b1a 8c3c
00000040: 38f1 99be 5b03 b73d a962 b63e 0be6 87bd
00000050: a87e 2d3f 6839 f53e b97b 2c3f 2527 52bd
00000060: 6698 713e 7b9c 69bd 1b9d 153f aa34 423e
00000070: be3d 283d 56dd c63c ff4e 02bd 34b2 a53e
00000080: 88d8 ef3e ddd4 df3d 4e4b 233e c501 8bbd
00000090: 1816 ae3e 48e7 69be 77f4 c6bb 687f 4e3b
000000a0: 9b5e cfbc 382b 4dbd 885e b1bd 7785 b5bd
000000b0: 4d85 d3bc c577 863c fb8f 553d 87d6 56be
000000c0: 1e8c 0c3e 7cc2 0d3f 1c6e 25bd 8bda d5bd
000000d0: a45d 063e f49b 2dbd 5731 2a3d a9a3 67bd
000000e0: 3f0e ee3b 66e3 0e3e 4ae2 903d d778 f8bd
000000f0: 39bb e33e d6c4 33be 70c0 d7bd c071 1d3e
00000100: 6303 3d3d 7bf2 45bd c5c1 78be f2d1 b4bd
00000110: c29c 43be ff65 7dbd b213 c9bd d45c 01bd
00000120: 27df 92be 60dc 15be b632 bf3e 3ebd 473e
00000130: 1a95 393e 3375 a1bd 5a94 afbe e861 b63c
00000140: 9150 75bd 7f80 58bc 88d6 49bc 9d38 1ebc
0.13366053 0.16940853 -0.034513876 -0.05066476 -0.057291947 -0.123077385 0.52356476 -0.1748274
0.07054124 0.17118879 -0.052755892 0.14607765 -0.057065796 -0.1958875 0.10032373 0.017102292
-0.30066848 0.08936187 0.35622147 -0.06635674 0.6777139 0.4789536 0.67376286 -0.051306862
0.23593292 -0.057033997 0.5844285 0.18965402 0.041074507 0.024275463 -0.031813618 0.3236252
0.46844888 0.10929272 0.15946695 -0.06787447 0.3400123 -0.22842133 -0.006071623 0.0031509046
-0.025313666 -0.050090045 -0.086606085 -0.08863347 -0.025820399 0.016414532 0.052139264 -0.20980273
0.13725325 0.55374885 -0.04038821 -0.104420744 0.13121659 -0.042385057 0.04155096 -0.056552563
0.007264882 0.13953933 0.07074411 -0.12132423 0.44478777 -0.17555556 -0.105347514 0.15375423
0.046145808 -0.04832695 -0.24292667 -0.088291064 -0.19102767 -0.06186485 -0.0981821 -0.03158267
-0.28685877 -0.14634848 0.37343377 0.19505784 0.18123284 -0.07883682 -0.3429287 0.022263482
-0.059891287 -0.01321423 -0.012319215 -0.009657052

weight f4 [10, 84]
00000000: 7f4e 993d 4fd6 acbd 33ce d9bc dd41 e63c
00000010: d48f 2abd adcb bfbc e19d ae3d 511d eb3d
00000020: b4f3 a33b c2c7 c9bc 67f8 183c 9f7e 193d
00000030: 5af8 2f3d cece 903d e11e 11bd 4bb7 5a3c
00000040: 6b75 05bd 08e7 34be 3148 b2bd d1ea 053d
00000050: 3fb3 c03d dc7a 1abe b08d 30bc a0f2 813d
00000060: acf8 0bbc 3cda d33c 0917 28bd e252 0d3e
00000070: 23fa 99bb 15db b33d 0a1b adbc 698d d93d
00000080: 0235 e4bb 3d47 0abe 775e 823d 54ab fdbd
00000090: 562e 0c3e 81c3 14bd 428d 183c a125 16ba
000000a0: 05fd 7cbb 832b 883c 8195 70bd bd75 55bd
000000b0: 1c8f c63b 5fb4 353d 7009 b8bd a7cb 2b3d
000000c0: 86d1 f03d 101a 953d 2b55 bebd 2c59 c5bd
000000d0: 3d80 82bd 9324 f93d 2f4e e93c 14c3 313d
000000e0: 1f14 8bbd 7a97 4a3d 7101 22bd 38ac 6c3b
000000f0: f1c8 33bd 0450 d83c 2b94 d33c d1e3 10b9
00000100: 466f 8f3c 84aa 77bd 644e e6bb f175 c03d
00000110: 60db 39bd 27a7 863d a6de c83d eb41 a6bd
00000120: ea3f 05bd 275a 043e 84b8 36bd abe0 13bd
00000130: 7702 f8bd 6c64 9a3c 9691 8c3c 7692 cb3c
00000140: 3e88 dd3d 997f 6b3c b501 dbbd 7589 09be
00000150: d59d b5bd 0ab2 fabd 1577 01bc 2b25 f9bc
00000160: 54ae 1c3e 8f4f cd3d 82b6 edbd 4766 8f3b
00000170: 88da d2bd 67aa cdbd e768 a13c 62c2 c4bd
00000180: 31dd 1e3e 9d0b 1fbe 6fa2 04bd d010 583d
00000190: ec01 fd3d b2c3 35bd 0732 adbd 1fda 8ebc
000001a0: d31e d83b a21d 85bd 83c9 bbbd 85cc e13c
000001b0: c0b1 dc3d 82c5 a7bd 038c a2bd 5138 aebd
000001c0: 6a88 4bbb 4fbe d33c 30a9 c73d 4f4f e3bd
000001d0: 459c 81be da6f 9cbb 8646 d73c 692a 8d3d
000001e0: c56b a2bd bcc8 f43d e487 003d 1649 33be
000001f0: 3286 3dbc 7f22 3cbd 8e72 1c3d 327e 4ebd
00000200: 2880 873d a162 b33d 2095 f63d 6910 53bd
00000210: ed82 553d 1523 41bd 6a7f 323e f011 0f3e
00000220: 03cf c93d 7daa 7e3d 818c aabd b16e 183d
00000230: f097 e13c ad19 05be b01f 003e ae86 d3bc
00000240: 1979 c9bc cd26 7dbd b3ba 33bc 08ee 833d
00000250: c8a6 c83c 84f3 083c c2f2 17be b297 cfbc
00000260: e0d7 85bd 9d15 943d 9549 903d cf96 343c
00000270: 8337 ebbd 49be 7dbd 9ca8 18be 16b8 0dbe
00000280: cd1e 09be de28 e23c 962e a4bc 5be5 0fbe
00000290: 5bd9 dc3a dc0a 803d d890 5fbd 2ef2 943d
000002a0: 2fda b8bd bafa aebc b1c3 a93d d41e f53c
000002b0: 86b1 363e 8817 4e3c 2d63 303d 10f0 f13d
000002c0: ceb4 6b3d e70f 25bd a1a6 8dbd e97f cdbc
000002d0: 980d 3d3d 18f6 43bd 82ca 353d 20ef adbd
000002e0: 0e88 fd3c f2c7 fcbc 83ae 183d 532b 913d
000002f0: 85ac f93c 6ad4 a83d c2c1 863d 2ee6 9b3a
00000300: 147a 903b 1ebc fa3c cbc6 6bbb fbe4 d83d
00000310: 28d6 21bc f832 f43d 9e65 043d 411f f83c
00000320: 5e41 8c3d 70f3 e83b 0a8e 073c a413 d0bd
00000330: 6929 5dbc c014 93bc 1344 a33d a6ad 153b
00000340: a1e6 79bd 1d06 17bd 9a67 11be ee7d 9a3c
00000350: 0d96 02bd 3d8c 14bd c0f7 943d c185 e2bc
00000360: 9ebf 6cbd 81ac 3d3d a9a9 5d3c e7fa c23b
00000370: 0958 bfbb ff52 eb3c e894 51bd c23a 37bd
00000380: c381 b7bd b7f8 ce3d df3d 84bd 13b5 a9bd
00000390: dc9c 943d 6c63 d53d 6510 6ebc 76b7 b1bd
000003a0: 83f2 c8bd b18b 223d caba 8cbd 8843 5d3c
000003b0: 5790 0ebd 50b6 00be c810 9e3d af84 943c
000003c0: 664d 8e3d b94a de3d ebc9 f73d 6448 863d
000003d0: 4a87 133d 3e33 23bd 2896 0bbe 3f24 dc3d
000003e0: 8544 70bd 3130 c3bb 9994 00bd 5972 043d
000003f0: abbf 4abc f386 ad3d e193 a73b c6c9 c13c
0.07485675 -0.084393136 -0.026587581 0.028107578 -0.04164107 -0.02341255 0.08526207 0.11480201
0.005003417 -0.024631385 0.0093365675 0.03747427 0.042961456 0.07070695 -0.03542984 0.0133493645
-0.03258268 -0.17666256 -0.08705176 0.03269464 0.094091885 -0.1508593 -0.010775968 0.06345105
-0.008543175 0.025860898 -0.041037593 0.13801149 -0.004699008 0.08782021 -0.021131057 0.10622675
-0.006964327 -0.13503738 0.06365674 -0.12386194 0.13689551 -0.03631926 0.009311022 -0.0005727653
-0.003860296 0.01662231 -0.058736328 -0.052114237 0.0060595404 0.04436147 -0.08986175 0.041942265
0.117587134 0.07280362 -0.09293588 -0.09636149 -0.06372116 0.12165179 0.028479664 0.04339893
-0.06790947 0.049460866 -0.039552156 0.0036113393 -0.043892805 0.026405342 0.025827488 -0.00013817778
0.017509114 -0.06046535 -0.007028388 0.093974955 -0.045375228 0.065748505 0.09808092 -0.081180416
-0.032531656 0.12925015 -0.04460956 -0.036102932 -0.12109845 0.018846713 0.017159265 0.024850111
0.10817002 0.014373683 -0.10693685 -0.13431342 -0.08867995 -0.122409895 -0.0079019265 -0.03041323
0.15300876 0.1002494 -0.11607076 0.004376206 -0.10295588 -0.10042267 0.019703342 -0.09607388
0.15514065 -0.15531774 -0.03238147 0.05275041 0.12353882 -0.044376083 -0.084568076 -0.017437993
0.0065954714 -0.06499793 -0.09169295 0.027563343 0.107760906 -0.081919685 -0.07936861 -0.08506835
-0.003105665 0.025847582 0.09749067 -0.11099111 -0.25314537 -0.004774076 0.026278745 0.06892855
-0.07930712 0.119523495 0.031379595 -0.17508349 -0.011567639 -0.045931336 0.038195185 -0.050413318
0.06616241 0.08759046 0.12040162 -0.05152932 0.052126814 -0.047152597 0.17431417 0.13971686
0.098539375 0.06217431 -0.0832758 0.03721494 0.02753827 -0.12998076 0.12512088 -0.025821056
-0.024593877 -0.06180458 -0.0109698055 0.06441885 0.02449359 0.00835884 -0.14838699 -0.025340889
-0.065353155 0.07230685 0.07045285 0.011022284 -0.114851974 -0.06194905 -0.1490807 -0.13839754
-0.13390656 0.027607378 -0.020041745 -0.14052336 0.0016849445 0.06252071 -0.054581493 0.072727546
-0.0902599 -0.02135979 0.08289278 0.029921927 0.17841157 0.0125788525 0.04306333 0.118133664
0.057545476 -0.04029837 -0.069165476 -0.025085406 0.046155542 -0.047842115 0.04438258 -0.08492875
0.030948665 -0.03085706 0.037275802 0.070883416 0.030477772 0.0824364 0.06579925 0.001189416
0.004409084 0.03060728 -0.0035976644 0.105905496 -0.009877719 0.11923784 0.032323472 0.03028834
0.06848405 0.007109098 0.008273611 -0.10159996 -0.0134986425 -0.01795423 0.079719685 0.0022839098
-0.06101096 -0.036871064 -0.14199677 0.018858876 -0.03188138 -0.036266554 0.07273817 -0.02765167
-0.057799928 0.04630709 0.01352922 0.00595032 -0.005839352 0.028726099 -0.0511674 -0.04473377
-0.08960297 0.10106032 -0.064571135 -0.0828649 0.07256481 0.10419354 -0.014530276 -0.086775705
-0.098118804 0.039684 -0.06871565 0.01350487 -0.034805622 -0.12569547 0.077180445 0.018129675
0.06948356 0.10854096 0.1209906 0.06556776 0.036017694 -0.03984379 -0.13631499 0.10749101
-0.058659095 -0.0059566726 -0.031391714 0.032335613 -0.012374799 0.08473005 0.005114064 0.023655783

bias f4 [10]
00000000: 9a16 04be 151e 75be 3379 943b 33c6 00be
00000010: e4f8 703e 7377 54be 5bd6 9d3e 38dd 5cbe
00000020: f66a 513e 156c fcbd
-0.12899247 -0.23937257 0.0045310496 -0.12575607 0.23532444 -0.20748691 0.30827603 -0.21568763
0.20450959 -0.123253025
