model.pth (torch, 252999 bytes, 10 tensors)

weight f4 [6, 3, 5, 5]
000000 ac 54 81 3d 42 0f ba 3d c4 17 af bd 23 6e 3f 3d
       0.06314978 0.090849414 -0.08549455 0.046735894
000010 fe e5 61 bc c0 ef a0 bd 80 d7 10 3d b8 43 3d 3c
       -0.013787745 -0.07858229 0.035361767 0.01155179
000020 f2 21 f5 bd 25 12 99 3d f7 9d 46 3d 6d 73 b5 3c
       -0.11969365 0.07474164 0.04849049 0.022149766
000030 2f b1 79 bd c2 ec 18 be 7d c6 a0 bd a2 64 fc bd
       -0.06095999 -0.14934066 -0.07850359 -0.12323882
000040 ea 57 30 bd 29 52 97 bd e3 bb 66 3d 38 f1 42 bd
       -0.04305259 -0.07388718 0.056331526 -0.047593325
000050 42 ea cf bc 4c 1e f1 bd 19 f4 73 bd c1 7e 62 3d
       -0.025380258 -0.11773357 -0.05955896 0.055296663
000060 41 f3 2f 3d 30 88 b6 bd 0e 70 b4 3c f1 84 b8 bd
       0.042956594 -0.089126945 0.022026088 -0.090097316
000070 40 fb 26 bc af 42 f3 bc f5 20 92 3d ad cc 43 3d
       -0.010191739 -0.029694883 0.07135192 0.047802616
000080 c4 77 8b bd 7c fd 51 3d 38 0f ac 3d 0a 76 f1 bc
       -0.06809953 0.051267132 0.0840134 -0.02947523
000090 c8 75 a7 bd 99 2a 72 bd cd 17 8c 3d bd 33 b6 bd
       -0.08176762 -0.059122656 0.06840477 -0.08896587
0000a0 54 5f 0f bd 23 c8 cc 3c 2a e1 7c 3d b7 4a 9a 3d
       -0.03500302 0.024997776 0.06173817 0.07533782
0000b0 fd cb a5 bd 56 15 a3 3d 7f 35 39 bc 87 54 81 3d
       -0.08095548 0.07963054 -0.011304258 0.063149504
0000c0 b3 73 9a bd d1 66 00 be 68 46 e8 3d 82 ff bc bc
       -0.07541599 -0.12539221 0.11341554 -0.023071054
0000d0 9a 4d b9 3d b6 46 e4 3d e1 d5 e2 bc a6 c9 07 bd
       0.090480044 0.111462995 -0.027689876 -0.03315129
0000e0 4b 3c 54 3d 09 25 17 3d 51 c7 d2 3d 9a f7 01 3e
       0.051815312 0.036900554 0.10291923 0.12692109
0000f0 17 95 be 3c 9f 82 a6 bd 1b 6f 01 3c 8a 3c 7e 3d
       0.023264451 -0.08130383 0.007900025 0.062069453
000100 10 a7 e0 bc 95 d8 6c 3d a9 f1 ca 3d 4a 71 99 3c
       -0.027423412 0.057823736 0.09909374 0.018730778
000110 5e 89 2e 3d 16 08 ec 3c 86 e0 24 bd 87 25 3c 3d
       0.042611472 0.02881245 -0.040253185 0.045934226
000120 34 51 44 3d 48 2f db 3d 41 91 c2 3d d1 f5 85 3a
       0.047929004 0.107023776 0.09500361 0.0010220354
000130 7f 7e ac bd 56 a1 db 3b 2a 01 4b 3c 51 d7 12 3c
       -0.08422565 0.0067025824 0.012390414 0.008962468
000140 ae ac 3b 3c 76 eb c5 3d 30 7b ba bd 25 58 94 3d
       0.011454744 0.09664051 -0.091055274 0.07243375
000150 26 28 c9 bc 13 3f e0 3d bd fb 81 3d ed 67 3e bd
       -0.024555277 0.109495305 0.063468434 -0.04648583
000160 f8 d6 50 3d 99 96 56 3d e4 3c 3e 3d 56 6c f4 3d
       0.05098626 0.052389715 0.04644479 0.11934726
000170 12 8d 26 bc 44 3c e9 3d 2a e3 3d 3d d1 40 33 bd
       -0.01016547 0.11388448 0.04635922 -0.043762986
000180 f6 37 16 bb 21 61 fb 3d bb 94 72 bd 72 fa b5 3d
       -0.002292154 0.12274385 -0.05922387 0.08885659
000190 16 a5 bf 3b 94 fe 0c 3d 1d b0 a3 3c 51 ff 37 bd
       0.005848537 0.034422472 0.019981438 -0.044921223
0001a0 52 1b f7 3d 1d 39 a1 3d 35 30 0d 3e b5 c3 33 3e
       0.12065758 0.078722216 0.13787921 0.17555125
0001b0 90 8e 8d bc ef 64 8e bc 6e 31 04 3c 0f 0f d3 3d
       -0.017279893 -0.017382113 0.008068426 0.103056066
0001c0 46 81 e6 bc 15 29 d5 3d 16 55 4b 3d 56 4b 81 bb
       -0.028137814 0.104082264 0.04964169 -0.0039457483
0001d0 23 f1 8a 3d c8 4f dd 3d b3 eb f8 3d a0 21 1a 3e
       0.067842744 0.10806233 0.12154331 0.1505189
0001e0 57 2f d5 3c 6c e2 5e 3d b9 b8 14 3e bd f8 20 3d
       0.02602355 0.05441515 0.14523591 0.039299715
0001f0 e3 a9 22 3e f4 46 0d 39 ab d0 11 3d 42 a8 96 bd
       0.15885119 0.0001347324 0.035599392 -0.073563114
000200 59 07 6d 3d 3d 0f 8c 3d c2 67 8b bc 99 f7 73 bd
       0.057868335 0.06838844 -0.017017249 -0.0595623
000210 96 48 44 3a c9 ac 1e 3d 28 bd 2c 3d 76 fe ab 3c
       0.0007487623 0.038739 0.04217258 0.02099536
000220 72 e7 83 3a 60 01 16 3e e7 17 e0 3d 34 89 bc 3d
       0.0010063483 0.14648962 0.10942059 0.09205857
000230 28 cf fe bb da c9 24 3d 2f 5b 9e 3d e4 a1 07 3e
       -0.00777616 0.040231563 0.07732236 0.1324535
000240 a6 bd 9b 3d 2a e6 84 3d 25 2e 89 bd 1e a8 17 3d
       0.07604532 0.06489213 -0.066982545 0.037025563
000250 6f da 0c 3e b4 c6 0e 3d 29 d7 06 bd f4 b4 6a 3d
       0.13755201 0.034857467 -0.032920036 0.057301477
000260 56 d2 b4 bc 44 ac 0a 3e 06 69 e8 3a db d7 cf bd
       -0.022072952 0.13542277 0.0017731495 -0.10148593
000270 d9 bb cc 3d c0 6c 92 3d de 29 d1 3d 57 a5 af bb
       0.099967666 0.07149649 0.10213064 -0.005360286
000280 0d e9 db bd 6b 03 42 3d f5 ed a0 3c 79 67 ad 3c
       -0.1073781 0.04736654 0.019644717 0.021167504
000290 b6 e0 65 bd 37 de e5 bd 2b fb eb 3c b1 21 56 bd
       -0.056122504 -0.11224025 0.02880629 -0.052278224
0002a0 62 21 4b 3d fe 8e 9b b9 c7 db 08 be 8e 65 ac bd
       0.049592383 -0.0002967044 -0.13365088 -0.084178075
0002b0 2e e6 90 bb b0 56 82 bc 19 a5 1a 3e 77 87 56 bd
       -0.004421971 -0.015910476 0.15102042 -0.052375283
0002c0 09 d0 50 bd 33 c2 3f bd b0 2e 7f 3d e0 ec 1f 3d
       -0.050979648 -0.046816062 0.062300384 0.03904426
0002d0 52 af e6 bd b4 16 8d bd c2 3d 80 bd bd 76 9d 3d
       -0.112639084 -0.06889096 -0.06261779 0.07688663
0002e0 dc 9f fe bb ac 5d 95 3b ff 19 6b bd c3 3b 6b 3d
       -0.0077705216 0.0045582857 -0.05739784 0.05743004
0002f0 a6 94 d3 bd eb d4 01 3d cf 72 e4 bb f0 ac 26 3d
       -0.10331087 0.031697195 -0.006971694 0.04069227
000300 eb 3c 3b bd f9 f2 b5 bc d8 3b c2 3d 28 4a a4 3c
       -0.045712393 -0.022210585 0.094840705 0.020054892
000310 89 cc 04 3d 98 79 e6 bd 66 f6 62 3c b0 6b 0c 3e
       0.032421622 -0.11253661 0.013852691 0.13712955
000320 46 7a 64 bd f3 b3 02 be 9d 4d d8 3d d5 ab c7 bd
       -0.05578067 -0.12763958 0.105616786 -0.09749571
000330 8c 3f 30 3d 79 a5 61 bd b1 8f ef bb 94 4e ab 3d
       0.043029353 -0.055089448 -0.0073108305 0.08364597
000340 8d b5 ae bd 79 33 e8 3d 56 91 3c 3b 95 09 c2 3c
       -0.08530722 0.11337943 0.002877315 0.02368621
000350 cb 9c 92 bd 5c 0c d4 3d 3f 2a 78 bc 6a 46 f1 bd
       -0.07158812 0.1035392 -0.015146791 -0.117810085
000360 fc 1d 2e 3d c2 02 ec bc 99 f5 b7 bc 20 af 9d 3d
       0.042509064 -0.028809909 -0.022455977 0.07699418
000370 4f 1c 8b bd 2a 2f 96 bd 2f a5 96 bd 10 0d ee 3d
       -0.06792509 -0.073332146 -0.07355725 0.11623585
000380 e3 41 80 3d 2d cb 71 bc dc bc 9f bc 19 a5 c4 3b
       0.06262567 -0.014757914 -0.019499235 0.0060011265
000390 2c 7a b0 bd 98 4f 04 3c be 04 ef bd 6a e6 0d 3d
       -0.086170524 0.008075617 -0.116708264 0.034643568
0003a0 b6 79 04 be 31 dd ef bb d1 8d a0 bc 3b 7a 71 3d
       -0.12937054 -0.0073200692 -0.019598873 0.05895446
0003b0 fe f2 98 3d c0 82 ea bd 9f 11 96 3d 8f ae 84 bd
       0.07468222 -0.1145072 0.0732758 -0.06478607
0003c0 08 7f 9e bd 5f 63 9a bd 7b 8e c3 bd 58 cc 23 3d
       -0.07739073 -0.07538485 -0.0954866 0.0399898
0003d0 dc 2f 9d bd 24 51 10 bc 8d 3e ae bd bb 01 a3 3d
       -0.07675144 -0.008808408 -0.08508024 0.079593144
0003e0 a7 d4 87 3d c6 8f d2 3c 97 95 ab bc 7e 4c 23 bd
       0.06632357 0.025703322 -0.020945353 -0.03986787
0003f0 e6 67 33 3d f8 af f0 3c 43 91 cf 3c 90 8f ce 3c
       0.043800257 0.029380783 0.02533782 0.02521494

bias f4 [6]
000000 f4 3e 84 bd 56 5e 10 be c4 7b ec 3d e3 9e ed bd
       -0.0645732 -0.14098486 0.11547044 -0.11602571
000010 5f 57 a8 bd dd b9 b2 3b
       -0.0821979 0.0054542855

weight f4 [16, 6, 5, 5]
000000 44 2a 43 3d 8a 26 6d bd 3c e0 20 bd 36 5b 15 bd
       0.04764773 -0.05789808 -0.039276347 -0.03646394
000010 71 c0 91 3d f1 cd 8f 3d fb 0b 9d 3d 4e 09 42 3d
       0.071167834 0.07021702 0.07668301 0.047372155
000020 da 27 c2 3b fd 91 e7 bc 95 2b 93 3d f4 4b 8a 3d
       0.005925161 -0.028267855 0.07186047 0.06752768
000030 4d 51 94 3d 37 58 53 bd 75 68 19 bd 7f f8 fd 3d
       0.072420694 -0.0515978 -0.037453134 0.124009125
000040 2c 28 30 3d b6 10 02 3e 7f 01 9c 3d 5d 67 49 3d
       0.04300706 0.12701687 0.07617473 0.04917084
000050 21 58 8b 3d d7 6f c3 3d 16 43 2e bc a1 59 1b bd
       0.06803919 0.09542816 -0.010636112 -0.037927274
000060 d6 06 30 3d ae ee 1b 3d 5b 48 94 3c 05 db 98 3c
       0.04297527 0.03806942 0.018100908 0.018659124
000070 f3 f9 84 3d 5a 46 fc 3c 29 5f d0 3d 16 97 a0 3d
       0.064929865 0.030795265 0.101744 0.07841317
000080 35 56 c7 3d e8 c8 4c 3d 2e 28 3b bd 0a b1 fd bc
       0.097332396 0.049996287 -0.045692615 -0.030968208
000090 95 f0 a8 3d 86 34 d1 3c ba 64 5f bc df 10 2f bc
       0.082490124 0.02553774 -0.013634855 -0.010685175
0000a0 95 35 b9 bd a5 d0 90 bd 83 10 25 3d b1 6f 3b bd
       -0.09043423 -0.07071046 0.04029895 -0.045760814
0000b0 4f fc 70 3d 5f cc dd bc 28 d6 c6 bd 3c 88 85 bc
       0.05883437 -0.02707499 -0.09708816 -0.016300313
0000c0 91 a9 d7 bd 5f 0d 24 3d e4 76 73 bc b0 7c 16 3d
       -0.10530389 0.040051814 -0.014859889 0.036740005
0000d0 64 f3 80 3c 5b da 3f 3c 07 c4 9e 3c a3 01 68 bd
       0.015741058 0.011709775 0.019380582 -0.056642186
0000e0 a1 29 cc bd 99 6e 41 3d 51 9f 53 3d f4 f1 5e bd
       -0.099688776 0.047224615 0.051665608 -0.054429963
0000f0 13 88 ef 3c 51 ae f0 3b db a4 a5 bd a0 e3 94 bd
       0.02923969 0.007344999 -0.08088084 -0.072699785
000100 d1 60 4f bd 6c f9 3b 3d 24 7c 57 3d 94 f2 3c bd
       -0.05062944 0.045892164 0.052608624 -0.046129778
000110 f9 f5 b5 3d 02 05 0d 3e c0 65 9a 3d 75 08 80 3d
       0.08884806 0.13771442 0.075389385 0.06251613
000120 c2 06 8d 3c 61 13 0d 3d 5c 50 33 3e 5c 56 92 3d
       0.017215136 0.03444231 0.17511123 0.07145378
000130 b4 be 2c ba 52 a5 45 bc 55 cf bf bd b0 1a f4 3c
       -0.0006589696 -0.012063341 -0.09365717 0.029797882
000140 6a e1 01 bc bd ea 73 bd 1b ce 18 3d 5b 47 db 3c
       -0.007927278 -0.059550036 0.037305932 0.026767423
000150 1c 38 d1 bd 19 79 27 3b 20 7b 3a bd 01 4a 43 3c
       -0.1021578 0.0025554358 -0.045527577 0.011919499
000160 6d 2b 9a 3c d6 bc 17 3d 62 ce c2 bc 49 c7 1f 3d
       0.018819535 0.037045322 -0.023780052 0.039008413
000170 56 d9 bd bd e4 19 5d 3d 8b dd 48 bd c2 2b 9a bc
       -0.09269969 0.05397977 -0.049039405 -0.018819693
000180 10 5f ba bd c5 1f 06 3d d5 4d 31 bd d2 20 9c bd
       -0.09100163 0.03274514 -0.043287117 -0.076234475
000190 f5 0d 6c 3d 4a b9 66 bc 93 8f af 3c 92 04 b0 bc
       0.057630498 -0.014082262 0.021430766 -0.021486554
0001a0 03 7d 4a 3d b3 d6 41 3d a5 b3 93 3d 68 9e 8b bc
       0.049435627 0.047323894 0.07211999 -0.017043307
0001b0 30 b8 1b 3d 8a 35 88 bd 22 4b eb bc 7b ce af 3d
       0.03801745 -0.06650837 -0.02872235 0.08584305
0001c0 3e 10 d8 3b 55 1c 28 bd 3b 49 77 bd 9b d5 df bd
       0.006593733 -0.041042645 -0.060372572 -0.10929414
0001d0 e3 01 b4 bd 22 ec e8 3c f0 98 53 bd f2 ed d4 bd
       -0.08789422 0.02843291 -0.051659524 -0.10396947
0001e0 06 a3 87 bd bb 4c 44 bc 3c ae e6 bd 67 6d 52 bd
       -0.06622891 -0.011981185 -0.11263701 -0.051373865
0001f0 9c 61 07 3d 64 f0 52 3d 36 41 e4 3a d4 58 81 bd
       0.033052072 0.051498786 0.0017414454 -0.06315771
000200 43 04 8e 3d 77 ce bc bb 32 35 04 bc 48 46 95 bd
       0.069344066 -0.005761917 -0.008069323 -0.07288796
000210 e2 ff f2 bc 0c 25 92 bd 0a e3 bf bd 7a a1 8e 3d
       -0.02966303 -0.071359724 -0.09369476 0.06964393
000220 a9 d1 3a bd 89 f8 83 bd 06 83 8b 3d 4a 63 3e bd
       -0.045610104 -0.06443889 0.068121 -0.04648141
000230 03 fb 05 bd 60 11 3f 3d 25 a3 53 bd da 0e 7a 3c
       -0.032710087 0.04664743 -0.05166926 0.01526233
000240 73 cc 22 3d b4 31 c8 3c 47 0f 36 bb 29 95 68 3d
       0.03974576 0.024437763 -0.0027780102 0.056782875
000250 0a d0 11 3e 99 87 c2 3c 33 82 7e bd 20 9b bc 3d
       0.14239517 0.023746299 -0.062135886 0.09209275
000260 08 d2 99 bc f1 a3 63 3d 43 83 ae bc a2 58 4e 3d
       -0.018776909 0.05557627 -0.021302825 0.050377496
000270 d7 49 4e 3c cb 47 a3 3d 23 1b b6 3d ec 29 8b 3c
       0.012590847 0.07972678 0.08891895 0.016987763
000280 d6 33 47 bc 92 a2 bc bd 16 80 0d 3d d7 ad 08 3d
       -0.012158355 -0.09210695 0.03454598 0.03336891
000290 c5 cd 86 3d f0 dd 83 3c 22 5f 60 3a 29 68 2e bd
       0.06582216 0.016097039 0.0008559098 -0.042579804
0002a0 84 53 be bd 4e 3e 73 3d 6a 89 f2 bc 83 54 d5 3d
       -0.09293273 0.05938559 -0.02960654 0.1041651
0002b0 69 a4 c0 3c a4 53 39 3d 16 11 cc 3d 61 80 12 bd
       0.023515897 0.04524578 0.099641964 -0.035766963
0002c0 2f c1 19 bd ac ef c9 bd ae ac 8d bd 3c f9 2d 3d
       -0.03753775 -0.09860167 -0.06917702 0.042474017
0002d0 2c 0c 6b bd f7 76 0c bc 39 fb 34 bc 4e 0a dc bd
       -0.057384655 -0.008573285 -0.011046224 -0.10744153
0002e0 97 38 d2 bd cb 53 b1 3d 7f bd 8b bd 89 5e 47 3c
       -0.102647 0.0865856 -0.06823253 0.012168535
0002f0 8d 4d 75 3d a6 1a 95 bd fc 82 e9 3d 21 1d d4 3c
       0.05988841 -0.072804734 0.114019364 0.025892796
000300 db 51 c2 3a 04 1d c7 3d a8 c7 c7 3d 35 23 3d 3d
       0.001482542 0.09722331 0.09754878 0.046176154
000310 c3 7f df 3d d5 b4 cd 3d cf 80 ca 3d 28 82 fb bc
       0.109130405 0.100442566 0.098878495 -0.030701712
000320 56 4b b6 3d 68 81 45 3d 89 f2 6a 3a 75 7f 03 3d
       0.08901088 0.048219115 0.0008962532 0.032103974
000330 82 cf 06 bc 83 26 b6 3d 9d 36 e8 3c 55 64 d5 3c
       -0.008228185 0.08894064 0.028346354 0.026048819
000340 99 27 0a 3e 4a 6b ab 3d fb cc 5a 3d 20 96 f2 3c
       0.13491668 0.08370073 0.05341814 0.0296126
000350 db 36 03 3d 9c a9 27 3c 36 e8 68 3c d0 31 c7 bd
       0.032034736 0.010233309 0.01421552 -0.09726298
000360 c7 78 f2 bd c5 a5 9e bd ee 4d d0 bc c6 1c 93 bd
       -0.11839443 -0.07746462 -0.025427785 -0.071832225
000370 72 b2 6e bd 5e a5 f0 bd 6c a8 30 bc ad fc 87 bd
       -0.058275647 -0.11750291 -0.010782342 -0.06639991
000380 7a 17 a1 3c 55 0c d7 3c 83 ed b6 bc d8 5c 6b 3c
       0.019664515 0.026250998 -0.022330051 0.014365397
000390 92 8d 16 bc 54 8c 15 3d cb 2b 8c 3d bb 14 38 3d
       -0.009189026 0.03651078 0.0684429 0.044941645
0003a0 1b 2f c7 bc 9d 2b 2d 3d 15 15 0d bc ff ff a7 bc
       -0.024314454 0.04227792 -0.008610983 -0.02050781
0003b0 50 0d 4d bd 14 ea 73 3d fa d5 b6 3c e8 63 31 bd
       -0.050061524 0.059549406 0.022318829 -0.04330817
0003c0 71 20 a9 bd fd 81 1d 3b b9 85 24 3d 95 27 e2 3b
       -0.08258141 0.0024033778 0.04016659 0.006901691
0003d0 8e 13 43 bc e4 fd a3 bc b2 42 ff 3c 90 ff 17 3b
       -0.011906518 -0.020018525 0.031159732 0.0023193099
0003e0 2b 10 98 3d 05 9f 2a bd 17 d3 99 bd d4 78 68 bd
       0.07424959 -0.04165556 -0.07510965 -0.056755856
0003f0 ca db 47 bc 27 e5 9e 3c 53 77 48 bc 41 6f 92 3c
       -0.012198398 0.019396378 -0.01223548 0.017875316

bias f4 [16]
000000 4c 05 bd bc 60 84 ef bc d3 46 c0 bd d8 e7 6f bd
       -0.023073815 -0.029237926 -0.09388509 -0.058570713
000010 c8 48 cc bc 4a 7b ea bd 2a 98 e4 bd ad 1e a2 bd
       -0.024937049 -0.11449297 -0.111618355 -0.07916007
000020 91 1a 98 bd 7d f3 c3 3c 0e 3e e2 bc e2 40 c6 bb
       -0.07426942 0.023919815 -0.02761748 -0.006050215
000030 bc 9d 3d 3d 9d 4f 51 bb 99 d4 bb 3d 99 06 3c 3d
       0.046293005 -0.0031938322 0.09171409 0.04590473

weight f4 [120, 400]
000000 05 99 6a bc c2 73 90 3b 2c 9e 54 bc 43 db 84 3c
       -0.014318709 0.0044083307 -0.012977164 0.016217833
000010 79 3e c1 bc 53 f2 7a 3b 97 9c 8c 3d 39 93 8f 3d
       -0.02358936 0.003829141 0.06865805 0.07010502
000020 d6 6d 3c 3d 06 d6 db 3d 71 03 e1 3c 04 06 eb 3c
       0.046003185 0.10734181 0.027467461 0.028689392
000030 56 87 fd 3c 8d e9 66 3c 1a df 05 3d 66 a9 6f 3d
       0.030948322 0.014093769 0.03268347 0.05851116
000040 28 70 20 3d 56 6d 5d bd 5b fa e5 bb 32 55 7a 3d
       0.03916946 -0.05405935 -0.00701837 0.061116405
000050 02 61 a8 bc 29 1d a0 3d 90 11 1f 3d 0b 21 c5 3c
       -0.02055407 0.07818062 0.03883511 0.024063608
000060 da 42 54 3d ce 6e be bd 61 23 ba bd 6d 24 52 bd
       0.051821567 -0.09298478 -0.09088779 -0.05130427
000070 a5 7e 72 bd 94 c5 bb bd 94 b7 30 3c 8c 3f 0f 3d
       -0.05920281 -0.091685444 0.010785956 0.034972712
000080 18 7d a7 3d 00 5c 96 3d 40 00 72 38 4a a4 4c 3d
       0.081781566 0.07341766 5.769753e-05 0.049961366
000090 df a8 a3 3d 3d 9d 4f 3d 99 b9 9b 3c 34 0e 2a 3c
       0.07991194 0.050687063 0.019009398 0.010379363
0000a0 81 b6 f9 3d a8 b9 2f 3d fe d1 78 bc bc 86 00 3d
       0.12193013 0.042901665 -0.015186785 0.031378493
0000b0 3b 2a 3a 3d fc 04 ae 3d 8f ca e1 3d 1d c1 14 3e
       0.04545043 0.084970444 0.11024963 0.14526792
0000c0 07 f3 be 3d 45 9e b5 3d fb 61 97 ba fb 93 3a 3c
       0.093236975 0.08868078 -0.0011549586 0.01138782
0000d0 68 7b a9 bd 8f 8c 27 bd 0c 6d 1e be 35 c9 51 bd
       -0.08275491 -0.04090553 -0.15471286 -0.051217277
0000e0 14 9e 8c bd 18 e4 a0 bd 70 af 47 bd 36 57 97 bd
       -0.068660885 -0.078560054 -0.048751295 -0.07389681
0000f0 96 4e 4d 3c e4 1b 34 3d 3c 6e 5e bd aa c1 98 bc
       0.012530943 0.04397191 -0.054304346 -0.018647034
000100 a9 20 13 be 80 24 61 3c b6 a9 38 3d d9 e6 30 bd
       -0.14367928 0.013741612 0.045083724 -0.043188903
000110 fd c6 ca 3c 0f 67 3f bd 38 58 a9 3d e8 03 87 3d
       0.024753088 -0.046729144 0.082687795 0.06592542
000120 ba ab ef bb 4d 5c 14 3d cc 77 a7 bc 6a 0b c7 39
       -0.0073141726 0.036220837 -0.020442866 0.00037964742
000130 45 41 8f 3c b1 64 bf bd 4c 4b 7b bd 89 b5 b3 bd
       0.017487178 -0.09345377 -0.061351106 -0.087748595
000140 40 ae 9d bd 33 db 53 bd 04 28 e3 bd 72 fd c5 bd
       -0.07699251 -0.051722717 -0.11091617 -0.096674815
000150 7a ce b7 bd 3c b5 81 bd f6 11 95 bd 90 83 cb bd
       -0.08974929 -0.06333396 -0.072788164 -0.09937203
000160 a9 5a 6e bd 6e 10 b3 bd dc cc 15 3c cf 9d 76 bd
       -0.05819193 -0.08743368 0.009143081 -0.06020909
000170 9c 53 1e 3c f4 2f 0d be 43 10 1e be fe 03 72 3c
       0.009663489 -0.13787824 -0.15435891 0.01477146
000180 5d 0f 62 bd 33 15 ff bc 00 c1 03 be 0b a6 b4 bd
       -0.055190433 -0.031138038 -0.12866592 -0.08820733
000190 59 01 54 bc 26 50 94 bc 2c 2d ee bd c9 03 0a bd
       -0.012939774 -0.018104624 -0.116297096 -0.033695016
0001a0 52 09 99 bd 94 db 3f bd cd 2d a1 bd d7 39 df bd
       -0.07472481 -0.046840265 -0.07870064 -0.10899704
0001b0 2f b3 08 bd 73 b2 0e be d0 76 a7 bc bd 0c 74 bd
       -0.033374008 -0.1393526 -0.020442396 -0.05958246
0001c0 a1 d2 cf bd 03 b2 e5 bd 20 6b 07 be 5a fe 90 bd
       -0.10147596 -0.11215594 -0.13224459 -0.07079764
0001d0 72 42 5b bb b4 1d 6a bd 0f cb 92 bd 1b 68 22 be
       -0.0033456353 -0.057157233 -0.071676366 -0.15860026
0001e0 ff 22 7c bc d6 54 d5 bc 85 96 aa bd b8 15 0e bd
       -0.015389203 -0.02604143 -0.083294906 -0.03468868
0001f0 7a 75 e9 bd 54 3d 89 bc d8 31 88 bc 90 86 45 bd
       -0.1139936 -0.016752876 -0.01662533 -0.048224032
000200 64 49 59 bd ce db 11 bc 98 7a 92 bc ca 96 d3 3c
       -0.053048506 -0.008902503 -0.017880723 0.025828738
000210 2d 8e 41 3d de cf d2 bb 4f 29 9e bc 5c e4 70 bc
       0.04725473 -0.006433471 -0.019306807 -0.014702883
000220 04 b4 42 3d 1d 10 98 3c fd 84 d3 bc f3 e8 22 3d
       0.047534958 0.01856237 -0.02582025 0.03977294
000230 86 a8 a9 3b a9 58 d3 bc b9 7c 84 3b b7 ed 1d 3d
       0.0051775603 -0.025799112 0.0040431884 0.03855678
000240 1f d0 e6 3c e5 83 20 3d 3b 57 86 bc cb 88 84 3c
       0.028175412 0.039188284 -0.016399017 0.01617851
000250 65 94 3e 3c 11 25 d8 3c a3 3c 94 bd ee 06 d9 3c
       0.01163206 0.026384862 -0.07238128 0.026492562
000260 8c 3b 37 bd 4f 69 72 bd d3 5c 72 bc ff bb 89 3d
       -0.044734523 -0.05918246 -0.014792639 0.067253105
000270 bc 0e 44 3c ef 03 ab 3c ad 55 d0 bb f9 73 21 3c
       0.011966404 0.0208759 -0.0063578696 0.00985431
000280 35 2b 6c 3d bf 4b e8 3c 1d b2 8c 3c 78 a8 c3 bc
       0.057658393 0.028356431 0.017174775 -0.023884043
000290 cb 25 8c bc a1 8f e6 3d ac e6 cd 3d 18 df c5 3d
       -0.017107865 0.11257864 0.10053763 0.096616924
0002a0 1a 31 be 3d 0d 59 98 3d 8e a9 ab 3d 07 c3 8d 3d
       0.09286709 0.0743886 0.08381949 0.06921964
0002b0 49 a9 fb 3d aa ed b6 3d 6d 96 8a 3c da f7 02 bb
       0.12288148 0.089320496 0.016917432 -0.0019984157
0002c0 31 b0 2f bb 77 82 b9 3c 53 a4 e1 3c b9 7e 88 bc
       -0.00268079 0.022645218 0.027544176 -0.016661989
0002d0 3d be 00 bd a6 23 06 3d 3c 28 4d bd 2f 20 bf bb
       -0.031431425 0.03274884 -0.0500872 -0.005832694
0002e0 92 30 10 3d 32 52 1a bc a4 c2 07 3d 1c b1 53 bc
       0.03520257 -0.009419011 0.03314461 -0.012920644
0002f0 0f 59 a7 3c 7d b0 a2 3c 77 2c 1f bb 0d 43 4e bc
       0.020428209 0.019859547 -0.0024287978 -0.012589228
000300 9f 2b 18 3d d4 50 95 3c 00 fb d9 bc fb 13 60 3c
       0.037150975 0.018227018 -0.026608944 0.013676639
000310 8a 8d 2a 3d 79 46 e7 bb bf ae c1 3a d8 f0 16 3b
       0.04163889 -0.0070579615 0.001477681 0.0023031738
000320 e8 35 9d bc 0e aa 1d 3d db 1f 75 bd 80 b0 32 bd
       -0.019190744 0.038492255 -0.059844833 -0.043625355
000330 9d 0a 24 bd c6 f7 55 3d 2f d3 a7 3b 86 d3 49 3d
       -0.040049184 0.05223825 0.0051216106 0.04927399
000340 2f be 80 3c a9 9b 65 bd 88 12 74 3d 6c 8d 88 3c
       0.015715687 -0.056056652 0.059587985 0.016668998
000350 49 ff 1f 3d 31 f7 94 3d 9a 6c de bb 1b 85 4d bc
       0.03906182 0.072737105 -0.0067878487 -0.012543942
000360 02 48 70 3c e2 f1 eb bb f7 ff 01 3d fe 21 7a bc
       0.0146656055 -0.0072004655 0.031738248 -0.015266893
000370 f3 2a 56 3c e2 a7 42 3b 22 b5 7d 3c 2a fd 9c 3d
       0.013071763 0.0029702117 0.01548508 0.07665475
000380 e4 d5 8b 3c 2a 35 bd bc 80 8f 34 3d c2 28 b1 3c
       0.017069764 -0.02309664 0.044082165 0.02162588
000390 af 08 48 3d 7e 26 e2 bc 42 c0 f3 3c 92 a2 c1 3c
       0.048836406 -0.027606245 0.029754762 0.02363709
0003a0 74 46 24 3d ab b5 31 3c 87 a7 64 3d 4e ce b0 3d
       0.04010625 0.010846536 0.05582383 0.086330995
0003b0 24 47 eb 3c f3 70 b8 3c 07 ed a1 3d 52 49 8a 3c
       0.028720446 0.022514796 0.079065375 0.016880665
0003c0 ce 6e 9c 3d 3c 89 4d 3d d7 21 dd 3c b9 0f a7 ba
       0.07638322 0.050179705 0.026993675 -0.0012745775
0003d0 68 5f 36 3d 7f 11 c8 3c 54 d9 d3 3c a3 79 2d 3c
       0.04452458 0.024422405 0.025860466 0.0105880825
0003e0 81 fd 3a 3d 5f 9f 2e 3c 04 37 5a bc cd 5f b9 3c
       0.045651916 0.010658114 -0.013318781 0.02262869
0003f0 3e 91 a1 3c 8c 52 4c 3d 65 e4 b9 bd 27 d6 1f 3d
       0.019722577 0.04988341 -0.09076766 0.03902259

bias f4 [120]
000000 1c a7 9e bc fd b3 ea bc 3b 2f bc 3c 91 73 cc 3c
       -0.019366793 -0.028650278 0.02297174 0.02495745
000010 6d cc c1 bd d9 8a c2 3b e6 be a6 3c b4 cc 3c ba
       -0.09462819 0.005936962 0.0203547 -0.0007202134
000020 f8 c0 14 3d b4 0a 22 3c 4a f6 22 bd b9 63 5e 3d
       0.03631684 0.009890247 -0.03978566 0.05429432
000030 0c 47 15 3d 45 59 88 bd 74 06 a0 bc 2e 2a 02 bd
       0.03644471 -0.06657652 -0.019534327 -0.031778507
000040 15 26 bb bc 42 45 c0 3c 19 bd 93 3d 37 10 84 bc
       -0.022845307 0.023470525 0.07213802 -0.016121013
000050 0c b8 c8 bc d5 75 78 bd 3f 65 11 bd a9 be c8 bc
       -0.024501823 -0.06065925 -0.035496946 -0.024504976
000060 6e 50 22 bc cf b0 d0 bc 3f d1 a7 bc 05 f5 21 3d
       -0.009906871 -0.025474934 -0.020485519 0.03954031
000070 d0 73 b0 3d 55 bb 7a 3d 82 4d 42 3c 59 60 b9 3c
       0.086158395 0.06121381 0.0118593 0.02262895
000080 31 e7 84 3d da b3 66 bd 70 2b 8f 3d 7d 13 04 bd
       0.06489409 -0.056323864 0.06990707 -0.032245148
000090 91 7f a6 3d 37 4f 7e 3d da 87 57 bc fe 1e 64 3d
       0.081298 0.062087264 -0.013154948 0.05569362
0000a0 0a 1e f8 3c 25 f8 df 3b de d9 82 bd 57 b0 bd 3d
       0.030287761 0.006835001 -0.06389211 0.0926215
0000b0 36 64 02 3e 81 ea 94 3c 51 d0 e2 3c 1f 34 05 3d
       0.1273354 0.018178226 0.027687224 0.03252041
0000c0 06 2f 7e bd b5 48 52 bd 9d 10 24 bb 96 7f da 3d
       -0.062056564 -0.05133887 -0.0025034316 0.10668866
0000d0 07 14 93 3c 0f 92 16 bb d9 8e 13 3d 44 52 29 3d
       0.017953886 -0.0022975241 0.036024902 0.04133822
0000e0 32 2a 0a bb dc a0 a9 3d 55 14 1e bc 80 e6 1f bc
       -0.002108228 0.082826346 -0.009648402 -0.009759545
0000f0 5e f9 c9 3d 69 59 1a bd 22 97 91 3c e4 38 cf 3c
       0.09862016 -0.037682924 0.017772261 0.025295682
000100 8e ff 6e bd 00 20 e4 bc 00 ae 8c 3d 71 a0 23 bd
       -0.058349185 -0.02784729 0.06869125 -0.03994793
000110 ff ae 97 3c 34 fb 77 3d 11 17 90 3d c9 40 8a 3d
       0.018516062 0.0605423 0.070356496 0.06750638
000120 79 65 ff bc a6 15 81 3c 8e a5 c4 bd 0b 55 35 bd
       -0.031176316 0.015757393 -0.096018896 -0.044270556
000130 48 e6 47 bb 1c c1 f0 3b 3b 7e 30 bd a4 44 fa 3d
       -0.0030502249 0.007347239 -0.043089133 0.122201234
000140 f6 5b 0b bd 13 e7 67 bd e8 bc 5a bd 22 09 2c bd
       -0.034023248 -0.056616854 -0.05340281 -0.042000897
000150 95 bb 34 bd 74 d7 17 3d da 42 3a bd 2e 3d a8 3d
       -0.044124205 0.037070706 -0.04547391 0.08214794
000160 94 83 27 3d 79 a5 fa 3c 9c 81 7d 3d 09 d8 0b bc
       0.040896967 0.030596482 0.061891183 -0.0085353935
000170 51 61 67 bd b5 92 b5 bc ce d1 7a 3c 5a c6 1b 3d
       -0.056489293 -0.022164682 0.01530881 0.03803096
000180 d8 cd 77 bd f8 f7 08 bc 65 fd ec 3c 11 18 18 bd
       -0.060499042 -0.008359902 0.028929422 -0.037132327
000190 b0 cc c2 3c ce ce 3b bc f3 a6 f1 bc 70 e2 23 3d
       0.023779243 -0.01146288 -0.029498553 0.04001087
0001a0 6f 0b d7 bc 32 ce 49 bd 6d 0e 4c bc 12 52 25 bd
       -0.02625057 -0.04926891 -0.012454611 -0.04036147
0001b0 c3 cf b5 bd 2f 4a 21 bc 09 41 a9 bd 34 b9 5c 3c
       -0.08877518 -0.009844347 -0.082643576 0.01347189
0001c0 50 56 02 bd 1d 85 56 bd 2e 26 e9 bc eb 05 b7 bd
       -0.031820595 -0.05237304 -0.028460588 -0.08936676
0001d0 d2 d9 06 3c c1 9d 73 bc 8e ff 73 bd 1b 8b 90 bd
       0.008230643 -0.014869154 -0.059569888 -0.07057782

weight f4 [84, 120]
000000 8b 04 bc bd 8b 02 9c bd fa 66 6d bd 8f 8f a8 3d
       -0.09180554 -0.076176725 -0.057959534 0.08230507
000010 c8 b0 81 3c 13 62 90 bd 7d d1 1b bc 10 1c 90 bc
       0.015831366 -0.07049956 -0.009510395 -0.017591506
000020 48 e3 1c 3e 40 c9 d6 bd 81 e4 a8 bd 71 a8 72 bd
       0.15321076 -0.10487604 -0.08246709 -0.05924267
000030 78 9e 27 3c 08 f5 a6 bd 97 9e 09 3e a8 3a a3 3d
       0.010230653 -0.08152205 0.13439403 0.07970172
000040 7f c6 4a bd a2 be 32 bd d3 0f 13 3d 8b 37 b4 bd
       -0.049505707 -0.043638833 0.035903763 -0.087996565
000050 e5 93 8a 3d 23 db 30 3d 81 3d 6a 3d f4 76 93 bd
       0.0676649 0.043177735 0.05718756 -0.07200423
000060 d4 71 b1 3c 23 f3 09 3d 05 cd 16 bd 79 16 8d bd
       0.021660723 0.03367914 -0.036816616 -0.06889052
000070 74 27 dd bc f1 0f d8 3c 1f 11 11 3d cb 98 07 be
       -0.026996352 0.026374789 0.03541672 -0.1324188
000080 92 e1 d2 3d 50 f2 11 3d 5d 28 9b 3d a3 5c b3 bd
       0.102969304 0.035631478 0.07576058 -0.087579034
000090 cc ae 10 3d 7d 55 80 3d 6d 1d 12 bd 69 d8 f6 3d
       0.03532295 0.062663056 -0.035672594 0.12052996
0000a0 24 ab eb bd be 13 94 bd ba 97 d5 bc 9f cd c7 3d
       -0.11507252 -0.07230328 -0.026073325 0.09756016
0000b0 a8 6c 30 3e 99 e7 d8 3d 12 c4 9d 3d 54 38 9a bd
       0.17228949 0.10591049 0.07703413 -0.07530275
0000c0 b3 44 2c 3d 1f 1b 94 bd e3 ca d7 3b 29 9c ad 3d
       0.042057704 -0.072317354 0.0065854653 0.08477051
0000d0 1f 8e a1 bd 5c 6e a6 bd aa 9a 14 3d 22 82 35 bd
       -0.078884356 -0.08126518 0.03628031 -0.044313557
0000e0 79 53 93 3d fe cb 7c 3d 0b c1 97 3d fc cf 87 3d
       0.071936555 0.06171798 0.07409867 0.06631467
0000f0 95 80 d7 3d f2 bd 28 bd 86 73 3d bd e2 e1 25 3d
       0.10522572 -0.04119677 -0.04625275 0.04049862
000100 67 a8 82 3d 9d ae aa bd 8b e0 3d bd 7c c1 31 3d
       0.063797764 -0.08334086 -0.04635672 0.04339741
000110 1e 41 59 bd ba bc 5d 3d 51 38 0a 3e 69 aa 84 3c
       -0.053040616 0.05413506 0.13498046 0.01619454
000120 af 68 f6 3c 62 b1 61 bd ff 29 ae 3d b9 7d de 3d
       0.030079214 -0.055100806 0.08504104 0.108638234
000130 65 3f fd 3d 4e b3 0c 3e ca 71 d1 bd c4 a9 81 3d
       0.12365607 0.13740274 -0.10226782 0.06331208
000140 44 10 cb 3c dd 4b aa bb 28 bc 9c 3d a0 40 97 bd
       0.02478803 -0.005197032 0.076530755 -0.07385373
000150 e5 0f 13 3d 96 07 c1 bd 4f fc 97 3d 8d 06 6b 3d
       0.03590383 -0.09425275 0.07421171 0.057379294
000160 a7 d7 c0 3c f7 ce 49 3d e0 4e d8 3c a9 b8 02 bc
       0.023540331 0.049269643 0.026404798 -0.007978597
000170 83 7b 3a bd f5 b4 cf 3c 18 74 c6 3d 03 14 42 3d
       -0.045527946 0.025354842 0.09690112 0.047382366
000180 a3 da c1 bc 62 bd 19 3c 8b 04 fb bc 52 54 38 bc
       -0.023663824 0.009383531 -0.030641815 -0.011250572
000190 92 b1 3d bd c9 eb 8b bd a3 f6 42 bc 2f ba d7 bd
       -0.046311922 -0.06832082 -0.011899623 -0.105335586
0001a0 ab d4 f1 bd 59 21 3b 3d fb a2 90 3d f7 f5 79 bd
       -0.11808141 0.0456861 0.07062336 -0.061025586
0001b0 c6 03 76 bd cd 67 b1 3d f6 8e bb 3c 93 00 ee 3c
       -0.060062192 0.086623766 0.022895318 0.029053008
0001c0 87 7b 32 3d be a3 e6 3c 15 2d e3 3c a5 05 60 bd
       0.043574836 0.02815425 0.027731458 -0.054692883
0001d0 99 9a d2 3b 4c 19 e2 3d 47 00 83 bd 8f 3a db bd
       0.006427121 0.11039981 -0.06396537 -0.107045285
0001e0 b3 72 35 bd 42 06 e8 3c 1e 4b 9a 3d b0 f1 7f 3d
       -0.04429884 0.028323296 0.07533859 0.06248635
0001f0 78 71 49 3d d6 2f b0 3c ef 0f 56 3d da 66 db bd
       0.049180478 0.021507185 0.05226129 -0.10712977
000200 1f c8 ed 3d 78 4a c9 3c 16 37 19 3d b1 2e 6d bd
       0.11610436 0.024571642 0.03740605 -0.057905857
000210 b7 8f eb bc fe 2c 8b bd a2 8e 85 3c cb 85 ac bd
       -0.028755052 -0.06795691 0.016303364 -0.084239565
000220 02 21 2d bd dc 99 22 3d 35 63 18 bd 89 79 13 3d
       -0.042267807 0.039697513 -0.037203986 0.036004577
000230 b0 b9 18 3d 12 54 24 3e da d0 91 3d c5 83 b1 bd
       0.03728646 0.16047695 0.071199134 -0.08667711
000240 13 b4 35 bd d3 78 30 3d f6 57 5c 3d 3e 10 65 3d
       -0.044361185 0.043083977 0.053794824 0.055923693
000250 6d ed e9 3d f1 d7 73 bd 8c 51 97 bc 60 52 5f bd
       0.114222385 -0.05953211 -0.018471502 -0.05452192
000260 b5 b7 9d 3d ee 86 00 3d 53 eb 9f 3d 24 32 d6 3c
       0.07701055 0.03137868 0.078085564 0.026146956
000270 f0 15 ac 3d 03 01 e7 3d f2 59 ac 3b 7b e6 38 bc
       0.08402622 0.1127949 0.0052597458 -0.01128542
000280 c4 52 ae bc b4 bb 94 bd dd b7 d3 3d 1e 9f 26 bd
       -0.0212797 -0.07262364 0.103378035 -0.04067909
000290 a1 8a b1 3d 8f a2 d5 bc c4 e1 06 3e 5e 62 c7 3d
       0.086690195 -0.02607849 0.1317206 0.09735559
0002a0 fd e9 95 3d 35 0e 8a 3d 78 91 13 3d 2d 0a 96 3d
       0.0732002 0.06740991 0.0360274 0.073261596
0002b0 9a 45 d8 3d 94 f1 d7 bc 4e cf ab 3d b7 70 96 3c
       0.105601504 -0.02636031 0.083891496 0.018364294
0002c0 71 08 e5 3d c9 b8 42 bd 74 f1 65 3d ac a6 33 3b
       0.11183251 -0.047539506 0.05613847 0.0027412577
0002d0 5b c3 5c 3d 0d b4 05 3d b9 1f 8b 3d 8a 5f 7c 3d
       0.053897243 0.032642413 0.0679316 0.06161455
0002e0 33 0c 7d bd e7 1a b5 bd d9 7d 96 3d 85 5e 9e 3d
       -0.061779212 -0.08843022 0.07348222 0.07732872
0002f0 54 ed 6c bc 08 a8 af bb 22 61 ed 3c 28 cb 9a 3d
       -0.01446088 -0.005360607 0.02897698 0.0755828
000300 82 c2 19 bd fa 70 f0 bc 1c 76 79 bd 4c 7e af 3d
       -0.037539013 -0.029350746 -0.060903654 0.08569011
000310 a1 05 c6 3d 36 74 15 3c 29 3a c8 bc 00 90 26 bc
       0.096690424 0.009121945 -0.024441795 -0.010166168
000320 c6 6a ab bd 58 e7 79 3a ff 5e a2 bd 23 11 b1 bc
       -0.08369975 0.0009533069 -0.07928275 -0.021614617
000330 3a 24 74 3d 8d 2b 15 3c cb 83 92 bd e9 97 a3 bc
       0.05960486 0.009104622 -0.07154044 -0.019969897
000340 74 77 6e bc 83 d3 ae 3d fb 21 c5 3d c0 c5 82 3d
       -0.014554847 0.085364364 0.09625622 0.06385374
000350 88 a5 3e bc 9c cd 7d 3d 05 95 87 bd 13 93 1c 3e
       -0.011636145 0.061963663 -0.0662022 0.1529048
000360 6f 15 64 3d 31 70 8b 3b f1 00 08 bd 02 5a 3f bd
       0.055684503 0.0042553176 -0.033204023 -0.046716698
000370 87 43 02 3c 0d e9 82 3d 01 99 33 bd e1 0f 66 bd
       0.00795067 0.06392107 -0.043847088 -0.056167487
000380 7a 37 aa 3a 29 e8 0c 3d 9e 52 25 bd 3b 29 a8 bd
       0.0012986504 0.034401093 -0.040361993 -0.08210989
000390 fd 14 a9 3d 79 5e db bb 5e e4 ad 3d 4a 4b 85 bd
       0.08255956 -0.0066946116 0.08490823 -0.06508501
0003a0 6e 47 67 bd 25 ac 17 bd fa 1f da bc 05 a8 31 3d
       -0.056464605 -0.037029404 -0.026626576 0.043373127
0003b0 b2 80 bf bd 6f 12 50 bb 87 27 89 3d 51 8d 57 3d
       -0.093507186 -0.0031749269 0.06696992 0.052625004
0003c0 07 d6 0e bc f0 1c 36 3d cb 94 a4 bc d6 9d 99 3d
       -0.00871802 0.04446119 -0.020090481 0.07500808
0003d0 92 ff d3 3a b9 51 8c bd 2f 89 dc bc a6 17 37 bc
       0.0016174188 -0.06851525 -0.026920883 -0.011175072
0003e0 f6 6e 58 3d 40 c8 d6 bc c8 19 b4 3c f2 c4 8a bd
       0.052840196 -0.026218534 0.02198495 -0.067758456
0003f0 0e 3b a1 3d fb d2 8a bd 60 5d 1c 3d e8 8f 81 3d
       0.07872592 -0.067785226 0.038174987 0.06326276

bias f4 [84]
000000 1c 8c 91 3d 1d 1b 44 bd 3d 17 6d bc a4 c7 9d 3c
       0.07106802 -0.04787742 -0.0144708725 0.019260235
000010 a4 2a 26 bd 52 8f c9 3d 09 dd db bd 9c b5 4d bd
       -0.04056801 0.09841789 -0.107355185 -0.050222024
000020 1a e3 5d 3d 83 ca 2e bd d6 a5 5d bd bb c1 58 bd
       0.05417166 -0.0426736 -0.05411323 -0.05291913
000030 34 73 5b bd d5 ba 5a bd 90 83 88 bd 26 b6 8d 3d
       -0.053576663 -0.053400833 -0.066657186 0.06919508
000040 fe 73 2a bc fd 30 ea 3d 42 97 1f 3e 52 3a a2 bd
       -0.010403631 0.11435125 0.15585044 -0.0792128
000050 ad 38 f5 3b c7 45 ad 3d a3 cf 25 bb 7a 62 02 be
       0.007483563 0.084605746 -0.0025300763 -0.12732878
000060 9f c8 20 3d 3a 70 9e 3d 04 76 b5 bd 1b 6c 82 3d
       0.039253827 0.07736249 -0.088604 0.06368276
000070 70 00 44 3d ed db cd 3d 22 ac c7 bc aa 1c aa 3d
       0.04785198 0.10051713 -0.024374072 0.083062485
000080 bb 0f 48 3d 79 07 a9 bc b4 e0 c4 3d 81 a3 c5 3d
       0.048843127 -0.020633446 0.09613171 0.096503265
000090 1d 78 25 3d 3f 5f a9 3b 6f 5b 99 bd 45 c2 5a bd
       0.040397752 0.005168825 -0.07488143 -0.053407926
0000a0 90 be 15 3e aa 00 11 3e 1e 03 e9 bb 95 1d 76 3c
       0.14623475 0.1416041 -0.0071109673 0.015021701
0000b0 b2 48 17 bd 4f 98 c4 bb ff 61 38 3d 18 b7 ec bd
       -0.036934562 -0.005999602 0.04501533 -0.1155836
0000c0 55 df df bd f5 d1 b9 bc a6 42 bc 3d e7 c7 07 3d
       -0.10931269 -0.022683123 0.091924 0.033149626
0000d0 0e 72 4d bc b0 3c b2 3c 77 87 1a 3d 18 2a ae 3d
       -0.0125394 0.021757454 0.037726846 0.085041225
0000e0 81 21 64 3d 6e 4a cd 3d d2 e7 7b bd 0d 8a 09 3d
       0.055696014 0.10023962 -0.061500378 0.03357892
0000f0 ca 48 d4 bd 95 71 09 bc 48 94 08 3e 46 90 33 bd
       -0.10365446 -0.0083888965 0.13337815 -0.04383876
000100 da 3f 54 bd 34 46 79 bd 07 72 50 bd 0d ef da bd
       -0.051818706 -0.060857967 -0.050889995 -0.106901266
000110 85 c9 24 3e 27 e2 fe bb f9 55 a1 bd fd 7f b7 bc
       0.16092499 -0.0077784243 -0.07877726 -0.022399897
000120 60 41 80 3d e1 10 55 bc bb 09 27 3e a0 7f ae bd
       0.06262469 -0.0130045125 0.16312306 -0.08520436
000130 e0 70 88 3d 32 75 37 3e b7 1c c1 bd 27 c5 f5 bd
       0.06662154 0.179158 -0.09429305 -0.120004945
000140 2a de 98 3d 3f e9 e5 3d e3 59 c9 bd 93 b0 16 3c
       0.074642494 0.11226129 -0.09831598 0.009197372

weight f4 [10, 84]
000000 c3 71 9e bd 4c 67 86 ba 65 86 91 3d e3 7b 33 3d
       -0.07736542 -0.0010254174 0.07105712 0.04381932
000010 f2 fa c8 3d 24 a6 2c bd 87 0d 2d 3d 2f 39 e9 3d
       0.09813489 -0.04215063 0.04224923 0.1138786
000020 c9 5f 0b 3e 5e a3 88 bc 13 82 1a be 48 cc f8 3d
       0.13610758 -0.016679462 -0.15088682 0.121483386
000030 21 3c 84 ba 85 81 87 3c 5a df 5a 3c c3 da b9 3d
       -0.0010088721 0.016541252 0.013358915 0.090749286
000040 8a 9c a1 bd 18 65 6c bd 15 7c 6c 3d 03 65 b1 3d
       -0.078911856 -0.057713598 0.05773552 0.086618446
000050 84 d5 a9 3d 37 19 c2 bd 0c 29 8c bd 3d 5d 8a 3d
       0.08292678 -0.094774656 -0.068437666 0.06756065
000060 5c 80 05 3e 05 28 f0 3d c9 e8 1f bc ad 83 cf bd
       0.13037246 0.11726383 -0.00976009 -0.10132537
000070 c2 71 98 3b 96 2a 4b 3d 6f fb 71 bd 00 f0 9d 3d
       0.004652233 0.04960116 -0.059077676 0.07711792
000080 a2 2a 8e bd 7c 09 53 bc 6c 60 bb bd 7f 4c 4c 3d
       -0.06941725 -0.012880679 -0.091492504 0.04987764
000090 69 d4 01 bd 6d 35 bc bd cb 4d 05 bd cb 48 be 3d
       -0.03169671 -0.09189878 -0.032544892 0.09291228
0000a0 83 a0 df bc b4 6b c1 3c b3 6f d4 bd 3b 65 f6 3c
       -0.027298218 0.023610927 -0.103728674 0.030077567
0000b0 75 95 c6 3d b3 f5 6a 3d 0b f4 ab bd 18 33 92 3d
       0.096964754 0.057363223 -0.08396157 0.071386516
0000c0 4b bc 90 bd 8b 94 89 bd 82 fd d9 bd f9 86 71 3d
       -0.07067164 -0.067177854 -0.10644056 0.05896661
0000d0 4c 2e 57 bb f0 39 e3 bd 65 79 f4 3d bb cb 1f bd
       -0.0032833992 -0.11095035 0.11937217 -0.039012652
0000e0 12 1d 99 bd 83 3e 0c bd e5 b3 fb bd c1 b3 d8 3c
       -0.07476248 -0.034239303 -0.122901715 0.0264529
0000f0 32 b2 9b 3d 60 fc da 3d 17 e8 36 bd 7a c6 13 3d
       0.076023474 0.10692668 -0.044654932 0.036077954
000100 11 fc b0 bc f1 6f 71 3d 6c 5c e5 3c e7 18 0b 3d
       -0.02160457 0.058944646 0.027998172 0.033959296
000110 d4 f1 00 be 2b 08 82 bd c6 f4 0c 3d f0 88 90 bc
       -0.1259225 -0.06349214 0.03441312 -0.017643422
000120 4a a0 8e 3d 09 76 05 3e 8e 38 32 3d fc 28 3f bd
       0.069641665 0.13033308 0.043510966 -0.046669945
000130 9f 97 be 3b 69 5e cd bd a2 d8 98 bd dc 28 b6 3d
       0.0058164145 -0.10027773 -0.074631944 0.08894512
000140 7c d6 16 be cb e6 be bd 4d df de 3c fc 8b b4 3b
       -0.14730257 -0.09321364 0.027206087 0.0055098515
000150 61 77 04 be e4 c2 7a 39 88 1f f8 bd ec f7 f8 3d
       -0.12936164 0.0002391446 -0.12115389 0.12156662
000160 a6 54 ee 3d a7 80 2b be 09 3c 07 be 9a 03 6f bb
       0.11637239 -0.16748296 -0.13206495 -0.0036470653
000170 89 9b b3 3c c5 e1 ca bb da d1 14 be 14 31 ea 3d
       0.02192475 -0.0061914646 -0.14533177 0.11435142
000180 10 c3 14 3e e6 59 9c 3d 5a c2 b7 3d 07 89 14 be
       0.14527535 0.07634334 0.089726165 -0.14505397
000190 c9 af 66 3c 20 63 9e bc 39 8e f4 bd 19 56 28 be
       0.014079996 -0.019334376 -0.11941189 -0.16439094
0001a0 6a 73 74 3d 81 55 4b 3c 97 4f 2c bd 9c b2 5d bd
       0.05968038 0.012410522 -0.04206809 -0.054125413
0001b0 8e af 80 bd ca de 0a be fb 1f 9f 3d ab e7 a2 bd
       -0.062834844 -0.1356155 0.07769772 -0.079543434
0001c0 52 06 17 3d fc ce 33 bd c1 81 8c bc c3 1d 17 be
       0.036871262 -0.043898568 -0.017151715 -0.14757447
0001d0 f5 48 23 be b2 7d dc 3d fe 89 9e 3d 19 3a b1 3d
       -0.159458 0.10766162 0.07741164 0.086536594
0001e0 e7 b0 af 3d 9a 91 09 bd bf e4 ce bd 77 54 c8 3d
       0.08578663 -0.033586122 -0.101022236 0.097817354
0001f0 98 c3 ce bd 4d 78 0c be ae 8d 05 3d 7c a4 c1 3d
       -0.100959 -0.13717766 0.03260582 0.09455201
000200 b8 da 72 3d 53 8e 2e be 56 cc 0c be 37 06 88 bd
       0.059290618 -0.1704648 -0.13749823 -0.066418104
000210 01 76 63 bd 4d 5b 59 bd 03 52 cf 3d 1f 33 1d 3d
       -0.05553246 -0.053065587 0.10123064 0.03837883
000220 39 33 c6 3d bd f3 cb 3d c5 a1 ab bd 54 c0 9d 3d
       0.09677739 0.09958599 -0.083804645 0.07702699
000230 68 24 fb 3d ce 9e 68 3d 59 c9 98 3c 28 96 19 3b
       0.12262803 0.056792073 0.018650698 0.0023435447
000240 e5 65 04 3e 79 4f e6 3d 12 37 9a bd 7b a9 f4 3d
       0.12929495 0.11245627 -0.07530035 0.11946388
000250 38 67 b4 bd 6c fc b1 bd ec c0 ab bd f3 05 ca bd
       -0.0880875 -0.08690724 -0.08386406 -0.09864416
000260 17 a6 b3 bc a9 ac 6d bd c6 f6 93 3b 19 13 b0 3d
       -0.021929784 -0.05802599 0.0045155017 0.085973926
000270 ef 1a 03 3e 3d 33 28 bd cf 6e 49 be 89 5e 65 bd
       0.12803243 -0.04106449 -0.19671176 -0.05599836
000280 2d 8f 71 3d f5 8d df bd 88 d8 b4 3d de f4 a8 3d
       0.058974434 -0.10915748 0.088303626 0.0824983
000290 f6 3a 2c bd 1c fb 48 b9 8c 37 6a 3d 5f c7 ac 3d
       -0.042048417 -0.00019167032 0.05718188 0.084364645
0002a0 f0 0c fc 3d 7e 77 b0 3d f3 84 17 3d b1 96 6f 3d
       0.12307155 0.08616541 0.036992025 0.05849332
0002b0 21 9c d7 bb 6f 69 eb bc 95 42 0c 3e be d8 35 3c
       -0.0065798913 -0.028736798 0.13697274 0.011099039
0002c0 02 dd 7d 3d 61 1d f8 bd 3e 67 21 bd ec fe 39 3d
       0.061978348 -0.121149786 -0.0394051 0.045409128
0002d0 67 b9 15 bd c3 a2 62 bd 49 0f a5 3d bc a2 08 3e
       -0.036553767 -0.055331003 0.08059556 0.13343328
0002e0 18 68 94 3d 52 e2 69 3d 0c 6a 12 3e 08 c3 58 3c
       0.07246417 0.0571006 0.14298266 0.013230093
0002f0 e0 7c bc 3d 25 90 d5 3c 88 50 47 bd 90 d8 40 bd
       0.092035055 0.02606971 -0.048660785 -0.04708153
000300 ba ea df 3d 70 d4 a9 3d d6 54 02 be ad 58 cb bc
       0.109334424 0.08292472 -0.12727675 -0.024822557
000310 84 77 e0 3c 11 7b e9 3b 2b 66 1e 3e e3 ee b7 3d
       0.02740074 0.0071252664 0.15468661 0.08981111
000320 74 fc 4b bd 33 5c ac 3d bc a3 ef 3d 4d ff ec 3d
       -0.049801305 0.08416023 0.11701152 0.11572132
000330 f7 a9 8e bd 4d 05 4f 3a b1 17 00 bd 03 fd 77 bd
       -0.06966012 0.0007897213 -0.031272594 -0.060544025
000340 18 a0 dd 3d 54 06 2e 3c 97 cd 7b bd 99 a5 0a 3d
       0.10821551 0.010621626 -0.061475363 0.033849332
000350 5a 6f 6f 3d 25 e2 9f bd 86 0d 0a 3e f3 96 36 bd
       0.058455803 -0.078068055 0.13481721 -0.04457755
000360 8b d1 9f 3c a3 92 9f bd 59 fc f0 3c 88 f4 72 bd
       0.019509098 -0.077916406 0.029417204 -0.059315234
000370 0c 33 1f bd 19 9b 51 bc 69 80 0f bc 54 4a f5 bd
       -0.03886704 -0.012793326 -0.008758643 -0.119770676
000380 fe 3a bb bd 75 87 bb bd 3e 71 2c 3d 59 d2 94 bd
       -0.09142111 -0.09156696 0.042100184 -0.07266683
000390 41 39 67 bd c9 15 62 bd 33 de 91 3d 4f 50 ed 3c
       -0.056451086 -0.055196557 0.07122459 0.028968958
0003a0 ef 49 8d bd 53 1f d8 3c cb d9 a6 bd 39 35 04 3d
       -0.06898867 0.026382124 -0.081470095 0.03227732
0003b0 be 4f b6 3d 33 23 8b bd 8e 8f 4c bd ff 76 00 be
       0.08901928 -0.06793823 -0.049941592 -0.12545393
0003c0 45 73 24 bd 83 8a 78 3c f2 d0 15 3d 8a 1e 66 bd
       -0.040148992 0.0151697425 0.03657622 -0.056181468
0003d0 0b 2c 0c be fc 02 35 3e 60 f2 59 bd 6d 4d 93 bd
       -0.13688676 0.1767692 -0.053209662 -0.07192502
0003e0 63 dd 62 3d cf bf 8a 3a 64 07 dd 3b 97 69 01 be
       0.055386912 0.0010585728 0.006745266 -0.12637936
0003f0 d4 cf 8f 3d d7 02 ae 3d 36 97 a9 3d 54 a5 a0 bd
       0.07022062 0.084966354 0.08280794 -0.07844034

bias f4 [10]
000000 6a 70 0d be ff 0e 6a 3d a1 ff 95 3d e2 04 2d 3d
       -0.13812414 0.057143208 0.07324148 0.042240985
000010 ae 1b e6 3c 85 37 6b 3d 06 c6 0e 3e 21 9b 97 3d
       0.02808937 0.057425994 0.13942727 0.07402635
000020 02 3f d1 bd b2 e3 df 3c
       -0.10217096 0.027330253
