model.pth (torch, 252679 bytes, 10 tensors)

weight f4 [6, 3, 5, 5]
0	0x3d36cdd1	0.044629876
1	0x3e0a77f3	0.1352232
2	0x3e23619e	0.15955207
3	0x3e26ab08	0.1627618
4	0x3e3a7b82	0.18211177
5	0x3e854521	0.26029304
6	0x3dfeaa8b	0.12434872
7	0x3e906995	0.28205553
8	0x3e7d5977	0.2474116
9	0x3e85f432	0.2616287
10	0x3e4c14d9	0.19929828
11	0x3e8dfb67	0.27730867
12	0x3e88fa6a	0.2675355
13	0x3e6259f0	0.22104621
14	0x3e881e72	0.26585728
15	0x3e8e74fb	0.27823624
16	0x3e4cb656	0.1999143
17	0x3e7c7a43	0.24656014
18	0x3e852a0f	0.2600865
19	0x3e841b47	0.2580206
20	0x3e3f6159	0.18689479
21	0x3d6aaab1	0.05729169
22	0x3d938bbe	0.07204388
23	0x3e1511a2	0.14557508
24	0x3de18698	0.11012
25	0xbdb035fe	-0.08604048
26	0xbcc54173	-0.02407906
27	0xbdc31f08	-0.09527403
28	0x3c37c338	0.011215977
29	0xbdbfb9c1	-0.093616016
30	0xbe0151a5	-0.12628801
31	0xbe067b26	-0.13132915
32	0xbe1a74d9	-0.15083636
33	0xbe0db722	-0.13839391
34	0xbd95f887	-0.073227935
35	0xbe1168ae	-0.14200088
36	0xbd54fa69	-0.051996622
37	0xbdf6298a	-0.12019642
38	0xbe0548b3	-0.13016014
39	0xbe20fe9f	-0.1572213
40	0xbd0e86d3	-0.034796547
41	0xbc902940	-0.017597795
42	0xbe18c8b9	-0.1492032
43	0xbdaccde1	-0.08437706
44	0xbe4ea8b4	-0.20181543
45	0x3d097b39	0.03356478
46	0xbdb12b3b	-0.08650824
47	0xbda1fff1	-0.07910145
48	0xbe5a0ec2	-0.21294692
49	0xbe14980f	-0.14511131
50	0xbd2f00c3	-0.042725336
51	0xbd9f0bcc	-0.07765922
52	0xbc14e934	-0.009088803
53	0xbe2de788	-0.16982853
54	0xbd6e0e1c	-0.058118924
55	0xbdd0b85f	-0.10191416
56	0xbdaa0975	-0.08302585
57	0xbe95d251	-0.2926202
58	0xbe4a3687	-0.19747363
59	0xbeaad829	-0.33368042
60	0x3c8f3b84	0.017484434
61	0xbe67c010	-0.2263186
62	0xbe8356f2	-0.25652272
63	0xbe9d9e06	-0.30784625
64	0xbe7afc54	-0.24510318
65	0xbc45e2b6	-0.012077978
66	0xbdde7cff	-0.10863685
67	0xbe584df5	-0.21123488
68	0xbe8e15cf	-0.27751014
69	0xbe5fdcd8	-0.21861589
70	0x3e0b71c2	0.13617614
71	0xbd793c5a	-0.06084857
72	0xbd976d1e	-0.07393859
73	0xbe082425	-0.13295038
74	0xbe2c03fd	-0.16798396
75	0xbbc0f45e	-0.005888506
76	0xbd901e8e	-0.07037078
77	0xbc648d71	-0.013949738
78	0x3d67de40	0.05660844
79	0x3cae7b8d	0.021299148
80	0xbdece3a3	-0.11566856
81	0xbb4e2938	-0.0031457674
82	0x3ccbc38b	0.024873516
83	0xbccd685d	-0.025074178
84	0xbcb72e10	-0.022360831
85	0xbe057919	-0.13034476
86	0xbcc45bc0	-0.023969531
87	0x3dac4e8c	0.08413419
88	0x3c5f7d58	0.013640724
89	0xbc8e49ee	-0.017369237
90	0xbd59120e	-0.052995734
91	0xbd445c58	-0.04793963
92	0xbbd13a6a	-0.0063851373
93	0x3c303298	0.01075425
94	0xbce7e6c9	-0.02830829
95	0xbc79133a	-0.015202338
96	0xbcdac5cb	-0.026705643
97	0xbd1558d1	-0.036461655
98	0xbc6a80ff	-0.014312982
99	0xbdc813f7	-0.09769433
100	0x3d996565	0.074900426
101	0x3dacdcb2	0.08440532
102	0x3dad5b30	0.08464658
103	0x3d81a81e	0.06330894
104	0x3e1f33f4	0.15547162
105	0x3d895eb6	0.06707518
106	0x3dc48133	0.09594955
107	0x3e0e81a5	0.13916643
108	0x3e08d6ed	0.13363238
109	0x3df66064	0.12030104
110	0x3c5bd0ae	0.013416452
111	0x3dfbe990	0.12300408
112	0x3d71ca74	0.059030965
113	0x3e38bbc3	0.18040375
114	0x3e009a77	0.12558924
115	0x3d48c49e	0.049015634
116	0x3d2450e2	0.0401162
117	0x3e1d0cca	0.1533691
118	0x3df2bc8b	0.11852368
119	0x3db06664	0.086132795
120	0xbc13a8cf	-0.009012415
121	0x3d904ec5	0.07046274
122	0x3dae653c	0.08515403
123	0x3dbaf56e	0.09128843
124	0x3d9ce01c	0.07659933
125	0x3e0f3bf1	0.1398771
126	0x3e76b572	0.24092653
127	0x3ea6867b	0.32524475
128	0x3e6e8497	0.23292767
129	0x3e94305e	0.2894315
130	0x3e73e8d8	0.23819292
131	0x3e83de5e	0.2575559
132	0x3e91fc73	0.28512916
133	0x3eb33d97	0.35007927
134	0x3e8eb043	0.27868852
135	0x3e7318ce	0.23739931
136	0x3e803580	0.25040817
137	0x3e7f6f85	0.24944885
138	0x3e884498	0.26614833
139	0x3eb1244a	0.34598
140	0x3e669f13	0.2252162
141	0x3ea73a32	0.32661587
142	0x3e94bfaa	0.29052478
143	0x3eb830f3	0.35974845
144	0x3e4758fe	0.19467542
145	0x3e38e0df	0.18054532
146	0x3e5218af	0.20517229
147	0x3e88cb63	0.26717672
148	0x3e85a0a9	0.26099136
149	0x3e7fe616	0.24990115
150	0x3e2a2a0b	0.166176
151	0x3dc53874	0.09629908
152	0x3e3dacbe	0.18522927
153	0x3d9d7c50	0.07689726
154	0x3e5a197b	0.21298783
155	0x3e4d84f3	0.20070247
156	0x3e069977	0.1314448
157	0x3e1959ef	0.14975713
158	0x3e735081	0.23761179
159	0x3e5fbcfe	0.21849439
160	0x3e415045	0.18878277
161	0x3e6ab589	0.22920813
162	0x3e1789ee	0.1479871
163	0x3e322637	0.1739739
164	0x3eacbe26	0.33738822
165	0x3e875da6	0.26438636
166	0x3e199540	0.1499834
167	0x3ea4fd11	0.32224324
168	0x3e5b9241	0.2144251
169	0x3e8d6e03	0.27622995
170	0x3e1f8c99	0.15580977
171	0x3eae1b1e	0.34005064
172	0x3ea5b01c	0.32360923
173	0x3e833d68	0.25632787
174	0x3ebb3cb3	0.36569747
175	0xbd5aa45e	-0.05337941
176	0xbd921218	-0.07132357
177	0x3dc4e85a	0.0961463
178	0x3cbde4dd	0.02318042
179	0xbbfbd68a	-0.007685487
180	0xbcfc3a46	-0.030789506
181	0xbdcc5639	-0.09977383
182	0xbcdd88a8	-0.027042702
183	0x3c26ea72	0.010187732
184	0x3bd76d73	0.0065743267
185	0xbd67ca2e	-0.056589298
186	0x3d451dfa	0.04812429
187	0x3d010f4b	0.031508725
188	0x3d096a48	0.033548623
189	0xbcbb864f	-0.022891192
190	0xbd8f54ee	-0.06998621
191	0x3d6227ac	0.055213615
192	0x3da08604	0.078380615
193	0xbc8b66fa	-0.017016876
194	0x3d137b35	0.03600617
195	0x3d5a3d6a	0.053281225
196	0x3ccbf2bc	0.024896018
197	0x3dd8da80	0.105885506
198	0xbd5de85a	-0.054176666
199	0xbca375b4	-0.019953586
200	0xbe552149	-0.20813479
201	0xbe5367de	-0.20645091
202	0x3b916ce6	0.0044380305
203	0xbc107ae8	-0.008818366
204	0xbd2c5d83	-0.042081367
205	0xbe32382f	-0.17404245
206	0xbde7c7d8	-0.11317414
207	0xbd3d5550	-0.04622394
208	0xbd319eb2	-0.043364234
209	0xbab3e876	-0.0013725895
210	0xbdd381c2	-0.10327484
211	0xbd04d724	-0.032431737
212	0xbdd3dc5c	-0.103447646
213	0x3cb0c1d4	0.0215768
214	0x3d812745	0.06306318
215	0xbe0d3f5b	-0.137937
216	0xbe0fe6ea	-0.1405293
217	0x3c947654	0.01812283
218	0x3c8ba022	0.01704413
219	0x3c3d7c15	0.011565228
220	0xbd85fdec	-0.065425724
221	0xbb4ef043	-0.0031576313
222	0x3d1aa5f5	0.037755925
223	0xbdac93d5	-0.08426634
224	0xbe0ad99d	-0.13559575
225	0xbd8a5d78	-0.06756109
226	0xbd9141ad	-0.07092605
227	0x3d5b38ef	0.053521093
228	0x3c7e9a28	0.015539683
229	0xbd9ea02d	-0.07745395
230	0xbcbb20a7	-0.022842718
231	0x3b9be703	0.0047577634
232	0xbd9eb665	-0.07749633
233	0x3d40aa17	0.04703721
234	0xbd17550c	-0.03694634
235	0xba782fb5	-0.0009467558
236	0x3b08865b	0.0020832035
237	0xbda44da0	-0.08022618
238	0x3c888d62	0.01666898
239	0x3e0b486d	0.13601847
240	0xbdcc28a8	-0.09968692
241	0x3de1966f	0.11015021
242	0x3dd86458	0.10566014
243	0x3dd40767	0.103529744
244	0x3d8edaa6	0.06975298
245	0x3d94b765	0.07261542
246	0x3c48fe16	0.01226761
247	0x3d155d31	0.036465827
248	0x3e18611d	0.14880796
249	0x3dbd840e	0.09253703
250	0x3d6d2314	0.05789478
251	0x3dfe2298	0.12408942
252	0x3d844b86	0.064597175
253	0x3c62d84d	0.013845515
254	0x3e03ca3a	0.12870112
255	0x3d663ff5	0.056213338

bias f4 [6]
0	0xbd80d133	-0.062899016
1	0xbed7bffe	-0.42138666
2	0xbe9ed740	-0.31023598
3	0x3e416518	0.1888622
4	0xbd350ea1	-0.044203404
5	0xbc2694d5	-0.01016732

weight f4 [16, 6, 5, 5]
0	0x3d373ac8	0.044733793
1	0x3da664a3	0.08124664
2	0x3da444b1	0.08020914
3	0x3da111a1	0.078646906
4	0xbcdcca11	-0.026951822
5	0x38904cae	6.880738e-05
6	0x3ce9d6c1	0.028544785
7	0x3e1d2476	0.1534594
8	0x3c51258d	0.0127653
9	0xbc4bf66f	-0.012448891
10	0x3e077cfe	0.13231274
11	0x3d303492	0.043018885
12	0x3cc27699	0.023738192
13	0x3e16acb6	0.14714321
14	0x3c4dbd74	0.012557376
15	0x3e57930c	0.21052188
16	0x3e73b99b	0.23801272
17	0x3e334404	0.17506415
18	0x3dc58a63	0.09645536
19	0x3d411bd2	0.047145672
20	0x3e846f64	0.25866234
21	0x3e9d450f	0.3071675
22	0x3e1047f6	0.14089951
23	0x3e24e0d3	0.16101389
24	0x3d369d37	0.044583526
25	0x3dea5b02	0.114431396
26	0xbb562c12	-0.0032680077
27	0x3dc00ee5	0.09377841
28	0x3def5930	0.11686933
29	0x3e4d9e2f	0.20079874
30	0x3c9db201	0.019249918
31	0xbd4889a6	-0.048959397
32	0x3c8f05e6	0.017458867
33	0x3d993f49	0.07482774
34	0x3e26ab57	0.16276298
35	0x3d407df1	0.046995107
36	0xbaa10101	-0.0012283624
37	0x3da3bbad	0.07994781
38	0x3dc3a5c5	0.095531024
39	0x3e2c2e67	0.16814576
40	0x3d658724	0.056037083
41	0x3d130424	0.03589262
42	0x3e0e06b4	0.13869745
43	0x3dbd4fde	0.09243749
44	0x3e7919e6	0.24326286
45	0x3e0a331d	0.1349606
46	0x3e1a6003	0.15075688
47	0x3e27c07a	0.16382018
48	0x3e3ce167	0.18445359
49	0x3e8648be	0.26227373
50	0xbdbe77ea	-0.093002155
51	0xbdf42d19	-0.11922664
52	0xbd9e9643	-0.07743504
53	0xbda91b08	-0.08257109
54	0x3be54962	0.0069972733
55	0xbe22ccb5	-0.15898402
56	0xbd78a742	-0.060706384
57	0xbd5dba6a	-0.054132856
58	0x3c2a713c	0.010402974
59	0xbcdfdeaf	-0.027327863
60	0xbe3d2bc6	-0.1847373
61	0xbdff26e2	-0.12458588
62	0xbd015f50	-0.031585038
63	0x3b308644	0.0026935497
64	0x3d30a54a	0.043126382
65	0xbe3a03e5	-0.18165548
66	0xbbdb8a85	-0.0066998624
67	0xbd62d099	-0.055374715
68	0xbd854467	-0.06507187
69	0xbd3af64c	-0.045645043
70	0xbdac52ac	-0.08414206
71	0xbdbb3ccf	-0.09142458
72	0x3cc97c6d	0.024595464
73	0x3cbec921	0.023289265
74	0xbdb10e4a	-0.086453035
75	0xbe5342f2	-0.20631006
76	0xbe443928	-0.19162428
77	0xbdfd3808	-0.12364203
78	0xbe0e0fa6	-0.13873157
79	0xbe50adfd	-0.20378871
80	0xbe7177c2	-0.2358084
81	0x3ab9370e	0.0014130787
82	0xbce36415	-0.027757684
83	0xbd651205	-0.055925388
84	0xbdaf2d29	-0.085535355
85	0xbe7c15da	-0.2461771
86	0xbda8e20d	-0.08246241
87	0xbe00df80	-0.12585258
88	0xbd81f923	-0.06346347
89	0xbe37709c	-0.17914051
90	0xbe35e00e	-0.17761251
91	0xbe0eb75b	-0.13937132
92	0xbccd782f	-0.025081722
93	0xbd91ecef	-0.071252696
94	0xbe4e45f7	-0.20143877
95	0xbe30c85e	-0.17263934
96	0xbde38f87	-0.1111136
97	0xbe0a1ac2	-0.1348677
98	0xbd3d70d8	-0.046250194
99	0xbe8586dc	-0.26079452
100	0x3cf0bd43	0.029387122
101	0x3d1990e2	0.037491687
102	0xbd8e4de3	-0.069484495
103	0x3b5afd54	0.0033415155
104	0xbbf72e0a	-0.00754333
105	0x3db07a57	0.086170845
106	0x3e2439de	0.160377
107	0x3d9108b1	0.07081736
108	0x3e1e4c02	0.15458682
109	0x3dd6d3bf	0.10489606
110	0x3d9fb865	0.07798842
111	0x3e30c761	0.17263557
112	0x3e75a54e	0.2398884
113	0x3e1ce3af	0.1532123
114	0x3d97554d	0.07389317
115	0x3ce49d2e	0.02790698
116	0x3d9ea4c4	0.0774627
117	0x3e19c0e9	0.15014996
118	0x3bbe7e73	0.0058134138
119	0xbd2bf11d	-0.04197799
120	0xbcbcc7ab	-0.023044428
121	0x3cc302fb	0.023805132
122	0xbd410fbc	-0.047134146
123	0x3d0320f5	0.032013852
124	0xbce7b307	-0.02828361
125	0xbdd9fad8	-0.10643548
126	0xbc4415a1	-0.011968047
127	0xbdab6f7e	-0.08370875
128	0xbe021fd2	-0.12707451
129	0x3d1f6eec	0.038924143
130	0xbe09b286	-0.13447008
131	0xbe5388a7	-0.20657597
132	0xbe7ebc4a	-0.24876514
133	0xbd1430b2	-0.036179252
134	0x3e000696	0.12502512
135	0xbe381a28	-0.17978728
136	0xbe7aeea4	-0.24505097
137	0xbe708a96	-0.23490366
138	0xbdcace56	-0.09902637
139	0xbd82593b	-0.063646756
140	0xbdafcb72	-0.08583726
141	0xbe3e1a2c	-0.18564671
142	0xbe3d06ed	-0.18459673
143	0xbe1124df	-0.14174221
144	0xbe03de27	-0.12877713
145	0xbc560fef	-0.013065322
146	0xbce13f90	-0.02749613
147	0xbd961069	-0.07327349
148	0xbd63dd18	-0.055630773
149	0xbdd9597f	-0.10612773
150	0x3cba59cb	0.022747895
151	0xbcfbd77a	-0.030742396
152	0x3cec53bc	0.028848521
153	0x3da199c7	0.07890659
154	0xbc5d4e43	-0.013507429
155	0x3d84dc69	0.064873524
156	0x3d4eef20	0.050521016
157	0x3e0e68c1	0.13907148
158	0x3d9c3190	0.07626641
159	0x3dd456fb	0.10368153
160	0x3d958322	0.07300402
161	0x3dc4fbef	0.09618365
162	0x3e0bc4dc	0.13649315
163	0x3e083a60	0.13303518
164	0x3cac54a4	0.021036454
165	0x3c2342cd	0.009964657
166	0x3d1c9f3f	0.038237806
167	0x3d592c38	0.053020686
168	0xbd9696d3	-0.07352986
169	0xbd28504c	-0.041092202
170	0xbd74052e	-0.059575252
171	0xbde1422d	-0.1099895
172	0xbe0a1435	-0.13484271
173	0xbe18a667	-0.14907227
174	0xbdadc7b1	-0.08485354
175	0x3e7c06a7	0.24611913
176	0x3e600c14	0.21879607
177	0x3e7b99fa	0.24570456
178	0x3e889654	0.2667719
179	0x3e69972a	0.22811571
180	0x3db39bae	0.08769928
181	0x3beb5ae3	0.0071824654
182	0x3d9806b8	0.074231565
183	0x3d898826	0.067154214
184	0x3da309e4	0.07960871
185	0xbbb8370e	-0.0056217974
186	0xbc9ba719	-0.019000577
187	0x3cf89f21	0.030349316
188	0xbda7d5ce	-0.08195077
189	0x3b90d893	0.004420349
190	0xbd6de3d9	-0.05807862
191	0xbe332eeb	-0.17498367
192	0xbe29d413	-0.16584806
193	0xbdf6ae89	-0.12045009
194	0xbd8b6df6	-0.06808083
195	0xbe520a1f	-0.20511673
196	0xbe6468a2	-0.22305539
197	0xbe48e44a	-0.19618335
198	0xbe1ce12a	-0.15320268
199	0xbe0a3457	-0.13496529
200	0x3dfcc2a7	0.123418145
201	0x3e1ba05d	0.15197892
202	0x3e2e19ee	0.17002079
203	0x3e0e2f4a	0.13885227
204	0x3e3b9a8b	0.18320672
205	0x3d4a9eda	0.0494679
206	0x3d94ed28	0.072717965
207	0x3d9c07c4	0.07618669
208	0x3dd83493	0.10556903
209	0xbb9390e7	-0.0045033577
210	0x3cc76e97	0.024344726
211	0xbcc0979d	-0.023509795
212	0x3d70221e	0.058626287
213	0xbd133e2d	-0.035947967
214	0x3c67f697	0.014157913
215	0xbd2aee10	-0.04173094
216	0xbe0afbc8	-0.1357261
217	0xbe2223bb	-0.15833943
218	0xbe0d1a0a	-0.13779464
219	0xbd73450a	-0.059392013
220	0xbe5ecb19	-0.21757163
221	0xbe5e3813	-0.21701078
222	0xbe4a5433	-0.19758682
223	0xbe689a06	-0.22715005
224	0xbe247099	-0.16058578
225	0xbbd31804	-0.006442072
226	0xbc83e23f	-0.016099093
227	0x3da67aa3	0.0812886
228	0x3d54f021	0.051986817
229	0x3d0eb2f5	0.034838635
230	0x3c3f6691	0.011682169
231	0x3da89fec	0.08233628
232	0x3dc2d490	0.09513199
233	0x3d13532f	0.035968002
234	0x3d099a9f	0.033594724
235	0x3d816211	0.06317533
236	0x3beea29c	0.007282568
237	0xbcf4571c	-0.029826693
238	0x3b6e714b	0.0036383446
239	0x3d566d81	0.052350525
240	0xbb7889ca	-0.0037923926
241	0xbd9a1d16	-0.07525079
242	0xbe24a374	-0.16077977
243	0xbdb2fb77	-0.08739369
244	0xbd38ef0c	-0.045149848
245	0xbe0e0f2d	-0.13872977
246	0xbe1f4be8	-0.155563
247	0xbdaf1a0c	-0.0854989
248	0xbdc513c0	-0.09622908
249	0xbe1053f5	-0.14094527
250	0x3e02b976	0.1276606
251	0x3dfecdf7	0.124416284
252	0x3e11503a	0.1419076
253	0x3dfc2ae3	0.123128675
254	0x3e0a0442	0.13478187
255	0x3e59dce7	0.21275674

bias f4 [16]
0	0xbe04bd0b	-0.12962739
1	0xbe79d98c	-0.24399394
2	0xbe398c6d	-0.18119974
3	0x3e22e0a0	0.15906
4	0x3cc0c4b2	0.023531292
5	0xbef8cd83	-0.48594293
6	0x3ca611df	0.020272193
7	0xbd9f21d7	-0.07770126
8	0xbce98098	-0.028503701
9	0xbc3de959	-0.011591279
10	0xbc80a0df	-0.01570171
11	0xbd67b462	-0.05656851
12	0xbd025bf0	-0.03182596
13	0xba00d432	-0.0004914432
14	0xbdd2b925	-0.1028922
15	0xbe8973f0	-0.26846266

weight f4 [120, 400]
0	0xbd88c3cd	-0.06677971
1	0xbc65c365	-0.0140236365
2	0xbd9c2587	-0.07624345
3	0xbd4de776	-0.050269566
4	0xbdaadf22	-0.083433405
5	0x3d6c2e3a	0.057661273
6	0xbbc1b30b	-0.005911236
7	0xbd6df27f	-0.05809259
8	0xbdd20614	-0.102550656
9	0x3d630b2a	0.05543057
10	0x3e1b48ba	0.15164462
11	0xbddb1492	-0.10697283
12	0xbe878f19	-0.26476362
13	0xbe32a87f	-0.17447089
14	0x3e021f0a	0.12707153
15	0x3e1499c1	0.14511777
16	0xbd53e870	-0.05173534
17	0xbe49ed35	-0.19719394
18	0xbd50e3c2	-0.050998457
19	0x3e9ea8c4	0.30988133
20	0x3e81e11d	0.2536706
21	0xbda55369	-0.0807255
22	0xbdccd3eb	-0.10001358
23	0xbdb0ae8d	-0.08627043
24	0x3e3292e3	0.17438845
25	0xbe9c67f9	-0.30548075
26	0xbdb6a8c6	-0.0891891
27	0x3cca4f71	0.024696084
28	0x3abec407	0.001455427
29	0xbdb99410	-0.09061444
30	0xbde349e4	-0.11098078
31	0x3d09f513	0.033680987
32	0x3e0dc5a9	0.13844933
33	0x3d64e698	0.055883974
34	0x3db2d227	0.0873149
35	0xbd47d7f3	-0.04878993
36	0x3e3e41f0	0.1857984
37	0x3e447701	0.19186021
38	0x3e504232	0.20337752
39	0x3e0cea86	0.13761339
40	0xbc6a3859	-0.014295661
41	0xbd2fc8bd	-0.04291605
42	0xbdaab2ab	-0.083348595
43	0x3d32d564	0.043660536
44	0x3d84614a	0.06463869
45	0x3d84f0c6	0.064912364
46	0xbd13b567	-0.03606167
47	0xbc5a88a3	-0.013338241
48	0xbca2bd68	-0.019865707
49	0x3e8356cb	0.25652155
50	0x3c8fad65	0.017538736
51	0x3dae6589	0.0851546
52	0x3d7758fc	0.060387596
53	0x3d85c1f4	0.06531134
54	0xbd05913c	-0.03260921
55	0x3d8ad1c4	0.06778291
56	0xbd09326e	-0.03349536
57	0xbd672768	-0.056434065
58	0x3b0f7e4b	0.0021895345
59	0x3c9dd0ae	0.019264545
60	0x3d1207a6	0.035651825
61	0xbd4602cb	-0.048342507
62	0xbd7f0034	-0.062256053
63	0xbb81df6c	-0.0039634015
64	0x3d7d8eef	0.06190389
65	0x3dd43324	0.10361317
66	0x3c260c53	0.010134774
67	0x3d9e854c	0.07740268
68	0x3d1b4310	0.037905753
69	0x3e30b537	0.17256628
70	0xbc46c7c3	-0.012132588
71	0xbd7d4387	-0.061831977
72	0xbe15a10a	-0.14612213
73	0xbc9fd209	-0.019509332
74	0x3e3d4c60	0.18486166
75	0x3d3e63bb	0.04648183
76	0x3d2a9324	0.04164423
77	0xbcce714b	-0.025200507
78	0x3e083ae3	0.13303714
79	0x3d8bfe54	0.068356186
80	0x3e29f01c	0.165955
81	0xbc76da3a	-0.015066678
82	0xbd1a902c	-0.03773515
83	0x3d6257bc	0.05525945
84	0x3d9654c9	0.0734039
85	0x3d37aab2	0.044840522
86	0xbdba8524	-0.09107426
87	0xbd71cce4	-0.05903329
88	0xbb916b2d	-0.004437825
89	0xbc699300	-0.014256239
90	0x3dd9e5d5	0.1063954
91	0xbc310d8b	-0.010806452
92	0xbd46dbe2	-0.04854954
93	0xbe086d4a	-0.1332294
94	0xbe868168	-0.26270604
95	0x3e91bc60	0.2846403
96	0x3e4e39d9	0.20139255
97	0x3d81e026	0.06341581
98	0xbe027173	-0.1273859
99	0x3c07142a	0.008244554
100	0xbe0325cc	-0.12807387
101	0x3d1064cb	0.035252374
102	0xbdc37bee	-0.09545122
103	0xbdbadbd1	-0.09123958
104	0xbcdba87a	-0.026813734
105	0xbd7eafcc	-0.06217937
106	0xbdad420e	-0.084598646
107	0xbdc3ddaa	-0.095637634
108	0xbe15f0aa	-0.14642587
109	0xbda253ac	-0.079261154
110	0xbcd16199	-0.025559234
111	0xbd54b4cd	-0.051930238
112	0xbe0b85b6	-0.13625225
113	0x3c525cba	0.012839491
114	0xbe1293ec	-0.1431424
115	0xbd204857	-0.03913149
116	0xbde6665a	-0.11249991
117	0xbdb04317	-0.08606546
118	0xbe047fcb	-0.12939374
119	0xbe21fe89	-0.15819754
120	0xbd27f6f3	-0.041006994
121	0xbdebc864	-0.11512831
122	0xbdaebce6	-0.08532123
123	0xbdde536b	-0.108557545
124	0xbdc051e2	-0.09390618
125	0x3e0e8c43	0.13920693
126	0x3c895fb9	0.016769277
127	0xbd86ea82	-0.065876976
128	0xbc6c14f5	-0.014409293
129	0x3e1d5d95	0.1536773
130	0x3d6149fe	0.055002205
131	0xbd39707f	-0.0452733
132	0xbd38f9e3	-0.045160186
133	0xbdc25aba	-0.09489961
134	0x3de557f7	0.111984186
135	0x3d4c26c7	0.04984167
136	0xbde3a4de	-0.1111543
137	0xbe067359	-0.13129939
138	0xbdcaeb97	-0.099082164
139	0x3d383c17	0.04497918
140	0x3e1279d4	0.14304286
141	0x3db6873e	0.08912514
142	0xbdfc261a	-0.12311955
143	0x3c4737b1	0.012159274
144	0x3e2b9659	0.16756572
145	0xbcd747e3	-0.026279395
146	0x3d87ea14	0.06636444
147	0x3a0562b9	0.0005088258
148	0x3d583e7f	0.052793976
149	0x3ddd7d5d	0.10814927
150	0xbe4c4bd6	-0.19950804
151	0xbd0e2a7f	-0.034708496
152	0xbe0b68d4	-0.13614208
153	0xbda0b28b	-0.07846554
154	0xbdd125e1	-0.10212303
155	0xbcf8b3eb	-0.03035923
156	0xbd0be783	-0.034156334
157	0xbdf12701	-0.117750175
158	0xbd895487	-0.067055754
159	0xbd9ae30d	-0.07562838
160	0xbdbfd7a3	-0.09367301
161	0xbe4c83ea	-0.19972196
162	0xbe1c7cf2	-0.15282038
163	0x3bf8ab13	0.007588753
164	0xbe1aef56	-0.15130362
165	0xbd3258f0	-0.04354185
166	0xbd13f5fe	-0.03612327
167	0xbe016f31	-0.12640072
168	0xbddf60bf	-0.10907125
169	0x3db1df55	0.08685175
170	0x3c82fff0	0.015991181
171	0x3cc46797	0.023975177
172	0xbe1790c6	-0.1480132
173	0xbd341522	-0.043965466
174	0x3d8150a1	0.06314207
175	0xbe09c2d4	-0.13453227
176	0xbd9a7b78	-0.07543081
177	0xbdb5dcd3	-0.088800095
178	0xbe088dbe	-0.1333532
179	0xbc277444	-0.010220591
180	0xbb33a37e	-0.0027410681
181	0xbdfedace	-0.124440774
182	0xbd728a97	-0.0592142
183	0xbd9eae81	-0.07748128
184	0x3c8f5443	0.017496234
185	0xbe239176	-0.15973458
186	0xbdd5edcf	-0.10445749
187	0xbdc38ceb	-0.09548362
188	0x3d3650ff	0.044510838
189	0xbe2565f3	-0.16152172
190	0xbe08ffa5	-0.1337877
191	0x3cee5627	0.029093815
192	0x3c546b65	0.012965058
193	0xbdf7a546	-0.1209207
194	0xbde48ec4	-0.11160043
195	0xbe2ba092	-0.16760471
196	0xbdc3244e	-0.09528409
197	0xbe0fa5de	-0.14028117
198	0x3bcf9c08	0.006335739
199	0xbd444002	-0.047912605
200	0xbdbb6d66	-0.091517255
201	0xbd82e8b4	-0.06392041
202	0x3cccec55	0.025015036
203	0xbd7340a3	-0.059387814
204	0xbdeaa1cc	-0.114566416
205	0xbe43d1b6	-0.19122967
206	0xbd9249bd	-0.07142971
207	0x3e03216a	0.12805715
208	0xbdfd1a07	-0.1235848
209	0xbda44ab4	-0.08022061
210	0xbd2b7e93	-0.041868757
211	0xbccc3c51	-0.024931105
212	0xbd751ebd	-0.059843767
213	0xbddb58ae	-0.10710274
214	0xbe7fca45	-0.24979503
215	0xbdb58c7e	-0.088646874
216	0xbda1a6a5	-0.07893113
217	0x3d26028f	0.040529784
218	0x3c1cbd14	0.009566564
219	0xbdf43338	-0.11923832
220	0xbe8360c4	-0.25659764
221	0xbe4e5ceb	-0.20152633
222	0x3c58e521	0.013238222
223	0xbbffb9e0	-0.0078041404
224	0xbcdf0c7c	-0.027227633
225	0xbe0dba73	-0.13840656
226	0xbdb339cd	-0.08751259
227	0xbe355b47	-0.17710601
228	0x3cbed7ea	0.023296315
229	0xbe5293a5	-0.20564134
230	0xbd8191db	-0.06326648
231	0xbde8efb5	-0.113738455
232	0xbd9c640e	-0.076362714
233	0x3d0353a3	0.032062184
234	0x3d580c5b	0.052746158
235	0xbe4601c2	-0.19336608
236	0xbd3751ad	-0.044755626
237	0xbdb4a1bd	-0.08819912
238	0xbe31bc1b	-0.17356913
239	0xbd052a22	-0.032510884
240	0xbd617d20	-0.05505097
241	0xbd8519f9	-0.064990945
242	0xbcdae2e5	-0.02671952
243	0xbbfd205e	-0.0077248057
244	0xbe3cf210	-0.18451715
245	0xbd98a0c6	-0.0745254
246	0xbe00e78a	-0.12588325
247	0xbd144a25	-0.036203522
248	0xbe1acf89	-0.15118231
249	0xbdc9bfa5	-0.098510064
250	0xbcc8e2f5	-0.024522284
251	0xbe557ef0	-0.20849204
252	0xbdcf266d	-0.10114751
253	0xbd54ccb7	-0.051953044
254	0xbd922fb3	-0.07138004
255	0xbdbb5a30	-0.09148061

bias f4 [120]
0	0xbd29f6c4	-0.0414951
1	0x3ec6f08b	0.38855395
2	0x3a88a57b	0.0010425294
3	0xbee383bb	-0.4443644
4	0xbda7ec33	-0.08199348
5	0xbd54be32	-0.051939197
6	0x3d08b1c1	0.033372644
7	0xbcfed85c	-0.031109028
8	0xbd47eea3	-0.048811566
9	0x3d03fcff	0.032223698
10	0x3dae710a	0.08517654
11	0xbdac778a	-0.08421238
12	0xbc9ef996	-0.019406121
13	0xbe5928fa	-0.21207038
14	0xbe1d1cd1	-0.15343024
15	0xbd5d2729	-0.053992424
16	0xbec31f47	-0.381098
17	0x3c82ab9e	0.015950974
18	0x3cbf0389	0.023317115
19	0xbe8548f0	-0.2603221
20	0xbb55f727	-0.0032648535
21	0xba4e3a80	-0.00078669935
22	0xbe521652	-0.20516327
23	0xbe502e74	-0.2033022
24	0x3cffd889	0.031231182
25	0xbd5cc66d	-0.05390017
26	0xbd6ebb15	-0.058283884
27	0xbd037f21	-0.03210366
28	0x3dea4c3c	0.11440322
29	0xbddf7477	-0.10910886
30	0x3c5a5c2a	0.013327638
31	0xbd38054f	-0.044926938
32	0x3d1c02c9	0.038088594
33	0x3b4b3540	0.0031007081
34	0xbe7d24f1	-0.24721123
35	0x3d143f92	0.036193438
36	0xbd11d991	-0.035607878
37	0xbdb037ba	-0.08604379
38	0xbd01e740	-0.031714678
39	0xbd1a93b3	-0.037738513
40	0xbc916147	-0.01774658
41	0x3ca44d35	0.020056346
42	0x3d0eaa0b	0.034830134
43	0x3c9a2637	0.01881705
44	0x3d1d870f	0.03845888
45	0xbdcfd782	-0.10148527
46	0x3e51e2f8	0.20496738
47	0x3c2b7c42	0.010466637
48	0xbd322286	-0.043489955
49	0xbd8b528d	-0.06802855
50	0x3ec8560e	0.39128155
51	0xbd0c61fe	-0.03427314
52	0x3f23de88	0.6401143
53	0xbc4b9efe	-0.012428043
54	0x3def02fa	0.116704896
55	0xbe40fbe2	-0.18846086
56	0x3baf1419	0.005342972
57	0xbcc41055	-0.023933569
58	0x3e4a79cc	0.19773024
59	0xbc4d3114	-0.012523908
60	0xbe1a3fec	-0.15063447
61	0x3cc9f0be	0.024650928
62	0x3ea9ea40	0.3318653
63	0xbc90d39c	-0.017679028
64	0x3dc6c49f	0.09705471
65	0xbc9b121c	-0.018929534
66	0xbd199298	-0.03749332
67	0xbcedd3e9	-0.02903171
68	0xbc64ae8c	-0.013957631
69	0x3ea7761c	0.32707298
70	0xbd3c6c91	-0.046001974
71	0xbea34818	-0.3189094
72	0xbda986fb	-0.082776986
73	0x3e697ae3	0.22800784
74	0x3bf6be4a	0.0075300084
75	0xbd23f8cb	-0.04003219
76	0xbca88f3f	-0.020576118
77	0x3c4fd0f1	0.012684093
78	0x3c1e6630	0.009667918
79	0x3ab6c722	0.0013944844
80	0xbd940a5a	-0.07228537
81	0xbcaa441c	-0.02078443
82	0xbebaee92	-0.3651014
83	0xbc945585	-0.018107185
84	0x3e9490d9	0.2901676
85	0xbb9965f7	-0.0046813446
86	0xbd680103	-0.05664159
87	0xbd8c696c	-0.06856045
88	0xbd2b7d70	-0.041867673
89	0x3eb93f84	0.3618127
90	0xbd3847a9	-0.044990215
91	0xbc8a3354	-0.016870178
92	0xbd3ecfc8	-0.046584874
93	0xbd1fb62f	-0.038992103
94	0xbcba5a6f	-0.0227482
95	0xbd57d5b2	-0.05269403
96	0x3cab0b76	0.020879488
97	0xbc74cfb7	-0.014942101
98	0xbd7ec7a0	-0.062202096
99	0x3cbb870d	0.022891546
100	0xbd482761	-0.04886568
101	0xbbfc14f5	-0.007692928
102	0xbd5546d6	-0.052069508
103	0xbd19b0a2	-0.037521966
104	0x3c96315d	0.018334085
105	0xbca504f6	-0.020143967
106	0x3de52659	0.11188955
107	0xbcd487e8	-0.025943711
108	0xbcce5494	-0.025186814
109	0xbe5dca02	-0.21659091
110	0x3e39815c	0.18115753
111	0x3f3f3bba	0.7470051
112	0xbe35f9f6	-0.17771134
113	0x3d9a8573	0.07544985
114	0x3ed05182	0.40687186
115	0xbd8108d1	-0.0630051
116	0xbd437962	-0.04772318
117	0x3b63a9e9	0.0034738726
118	0xbd297df8	-0.0413799
119	0xbb9a1146	-0.004701766

weight f4 [84, 120]
0	0xbeaeeab1	-0.3416343
1	0x3def9f68	0.11700326
2	0xbd974286	-0.07385735
3	0xbdc6575c	-0.09684631
4	0x3cff82a5	0.031190226
5	0xbd346bfc	-0.044048294
6	0x3da276df	0.07932829
7	0xbe24c4df	-0.16090725
8	0x3ac625e4	0.0015117493
9	0xbdaa8fae	-0.08328186
10	0x3d74aa16	0.05973252
11	0x3d93c036	0.07214396
12	0xbdb6c680	-0.089245796
13	0xbe255b8c	-0.16148204
14	0xbdef33e5	-0.1167982
15	0xbe1cbbed	-0.15306063
16	0x3d8f3373	0.06992235
17	0xbdef3bbf	-0.116813175
18	0x3c7c173a	0.015386397
19	0x3e3226fc	0.17397684
20	0x3ce96eed	0.028495276
21	0xbe172d40	-0.14763355
22	0x3db963bf	0.09052228
23	0x3e1425ed	0.14467593
24	0xbd953c3d	-0.0728688
25	0x3d9f0a87	0.0776568
26	0x3c984265	0.018586347
27	0xbddbc958	-0.10731763
28	0xbe513d8a	-0.20433632
29	0x3d3f6df5	0.046735723
30	0x3aa59e40	0.0012635663
31	0xbdae46df	-0.08509611
32	0x3de58a3d	0.112080075
33	0xbd90d14e	-0.07071172
34	0xbdfb31e4	-0.12265375
35	0x3d285e1e	0.041105382
36	0x3dad5596	0.0846359
37	0x3dcad357	0.09903591
38	0x3de2e765	0.11079291
39	0x3d913f41	0.07092143
40	0x3d7e45c2	0.062078245
41	0x3dfa51b9	0.122226186
42	0xbca1aa38	-0.019734487
43	0xbdc65a06	-0.09685139
44	0x3e2a7693	0.16646795
45	0xbe25c1f7	-0.16187273
46	0x3ea1824e	0.31544727
47	0xbdc829d0	-0.097736
48	0xbe3fed35	-0.18742831
49	0xbda5c234	-0.08093682
50	0xbe009477	-0.12556635
51	0x3bbac66a	0.0056999223
52	0x3dfe7c4a	0.1242605
53	0x3ccb6fc4	0.024833567
54	0x3ec269a7	0.3797123
55	0x3e6cf070	0.23138595
56	0xbcdbace0	-0.026815832
57	0xbe99d47a	-0.3004492
58	0xbd58c2a7	-0.05292001
59	0x3d8511ac	0.06497511
60	0xbcd03654	-0.02541653
61	0xbe00adf9	-0.12566365
62	0x3d0bffe9	0.0341796
63	0xbbb06f53	-0.0053843646
64	0xbdab5a31	-0.08366812
65	0x3d82cc01	0.06386567
66	0xbd0bd15c	-0.034135208
67	0x3dc48e4a	0.09597452
68	0xbc8dbc6f	-0.017301766
69	0xbd713602	-0.058889396
70	0xbdcb6d10	-0.099329114
71	0xbdccfb91	-0.1000892
72	0x3d71f9b3	0.059076022
73	0xbd5f2694	-0.05448015
74	0x3da5e6c8	0.08100659
75	0x3dab0589	0.08350665
76	0x3d4f303d	0.050583113
77	0x3d2d8d45	0.042371053
78	0x3daaa07a	0.0833139
79	0x3d09f28f	0.033678588
80	0xbc305f35	-0.010764887
81	0xbd5858f7	-0.05281922
82	0xbdda0619	-0.10645694
83	0x3c0ebfd6	0.008712729
84	0x3c2c8762	0.010530325
85	0xbc1ccfeb	-0.009571056
86	0x3d139d52	0.036038704
87	0xbdaf5d70	-0.08562744
88	0xbdb7e04a	-0.089783266
89	0xbd0f554d	-0.03499346
90	0xbe042033	-0.12902908
91	0x3c788b97	0.01517
92	0xbcc4aa8d	-0.024007106
93	0xbe185c2e	-0.14878914
94	0x3d9665e7	0.07343655
95	0xbda0931f	-0.07840561
96	0x3dffa6b1	0.12482966
97	0xbdcdb454	-0.100441605
98	0xbe2a1e15	-0.16613038
99	0x3e1ac1b9	0.15112962
100	0x3d79d0ef	0.06099027
101	0x3de8cfd8	0.11367768
102	0x3deddd04	0.11614421
103	0xbe0352d0	-0.12824559
104	0xbe01d609	-0.12679304
105	0xbec96e47	-0.39341947
106	0xbe49464b	-0.19655721
107	0x3da7bc5a	0.08190222
108	0x3decbebd	0.11559818
109	0xbe163d3d	-0.14671798
110	0xbca5835e	-0.020204242
111	0x3e2c2d3d	0.16814132
112	0xbd4047de	-0.046943538
113	0xbd4a89ae	-0.049447708
114	0xbda8a7d3	-0.08235135
115	0xbcc5cfbc	-0.024146907
116	0xbdea2c6b	-0.11434253
117	0x3a17cb59	0.0005790494
118	0x3d09bdb5	0.033628184
119	0xbdc65552	-0.09684242
120	0x3bf57368	0.007490564
121	0x3dd54417	0.10413378
122	0xbe397ab7	-0.18113218
123	0xbab02345	-0.0013438246
124	0x3d1ae470	0.03781551
125	0xbd490d27	-0.04908481
126	0x3cd749ec	0.026280366
127	0xbb5c690a	-0.0033631944
128	0xbd9e26be	-0.07722233
129	0xbcb2ee23	-0.021842068
130	0xbd784e16	-0.060621344
131	0xbda163a9	-0.07880337
132	0x3ddf60ca	0.10907133
133	0x3ccef35c	0.025262527
134	0x3d3af748	0.045645982
135	0xbde64a52	-0.11244644
136	0x3d0a2595	0.033727247
137	0x3e2b9051	0.16754271
138	0xbdd18b68	-0.10231668
139	0x3d1fb71c	0.038992986
140	0xbe26ff80	-0.16308403
141	0x3e3037c5	0.17208774
142	0xbd1e8c63	-0.038708102
143	0x3e53f678	0.20699489
144	0x3dbb5102	0.091463104
145	0x3ddaf7b2	0.106917754
146	0x3be31cc0	0.0069309175
147	0xbe1e996a	-0.1548821
148	0x3e1b95a1	0.15193798
149	0xbe61c6f6	-0.22048554
150	0x3bce378c	0.006293243
151	0x3dafda90	0.08586609
152	0xbd478b6b	-0.048716944
153	0x3e2b7aa5	0.16746004
154	0xbe2f6d89	-0.17131628
155	0xbe1fd634	-0.15609056
156	0x3c660899	0.014040136
157	0xbdb8a2c4	-0.0901542
158	0x3dacd160	0.084383726
159	0xbe0c4a78	-0.13700283
160	0xbd02ded0	-0.03195077
161	0xbde5cabb	-0.112203084
162	0xbe053242	-0.13007453
163	0xbdb68d9c	-0.089137286
164	0x3e48aa5e	0.1959624
165	0x3d9a97dc	0.07548496
166	0xbdeb3dcc	-0.11486396
167	0xbdc62ddd	-0.096767165
168	0xbde7b591	-0.11313928
169	0xbdfa0c2d	-0.122093536
170	0xbd384528	-0.044987828
171	0x3d1c4a1a	0.038156606
172	0x3d1e88ef	0.03870481
173	0x3ce717d5	0.028209606
174	0xbd1c9fdf	-0.038238402
175	0x3d6e41a7	0.05816808
176	0xbe027c9a	-0.12742844
177	0x3bf37d35	0.0074306973
178	0xbe29d163	-0.16583781
179	0xbbbf9e91	-0.00584776
180	0x3d926750	0.071486115
181	0xbe4e473f	-0.20144366
182	0xbeefbe8d	-0.46825066
183	0x3d8e6604	0.06953052
184	0x3baea802	0.0053300867
185	0xbd625a5a	-0.055261947
186	0x3d1eb08d	0.03874259
187	0x3e1b5422	0.15168813
188	0xbc0c69e4	-0.008570168
189	0xbe572998	-0.2101196
190	0x3e12896d	0.14310236
191	0xbe89ee2c	-0.26939523
192	0xbd3c079a	-0.045905687
193	0xbe68e515	-0.22743638
194	0x3d1dc9a2	0.03852237
195	0x3b92a345	0.0044750297
196	0xbd30e14a	-0.043183602
197	0x3de3adeb	0.111171566
198	0x3a9f445a	0.0012151108
199	0x3d3408f9	0.04395387
200	0x3a6fa8ba	0.00091422687
201	0xbd81602e	-0.06317173
202	0xbd90b78e	-0.0706626
203	0xbe941742	-0.28923994
204	0x3dd7c9a3	0.10536506
205	0xbc4a3d63	-0.012343737
206	0xbd5e17ef	-0.054222044
207	0xbe1139b9	-0.14182176
208	0xbe161a72	-0.14658526
209	0xbd141a27	-0.036157753
210	0x3d7d8645	0.061895628
211	0xbd515cb7	-0.05111381
212	0x3e21824e	0.15772364
213	0x3dfd0ac9	0.12355573
214	0x3df9b9e4	0.12193659
215	0x3d5386c8	0.05164221
216	0xbea2ba46	-0.3178274
217	0xbdf883d0	-0.12134516
218	0xbe736d01	-0.2377205
219	0xbcf57b2f	-0.029965965
220	0x3cf54167	0.029938413
221	0x3c39b9f7	0.011335841
222	0x3e0466ee	0.1292989
223	0x3e46ef3c	0.19427198
224	0xbdd65e8b	-0.104672514
225	0xbc4f5e9f	-0.012656837
226	0x3d91d676	0.07120983
227	0xbe06612a	-0.13123003
228	0x3e077a4d	0.13230248
229	0xbd462637	-0.04837629
230	0x3dd84d09	0.10561568
231	0x3c1cf6c8	0.009580322
232	0xbdbee6c4	-0.09321359
233	0xbdb8454d	-0.08997593
234	0x3d8b347c	0.0679712
235	0x3dac73a2	0.08420493
236	0xbddf7f0d	-0.10912905
237	0xbd2de445	-0.042454023
238	0x3d637030	0.055526912
239	0xbe002ae0	-0.12516356
240	0xbcdce4ec	-0.026964627
241	0x3c9a6e4a	0.018851418
242	0x3c4a0def	0.012332424
243	0xbc9ff013	-0.019523656
244	0xbdc9ce3e	-0.09853791
245	0xbdae9ef2	-0.0852641
246	0xbc399707	-0.011327512
247	0xbd28b58e	-0.04118877
248	0xbba3c8cd	-0.0049983026
249	0xbbd2d15b	-0.0064336485
250	0x3d13d335	0.036090095
251	0xbea4ab6c	-0.32162035
252	0x3cab30a8	0.020897225
253	0xbd0595a2	-0.032613404
254	0xbcefca16	-0.029271167
255	0xbce097a0	-0.02741605

bias f4 [84]
0	0x3c1b9d77	0.009497992
1	0x3dfc96cd	0.123334505
2	0x3a8b721a	0.0010638863
3	0xbe0b9c5e	-0.13633868
4	0x3ef6fd79	0.4824026
5	0xbd94b508	-0.072610915
6	0xbe89bc29	-0.26901367
7	0xbdb61d27	-0.08892279
8	0xbd2f66d0	-0.04282266
9	0xbd1bd5d2	-0.03804571
10	0x3e58c7f8	0.21170032
11	0x3edddf1e	0.43334287
12	0xbd95ca76	-0.07314007
13	0x3e70ee10	0.23528314
14	0x3e2022f2	0.1563833
15	0x3d5bac12	0.053630896
16	0x3ec56cab	0.3855947
17	0x3c3738a7	0.011182941
18	0xbe145596	-0.14485773
19	0xbe6a761e	-0.2289662
20	0xbc01378e	-0.00788678
21	0x3db1b322	0.08676745
22	0x3e67920b	0.22614305
23	0xbc428836	-0.0118732955
24	0x3efb2d20	0.49057865
25	0xbd014429	-0.031559143
26	0x3d63599a	0.055505373
27	0xbdfaa6eb	-0.12238868
28	0xbed0af77	-0.4075887
29	0xbe101930	-0.14072108
30	0x3d93fac1	0.07225562
31	0x3e89202d	0.2678236
32	0x3d4cac95	0.049969275
33	0xbd70db2a	-0.05880276
34	0xbcde1aaa	-0.027112324
35	0xbe0ba5ef	-0.13637517
36	0xbe681c84	-0.22667128
37	0x3c8c4b1a	0.017125655
38	0xbd819dd3	-0.06328931
39	0x3d06e674	0.03293462
40	0xbd68f4d4	-0.05687411
41	0x3e935848	0.2877829
42	0x3eba04ea	0.36331874
43	0xbe0f378c	-0.13986033
44	0xbe26c9a9	-0.16287865
45	0xbccd7022	-0.025077883
46	0xbc1663cb	-0.009179066
47	0xbde4fbe1	-0.111808546
48	0xbd90b376	-0.070654795
49	0xbe56b4e3	-0.2096744
50	0xbd40a2ac	-0.047030136
51	0x3e866df9	0.26255777
52	0xbe98eb9e	-0.29867262
53	0x3ece88de	0.40338796
54	0x3e0e4fc0	0.1389761
55	0xbd24c0ad	-0.040222812
56	0xbdbbf059	-0.09176702
57	0xbe8a2a13	-0.26985225
58	0x3b99affc	0.0046901684
59	0xbe9ef36f	-0.310451
60	0x3ca2d4cb	0.019876858
61	0xbe851f0f	-0.26000258
62	0xbef09f75	-0.46996656
63	0xbdb3e66a	-0.08784182
64	0xbd41baab	-0.04729716
65	0x3e11c21a	0.142342
66	0x3d17d9ff	0.03707313
67	0xbe0f832e	-0.14014885
68	0xbd7021f1	-0.05862612
69	0xbd802a67	-0.062580876
70	0xbc1a1113	-0.009403485
71	0xbe5df880	-0.21676826
72	0x3da54b2d	0.08070979
73	0xbd871223	-0.06595256
74	0xbdb037a3	-0.08604362
75	0x3dc78e55	0.097439446
76	0x3ecee108	0.4040606
77	0xbe381675	-0.17977317
78	0x3d3ea31a	0.046542265
79	0xbe88d78e	-0.26726955
80	0xbc910fcd	-0.01770773
81	0xbe4bd520	-0.1990552
82	0x3ee7b066	0.4525177
83	0x3eaef63d	0.3417224

weight f4 [10, 84]
0	0xbb0e4378	-0.0021707695
1	0xbd371b07	-0.04470351
2	0x3d897e18	0.067135036
3	0x3d403416	0.046924673
4	0xbdeb344c	-0.11484584
5	0xbceea752	-0.029132519
6	0x3d51a598	0.051183313
7	0x3cd4f532	0.025995824
8	0x3ca08423	0.019594258
9	0xbacb4c0f	-0.0015510338
10	0xbcd92ac3	-0.026509648
11	0xbd89077f	-0.06690883
12	0x3d045a01	0.032312397
13	0x3d9b9b3c	0.07597968
14	0xbd9b7f14	-0.075925976
15	0x3d8ce90e	0.06880389
16	0xbd2b1910	-0.04177195
17	0x3cfcdb8f	0.030866412
18	0x3cb04b6e	0.021520343
19	0xbd32bd79	-0.043637726
20	0x3c895138	0.01676236
21	0x3db2ce62	0.08730771
22	0x3d9b8bb4	0.07595006
23	0xbdcb4467	-0.09925156
24	0xbd4b63ee	-0.049655847
25	0xbbefe666	-0.007321167
26	0x3d696011	0.05697638
27	0x3d32ed71	0.043683473
28	0x3dad53f9	0.08463282
29	0x3e24c191	0.16089465
30	0xbd27a54e	-0.04092913
31	0x3cb6e1a0	0.022324383
32	0x3d975a40	0.07390261
33	0x3df7d3f9	0.121009775
34	0xbd4a0fdb	-0.049331527
35	0x3d52cf8f	0.051467475
36	0xbc60ce16	-0.01372101
37	0xbc4ff18e	-0.0126918685
38	0x39dad6bc	0.0004174019
39	0xbd7f89f3	-0.062387418
40	0xbd4e1a81	-0.050318245
41	0xbd23151e	-0.03981506
42	0xbe0f828d	-0.14014645
43	0x3d9474b6	0.07248823
44	0xbb6209fd	-0.0034490817
45	0x3ad0b7b0	0.0015923884
46	0xbd093003	-0.033493053
47	0x3d176f1d	0.0369712
48	0xbcce2e1d	-0.025168473
49	0x3a09dabc	0.0005258729
50	0x3d94797b	0.07249733
51	0x3cda1384	0.026620634
52	0x3d965219	0.07339878
53	0xbdff6518	-0.12470454
54	0xbc1ef69c	-0.009702351
55	0xbc2765fd	-0.010217187
56	0x3cb0a9c6	0.02156533
57	0xbbe3bf4e	-0.0069502955
58	0xbc779019	-0.015110039
59	0x3b8538b9	0.0040655998
60	0x3c224500	0.009904146
61	0xbdb6c608	-0.0892449
62	0x3d0afd76	0.033933125
63	0xbd6462de	-0.05575835
64	0x3cec2e6f	0.028830735
65	0xbd219d1d	-0.039456476
66	0xbd73b1ae	-0.05949562
67	0x3d82b54a	0.063822344
68	0xbd2ea59d	-0.04263841
69	0x3c9f38f7	0.019436343
70	0x3d0b9ecf	0.034087
71	0xbe12e2ec	-0.14344376
72	0xbd12e80c	-0.03586583
73	0xbe051ee5	-0.13000067
74	0x3d840a51	0.0644728
75	0xbd070468	-0.032963187
76	0x3dc1f377	0.09470265
77	0x3cc534b2	0.024072979
78	0xbcd49d88	-0.025954023
79	0x3bfb6d04	0.007672908
80	0x3cbe9cd9	0.02326815
81	0x3db63cd8	0.08898324
82	0x3c820c87	0.015875114
83	0x3e03b05c	0.12860245
84	0x3dbb33a2	0.091407076
85	0x3de102a4	0.10986832
86	0x3dc1091f	0.09425568
87	0xbd437964	-0.04772319
88	0xbd90624f	-0.07050001
89	0x3d45e760	0.04831636
90	0x3e315be7	0.17320214
91	0x3ccc6a18	0.024952933
92	0x3daad1ac	0.08340773
93	0xbc8fa32a	-0.017533857
94	0xbd2fba5a	-0.042902328
95	0x3d27e053	0.040985417
96	0xbe0ebd5b	-0.13939421
97	0x3d38e530	0.045140445
98	0x3ce2cb21	0.02768475
99	0xbc58b0a6	-0.01322571
100	0xbe05c51b	-0.13063471
101	0x3dd799df	0.105273955
102	0x3cdc4a98	0.026891038
103	0xbe249c0e	-0.16075155
104	0x3b64b6ee	0.0034899074
105	0xbdb5e605	-0.08881763
106	0xbe206928	-0.15665114
107	0x3cfb5e32	0.030684564
108	0xbe194d2c	-0.14970845
109	0x3e0bfae6	0.13669929
110	0x3dc3a921	0.09553743
111	0xbd6678cc	-0.056267545
112	0x3cde93eb	0.027170142
113	0xbcdd0a0a	-0.026982326
114	0x3cd7ce01	0.026343348
115	0xbda127f7	-0.07868951
116	0x3b5045aa	0.0031779804
117	0x3d18a598	0.037267298
118	0xbca242db	-0.01980727
119	0x3d54d511	0.05196101
120	0xbc3fc8b9	-0.011705571
121	0xbdc2b9c3	-0.095080875
122	0x3c44207f	0.011970638
123	0x3cd095a9	0.025461989
124	0xbceaea4c	-0.028676175
125	0xbdecabd2	-0.115562096
126	0x3d99ed4a	0.075159624
127	0xbd3d0610	-0.04614836
128	0x3d85ab24	0.06526783
129	0x3d8555c3	0.065104984
130	0x3c5a3c35	0.013320019
131	0x3c11a467	0.008889294
132	0x3ce5fd5b	0.02807491
133	0xbc58ceae	-0.01323287
134	0xbbdf7fb5	-0.006820644
135	0x3b3e9f25	0.0029086557
136	0x3d0dfe06	0.034666084
137	0xbd71959b	-0.058980566
138	0xbe08a073	-0.13342457
139	0x3cec23e7	0.028825713
140	0x3d9524d7	0.07282417
141	0x3daec1ee	0.08533083
142	0x3d7810ae	0.060562782
143	0x3c98fc6d	0.018675053
144	0xbdab7df2	-0.083736315
145	0x3d64f51e	0.055897824
146	0xbb8aa7ad	-0.0042314143
147	0xbccbf6d1	-0.024897965
148	0x3bd459f6	0.0064804507
149	0xbcd868f8	-0.02641724
150	0xbe116549	-0.14198793
151	0xbd6458c9	-0.055748735
152	0xbdd08117	-0.10180872
153	0x3da442bd	0.08020542
154	0xbc6eea9a	-0.014582301
155	0xba4d6369	-0.00078349427
156	0x3cdbc8a8	0.026829079
157	0x3dcbf974	0.09959689
158	0xbd5259e5	-0.05135526
159	0x3c82b37f	0.015954731
160	0x3d2fd78a	0.042930163
161	0xbb412aff	-0.002947509
162	0x3df3b61f	0.11899971
163	0x3c4c611c	0.012474325
164	0xbd284032	-0.041076846
165	0xbd7cf908	-0.061760932
166	0xbd089707	-0.033347156
167	0x3cb3ef49	0.021964686
168	0xbd62b0b4	-0.0553443
169	0x3daae265	0.083439626
170	0xbd63c5fc	-0.055608734
171	0xba8921dc	-0.0010462361
172	0x3c948d29	0.018133717
173	0xbd1f0b27	-0.038828995
174	0x3cef17cc	0.029186152
175	0xbd9d60c5	-0.07684473
176	0x3cd1b05c	0.02559679
177	0xbd801a5f	-0.0625503
178	0x3d9ed6d1	0.07755817
179	0x3d8c88e5	0.06862048
180	0x3d690b88	0.056895763
181	0x3cc685a8	0.024233654
182	0xba7c0f0d	-0.000961528
183	0x3d5743f7	0.05255505
184	0x3d82b11d	0.06381438
185	0x3c8c9ac4	0.017163642
186	0x3d97f83a	0.07420392
187	0xbc0bdb7b	-0.008536215
188	0x3cbb25ad	0.022845114
189	0x3dc0709d	0.09396479
190	0x3d2eb09b	0.042648893
191	0xbd6cc5c1	-0.05780578
192	0xbb79a706	-0.0038093938
193	0xbdd08be5	-0.10182933
194	0xbb363843	-0.002780453
195	0xbc4d83ec	-0.01254366
196	0xbdbe3023	-0.09286525
197	0x3d940441	0.07227374
198	0xbb93e90a	-0.0045138644
199	0xbc55d5bc	-0.0130514465
200	0xbd6eedb4	-0.05833216
201	0x3da86b00	0.08223534
202	0xbddee163	-0.10882833
203	0x3d140021	0.036132935
204	0xbd104f39	-0.035231803
205	0xbcd0e5ce	-0.025500204
206	0x3c176937	0.009241394
207	0x3c988260	0.018616855
208	0xbbd09635	-0.0063655623
209	0x3d8693df	0.06571173
210	0x3cad34a3	0.021143263
211	0x3c359a7e	0.011084197
212	0xbd4a22a8	-0.049349457
213	0xbd126bac	-0.035747215
214	0x3d0660de	0.032807223
215	0x3d0b49d1	0.034005944
216	0xbc36f018	-0.011165641
217	0xba8cb78f	-0.0010735857
218	0x3d41d93e	0.04732632
219	0x3cb9f1ad	0.022698248
220	0xbbff37c7	-0.0077886316
221	0xbd04cc8e	-0.03242164
222	0xbca1e1c9	-0.019760983
223	0x3d8eb805	0.06968693
224	0x3d15f608	0.036611587
225	0xbca63e94	-0.020293511
226	0xbab11a9b	-0.0013511957
227	0x3df10814	0.11769119
228	0x3c853044	0.016258366
229	0xbce130d4	-0.027489103
230	0xbd94bec7	-0.072629504
231	0xbd0ee05a	-0.034881927
232	0xbd41b11b	-0.04728804
233	0x3c8af7f0	0.016963929
234	0x3dc56bfa	0.096397355
235	0x3d33eb6b	0.043925684
236	0xbd62e9c0	-0.055398703
237	0xbdfb37bb	-0.12266489
238	0xbd377642	-0.044790514
239	0x3dcd57c6	0.10026507
240	0xbc883cda	-0.016630579
241	0x3d042fda	0.032272197
242	0xbcc5b754	-0.02413527
243	0x3d826177	0.06366246
244	0x3d56427b	0.052309494
245	0x3e2ace87	0.16680346
246	0xbda78d05	-0.08181194
247	0x3cd33587	0.02578236
248	0x3d3ceeaa	0.046126045
249	0xbd0f3fdc	-0.03497301
250	0x3db8bf3a	0.090208486
251	0x3d4536bf	0.048147913
252	0x3c6134c0	0.013745487
253	0x3d38adab	0.045087498
254	0xbd0b6125	-0.03402819
255	0xbd3cd0b5	-0.046097476

bias f4 [10]
0	0xbe86f6f1	-0.26360276
1	0xbe1cb78f	-0.15304397
2	0x3deac009	0.11462409
3	0x3de6b254	0.11264482
4	0x3eab6b06	0.3348009
5	0xbe7e7824	-0.24850518
6	0x3eff21f1	0.49830583
7	0xbe1253c2	-0.14289764
8	0x3d994693	0.07484164
9	0xbd162c71	-0.036663476
