model.pth (torch, 252615 bytes, 10 tensors)

weight f4 [6, 3, 5, 5]
000000 72 11 b2 bd e5 51 1a 3c 47 97 4a bc 20 2a 72 3d
       -0.08694734 0.009418939 -0.012365169 0.059122205
000010 05 a8 c4 bc 26 34 fb 3d 28 44 c7 bc d9 8a 8a 3d
       -0.0240059 0.12265806 -0.024324492 0.06764764
000020 85 b7 e5 3d e8 43 e2 3d e3 10 b0 3d 71 c8 c4 3d
       0.11216644 0.11048108 0.08596971 0.09608544
000030 ad fc 2c 3c 85 be 38 3c 4e 7f dc 3d c8 79 d4 3d
       0.0105582895 0.011275892 0.10766469 0.103747904
000040 97 0c 84 bd 30 e9 aa 3d d8 68 8a bd 8c 15 81 3d
       -0.06447714 0.08345258 -0.067582786 0.06302938
000050 59 e1 97 bd d7 2f f4 3d 9a 1b df 3d c0 d1 1d 3d
       -0.074160285 0.11923187 0.108939365 0.03853011
000060 25 64 09 bd 14 37 1a 3e 80 f3 f1 3d b6 0c ee 3c
       -0.03354277 0.15060073 0.11814022 0.029058795
000070 09 62 59 3d bc fc 23 bc a1 3f 0b 3e 24 c5 b4 b8
       0.05307201 -0.010008987 0.13598491 -8.619789e-05
000080 cb ba e6 3d 8c 92 05 3e 21 3b 33 bd a9 1f 6d 3d
       0.11266097 0.13044184 -0.04375756 0.05789152
000090 cb 35 9d 3d 96 32 0a 3e 86 d7 52 3d a0 24 47 3d
       0.07676276 0.1349586 0.05147507 0.048618913
0000a0 d7 7e 27 3e 71 fc 20 bc ea b5 1a 3e 54 6b 41 bb
       0.1635698 -0.009825812 0.15108457 -0.0029513435
0000b0 4b 09 14 3d 1e 72 12 3e 38 44 1d 3e 9e c3 58 bd
       0.036141675 0.14301345 0.15358055 -0.05292093
0000c0 91 01 ed 3c bc 5f 8b bb 2b 72 a5 3d a8 ae 0b 3e
       0.028931411 -0.004253356 0.080784164 0.13640845
0000d0 51 d6 1d 3e 17 df 63 bc db de 0b 3e db 2d b4 3d
       0.15413786 -0.013908169 0.13659231 0.08797809
0000e0 4a a2 9f 3c 4e 66 fa bb ae 03 32 bd 50 b9 fa 3a
       0.019486565 -0.00764159 -0.04346054 0.0019128714
0000f0 7b 82 31 bd bb d0 7a 3d 0b 2e 5d 3d 16 12 7a 3d
       -0.043337326 0.061234217 0.053998988 0.061052404
000100 ae ae 98 bd aa 19 17 bd 5a c4 0b 3e d3 09 d4 3d
       -0.074551925 -0.03688971 0.13649121 0.10353436
000110 ba 55 f4 3d 04 9c c7 bd 18 31 b0 3d 4d 9f 96 3d
       0.119304135 -0.097465545 0.08603114 0.07354603
000120 8f 4b ba 3d ae 29 48 bc 60 b3 d3 3d 66 8e 7a 3d
       0.09096443 -0.012216968 0.103369474 0.061170958
000130 46 e0 c4 bd bb 96 bb 3d f2 34 b3 3d c1 63 c2 3b
       -0.09613089 0.09159609 0.08750333 0.0059323017
000140 99 c7 0e be d9 ff 2b 3d 7d 74 8c bc 52 5a d4 3d
       -0.13943328 0.041992042 -0.01714539 0.1036879
000150 4b 9e 11 3e 56 5a ea bd 3b 9f c0 3c 38 a4 39 3d
       0.1422054 -0.114430115 0.023513427 0.045322627
000160 99 ef 04 3e 2e d8 91 3d a6 3f 00 be 9c 41 a4 3c
       0.12982024 0.07121311 -0.1252428 0.020050816
000170 7f 16 ff 3d 59 48 02 bd 10 11 26 3c 0d 44 0a be
       0.12455463 -0.031807277 0.010135904 -0.13502522
000180 3f 3d 8f bd 47 e8 98 bd 70 64 1a 3e 48 ba 4f 3b
       -0.06994104 -0.074661784 0.15077376 0.0031696726
000190 97 aa 79 bd aa f7 c9 bd 84 92 cb 3d 53 f6 bc 3d
       -0.060953703 -0.09861691 0.09940055 0.0922667
0001a0 33 11 c3 3d 9f f0 fd bd 1f 69 33 bd e6 95 7c 3d
       0.09524765 -0.123994105 -0.043801423 0.06166639
0001b0 a2 bb df bb fa 8f 09 3e 14 d8 9b bd 18 d6 fa bd
       -0.0068277875 0.13433829 -0.07609573 -0.122478664
0001c0 c4 9f a9 3c 66 7f 2d bd 40 43 57 bd 9c 78 b7 bd
       0.020706065 -0.042357825 -0.05255437 -0.08958551
0001d0 55 83 d5 bd ac 10 e1 bc d9 c9 11 3e 2f 37 3f bd
       -0.1042544 -0.02747377 0.14237155 -0.046683487
0001e0 6e 19 76 bd 05 e7 27 3d f4 d0 94 bd cb 41 94 bd
       -0.060082845 0.0409918 -0.07266417 -0.072391115
0001f0 cb 6f 77 3d 6b b8 81 3d bc a3 8d bd 87 26 a6 3d
       0.06040935 0.06334003 -0.069159955 0.08112817
000200 53 63 5a 3d 59 27 05 3e fc b7 17 be 29 fb a8 3d
       0.05331738 0.13003291 -0.14816278 0.0825103
000210 52 db 2d bc 15 ae 83 bd f0 94 bd ba 81 f7 d9 3c
       -0.010611372 -0.06429688 -0.0014463942 0.026607277
000220 c6 41 08 bd a3 f7 71 bd e0 4b 89 bd a9 e4 ad bb
       -0.03326585 -0.059074055 -0.06703925 -0.0053067994
000230 40 c7 0a be f0 6b 88 3d ba 2b 1b 3e bb ba 73 bd
       -0.1355257 0.066612124 0.15153399 -0.059504252
000240 11 eb 81 bc 54 c9 f7 bd f0 4f 14 3d 5f 32 ea 3c
       -0.015859159 -0.12098947 0.036209047 0.028588472
000250 83 f2 7a bd c1 3d 4d 3c 1c 2e 13 3d 9e d1 c3 3b
       -0.061266433 0.01252693 0.035932645 0.005975916
000260 be 60 c9 3d bf f2 06 bd 20 e0 61 bd 21 4d ef bd
       0.09832905 -0.032946344 -0.055145383 -0.11684633
000270 24 35 31 bd a7 c8 29 bd f7 38 a4 3d 0a f8 22 3d
       -0.04326357 -0.041451123 0.08018678 0.03978733
000280 4a 57 83 3d 7b 38 ad 3d 42 13 bf bc d6 46 af bd
       0.064131334 0.084580384 -0.023324613 -0.08558433
000290 0e 36 a8 3d 5b 36 01 3d 4b 1f fe bc 1f 4f 94 3d
       0.08213435 0.031545978 -0.031020781 0.07241654
0002a0 ea 5d 15 3d 03 14 ad 3c 68 68 0c bb 7e 4b 77 3b
       0.036466517 0.021127706 -0.0021424536 0.0037734206
0002b0 c0 8e 7a 3c f4 a0 a5 3d ce 8b 89 3d e0 9c b9 3d
       0.015292823 0.0808734 0.06716119 0.09063125
0002c0 2f d6 b7 3c 21 ee 6d bd ee 40 90 bc 25 2c e7 3d
       0.022440998 -0.058088426 -0.017609086 0.11287717
0002d0 46 ca cd 3c d0 9c cd bd 35 e9 cd 3d 6d fe 9d bd
       0.025120866 -0.10039675 0.10054246 -0.077145435
0002e0 0c a4 ef 3d ed 76 a6 bd 53 06 42 3b be 88 8f bb
       0.11701211 -0.08128152 0.002960582 -0.0043803146
0002f0 2a 74 54 3d 49 05 94 bd ac 2f c8 bd 7f 2a 3a bd
       0.051868595 -0.072275706 -0.09774718 -0.045450684
000300 18 e2 69 3d 47 3c 14 bd 65 cd b3 3d 4f 6b a4 bd
       0.057100385 -0.036190297 0.0877941 -0.0802828
000310 35 f9 c5 3d 6d 91 33 bd 17 6c 09 3c e7 6f 62 bc
       0.09666673 -0.04383986 0.008387587 -0.013820625
000320 7c f5 ac 3d 32 e1 b3 bd e6 18 10 3c 00 b3 4f 3d
       0.0844526 -0.08783187 0.008794999 0.050707817
000330 13 69 bc 3d 10 72 9a bc cf ae 6d 3c c9 cc d1 3d
       0.09199729 -0.018853217 0.01450701 0.10244138
000340 a2 72 e0 3d 60 28 32 bd 10 bb 82 bd f1 8b 62 3d
       0.109593645 -0.043495536 -0.063833356 0.05530924
000350 fe c1 8c 3d 4f 36 df 3c 0b 85 a4 3c 94 a2 fe bd
       0.068729386 0.027247576 0.020082971 -0.12433353
000360 5d e8 3c bd 09 a6 c0 bd 57 d3 83 3c b1 21 3a bd
       -0.046120036 -0.09406669 0.016091986 -0.045442287
000370 cd 84 a1 bc 51 20 46 bc 00 2c 4e bd 8b d2 90 bd
       -0.019716645 -0.012092666 -0.05033493 -0.07071408
000380 a5 d2 83 bc 93 8f bb 3d 93 f7 67 3d 33 64 3f 3e
       -0.016091654 0.09158244 0.05663259 0.18690567
000390 5b 56 33 3e c6 c6 a4 3d 76 1b d2 3c 49 0c 3e 3e
       0.17513411 0.080457255 0.02564786 0.18559374
0003a0 23 12 2e 3d 92 1d ce 3c 40 f1 c0 bc fc 7e 59 bd
       0.042497765 0.025160585 -0.023552537 -0.053099617
0003b0 ab 28 18 bd 15 fb 08 3e 71 2a 1e 3d fe 32 18 3e
       -0.03714816 0.1337703 0.038614694 0.14863202
0003c0 76 e0 51 3d dd c1 be 3c d6 3b cb bd 59 6b 0c be
       0.051239453 0.0232858 -0.09923522 -0.13712825
0003d0 52 c8 0c be 54 75 27 bc bc 9f 82 bd c2 c8 cb bd
       -0.13748291 -0.010220844 -0.06378123 -0.09950401
0003e0 fe 12 79 bd c4 b1 3c 3c 09 28 19 3d d7 c1 9d 3d
       -0.060809128 0.011516992 0.037391696 0.07702988
0003f0 38 71 0b 3e fb 05 76 bd 36 4b 61 3d cb 0c b2 bb
       0.13617408 -0.060064297 0.055003367 -0.005433654

bias f4 [6]
000000 59 e0 74 3d 1d 76 bc 3d 0f cd ab bc 8d d7 b6 3d
       0.059784267 0.09202216 -0.020971803 0.08927832
000010 5c bc 19 bd 62 39 1c 3c
       -0.03753315 0.0095351655

weight f4 [16, 6, 5, 5]
000000 b7 55 86 3d 3d 75 9f 3c ad 45 a1 bb ee e6 06 bd
       0.065593176 0.019465083 -0.004921636 -0.032935075
000010 48 f0 9b 3d d6 af 8a bd 04 a1 76 bd eb 93 92 3d
       0.076141894 -0.06771819 -0.06021215 0.07157119
000020 dd 76 b4 3d 65 c8 d7 bc 95 d0 64 bc 38 f6 9d bd
       0.08811734 -0.026340673 -0.013965745 -0.07712978
000030 2d c7 ae 3d 2d db 8c 3d b9 02 94 3d d7 39 b6 bd
       0.085340835 0.06877742 0.07227082 -0.08897751
000040 a8 b5 7e bc 7e 5e 99 bd e8 b9 9f 3d c6 e4 b0 3d
       -0.01554624 -0.07488726 0.07799131 0.08637385
000050 25 b3 3f 3d 10 61 78 bd 16 59 e5 3c ce d6 43 bd
       0.046801705 -0.06063944 0.027996581 -0.047812276
000060 54 46 8f 3c 42 3a b0 3d bd 1e 51 3d 3a e9 d3 bc
       0.01748959 0.08604862 0.051054705 -0.025868047
000070 0e 5d 9a 3c 41 12 d1 3d 38 71 e9 3d 37 22 b1 3d
       0.0188432 0.1020856 0.11398548 0.08649104
000080 cf e5 a8 3d 53 b8 8b 3d 8f 76 b5 3d d8 57 c6 bc
       0.082469575 0.068222664 0.08860504 -0.024211809
000090 67 9f ac ba 96 12 59 3d 01 c7 24 3d 98 8a a7 3d
       -0.0013170064 0.05299624 0.040228847 0.081807315
0000a0 c8 9f 3a 3c 47 17 fc 3d be bf f7 3d 81 15 24 3c
       0.011390634 0.12309127 0.12097119 0.010014893
0000b0 00 24 7c 3c a7 2c 15 3d 7d 6e 4e 3d 26 00 06 3d
       0.015389442 0.036419537 0.05039834 0.032714985
0000c0 40 49 28 3d fe 3e 26 bc 52 68 ab bd d2 c0 a6 3d
       0.04108548 -0.010146854 -0.08369507 0.08142246
0000d0 6b 74 65 3b 93 a1 25 3d ef a4 84 bd 6b a3 55 3d
       0.0035012017 0.040437292 -0.06476771 0.0521578
0000e0 af e1 14 bc e5 17 a4 3d a6 3c 9f 3b 38 a3 19 3d
       -0.00908701 0.0801237 0.004859525 0.037509173
0000f0 d4 2c d3 3b 43 77 4b 3c eb 5f cf 3b 57 19 fd 3c
       0.006444553 0.012418571 0.006328573 0.030895872
000100 41 0d 03 3d ba 2e 52 3d 2f f8 4c 3d a9 f4 34 3d
       0.03199506 0.051314093 0.050041374 0.04417864
000110 55 86 47 bd 68 0b 2c bc 8a 98 00 3d a3 cb 40 bd
       -0.048712093 -0.010500766 0.031395473 -0.047069203
000120 45 fa 4f 3d 88 41 b8 3d e8 18 c8 3c 97 37 c5 3c
       0.050775785 0.08996874 0.024425939 0.024074359
000130 a6 0f 2f 3d 11 44 21 bd 5e 9f 7c 3b 03 67 aa 3c
       0.042739533 -0.039371554 0.0038547139 0.020801073
000140 e2 2e 36 3d c6 48 8b bd 1a a0 94 bd 03 2a 05 be
       0.044478305 -0.0680099 -0.072570994 -0.13004307
000150 a3 54 23 bd ef f9 09 be 17 8b 3e bb 17 f1 1c be
       -0.039875638 -0.13474248 -0.0029074603 -0.15326343
000160 a5 6d b1 bd 6f a1 26 bd 9f 6e 97 bd 9c c9 88 bd
       -0.08663491 -0.0406813 -0.07394146 -0.06679079
000170 96 31 0f be a5 53 07 be 6e f7 85 bd 00 36 01 be
       -0.1398376 -0.13215502 -0.06541334 -0.12618256
000180 89 32 88 bd 03 bd 0d be 09 54 39 bd e4 4b eb bd
       -0.06650264 -0.13841633 -0.045246158 -0.11489084
000190 d6 de 91 bd 09 ca be bd 28 7a e8 3c 16 68 52 3d
       -0.07122581 -0.09315879 0.028378561 0.051368795
0001a0 4d b4 a2 bd 2b e2 1a bd 0f e0 a1 bc a8 fc 40 3d
       -0.07944546 -0.037813347 -0.01976016 0.04711595
0001b0 fb 08 33 3d 85 7f c5 3b c3 0c b4 bc 59 eb 96 bd
       0.043709736 0.0060271644 -0.021978742 -0.07369108
0001c0 53 2b a6 3c 2c 51 85 3d 44 ae 9f bc 98 69 50 3c
       0.02028433 0.06509623 -0.019492276 0.012720488
0001d0 01 c1 90 bd 57 61 67 bd 85 86 a8 bd ef 5c 9e bd
       -0.070680626 -0.056489315 -0.082287826 -0.077325694
0001e0 eb 44 0d bd 43 71 29 bd 6b c2 3f bd 27 52 3c bd
       -0.034489553 -0.04136778 -0.04681627 -0.045976784
0001f0 f6 52 99 bc 1c f5 49 3d 09 6d 16 bd 4b 5d f3 3c
       -0.018716317 0.04930602 -0.036725078 0.029707571
000200 5c 0c 21 3d 6d 3d 47 3d d4 f9 ce 3d 6c 16 97 3b
       0.039318427 0.048642565 0.10106245 0.004610827
000210 8d 8f b0 3c 11 b3 03 3d da a7 1a 3c 99 42 b6 bc
       0.021552825 0.032153193 0.009439433 -0.022248553
000220 6f 3d fb bc 95 c4 96 bc 29 9b 8b 3d 4f cb f7 bc
       -0.030668942 -0.018404284 0.06816704 -0.030248312
000230 a0 70 95 3d 85 0b ad 3c 8c 7d f8 3d 99 c8 45 bb
       0.07296872 0.021123657 0.12133321 -0.003017938
000240 73 c2 c3 3d ef 30 bc 3d 79 4c 08 3e 87 43 47 3d
       0.095585726 0.09189021 0.13310422 0.048648383
000250 e3 3a ee 3d e0 1f 01 3d 06 c0 8e bd 80 9d 9e 3d
       0.116323255 0.03152454 -0.06970219 0.077448845
000260 3d 80 f9 bb 1f fd 09 3c 97 01 84 bd b6 45 ac 39
       -0.007614164 0.008422165 -0.06445616 0.00032858335
000270 4b 0f 63 bc 88 1a 14 bd 1f 90 46 3d 84 c2 62 3d
       -0.013858627 -0.036158115 0.04847729 0.055361286
000280 09 60 5f bd 51 2a 8c 3d e8 11 79 3c f4 e3 12 3d
       -0.054534946 0.06844009 0.015202023 0.035861924
000290 dd 47 cc 3c d6 3e 7f 3c 2a 2c 98 3d 29 2b 8d bd
       0.02493661 0.015578946 0.074302986 -0.06892998
0002a0 56 de 08 3d c7 ac 98 bc b4 e9 65 ba df aa 10 3d
       0.03341516 -0.018637074 -0.0008770481 0.035319205
0002b0 27 f5 72 bd 85 7c 8f bd ec 67 a3 bd f9 05 a6 bd
       -0.059315827 -0.07006172 -0.07978806 -0.08106608
0002c0 b8 7b 28 bd fd 41 e2 bd 99 1a 86 3c 4f 4c d0 bd
       -0.041133612 -0.110477425 0.016370105 -0.10170805
0002d0 70 e1 5d 3c e4 27 a2 3d a2 ca 2f 3c c9 aa 48 bd
       0.013542518 0.07917765 0.010729464 -0.048991
0002e0 d3 26 90 bc 83 2c e9 3c 3f 0f 9d bd 55 90 b2 bb
       -0.017596638 0.028463608 -0.076689236 -0.0054493346
0002f0 01 9e 82 3c 99 8d 6c bd c3 ac a0 bd d1 c4 62 bc
       0.015944483 -0.057752226 -0.07845452 -0.01384087
000300 cf 15 49 bd 7e 58 c0 ba 85 1f 6f 3d cb a2 17 3c
       -0.049093064 -0.001467481 0.05837967 0.009255121
000310 0e 01 5a bd 60 a0 bc bd f2 31 9e 3d fd fc cd 3c
       -0.053223662 -0.092102766 0.0772437 0.025145048
000320 33 8e 8f 3d bd f3 5e 3d 5e 72 05 3d 0e 62 51 bd
       0.07009544 0.054431666 0.032579772 -0.051118903
000330 38 8b 56 bd c5 d5 78 bd 33 ca 19 bd 62 51 29 bd
       -0.052378863 -0.06075074 -0.037546348 -0.04133738
000340 fa 78 03 bd 85 fe 4d 3d c6 08 2e bd 81 e4 f5 3b
       -0.032097794 0.050291557 -0.042488836 0.0075040464
000350 18 03 37 3b 5c 04 63 3b 75 fa 73 bd 34 ff 4f 3d
       0.0027925428 0.003464005 -0.059565026 0.05078049
000360 25 0c 99 bc 14 bf 5b bd 04 36 49 bc 42 f1 4e bd
       -0.018682549 -0.053649023 -0.012280945 -0.05052305
000370 12 08 5e bd 48 37 9a bd 69 54 4b 3c ec 4b 3e 3d
       -0.054206915 -0.07530075 0.012410262 0.046459123
000380 02 5e 27 3d 3e 3b 9e 3d 69 0e 39 bc 4f bd 68 3d
       0.040861137 0.07726143 -0.01129494 0.056821164
000390 af 63 c5 3c 8b 15 04 bc 50 81 46 3d 1f 5c f8 bc
       0.024095384 -0.008061777 0.048463166 -0.030317364
0003a0 28 cc b6 3d 1c 24 61 bd 2a ea 9a 3d 73 1a 90 3d
       0.089256585 -0.054966077 0.075641945 0.07036295
0003b0 35 03 c5 3d eb 26 84 3d 55 9f 1b bd 91 4d 2c bc
       0.09619752 0.064527355 -0.037993748 -0.01051654
0003c0 f3 96 7d 3c e3 b9 ad bb f7 af 93 3c fd 95 d9 3d
       0.015477884 -0.0053017004 0.018028243 0.10624311
0003d0 db 88 73 3d 8e d8 2e bc 64 1f 40 bd e6 06 13 3d
       0.059456687 -0.010671748 -0.046904936 0.03589525
0003e0 00 88 39 3c 18 52 ba 3d e0 48 a4 bd 9e 55 b4 3c
       0.011323929 0.090976894 -0.08021712 0.022013482
0003f0 de ec b0 bd 93 44 65 bd be d6 82 bd 0c 63 4f 3b
       -0.08638929 -0.0559736 -0.06388615 0.003164473

bias f4 [16]
000000 07 65 e8 39 40 14 d5 3d cf c3 bd 3d 6e 66 ce bd
       0.0004432576 0.10404253 0.09265863 -0.10078131
000010 94 ee b4 bd 3e 2e fd bb e4 33 9e bb 34 b9 f3 3b
       -0.08834568 -0.0077264598 -0.004827963 0.0074378494
000020 40 97 ea bc 86 26 7c bd da b5 92 bd f7 a4 82 3a
       -0.028636575 -0.061560176 -0.07163592 0.0009967376
000030 16 9a a7 bc 18 52 2f 3d ae 03 34 bd b2 65 c6 3c
       -0.020459216 0.0428029 -0.04394882 0.024218414

weight f4 [120, 400]
000000 56 ff cf 3c bc ce 7c bb 07 d9 09 3d dd 44 7f 3d
       0.025390308 -0.0038575372 0.03365424 0.062321533
000010 9f fb 66 3d 7f e2 ef 3b 02 b2 9a 3c 60 ae 3f bd
       0.05639231 0.0073207016 0.018883709 -0.046797156
000020 0d dc 2c bd bc 01 51 3d 1c ec 13 bd c4 50 23 3c
       -0.042202044 0.051027045 -0.036113843 0.0099679865
000030 65 39 11 bd bc 61 f8 bc d9 be bc bc f0 d8 89 bd
       -0.035455126 -0.03032004 -0.023040222 -0.06730831
000040 6d 66 82 bd 01 f1 a1 bd 51 5a 27 3c d0 05 bf bc
       -0.063671924 -0.07907296 0.010214404 -0.023318201
000050 89 25 9e bd 88 7f 6c bd 6e 11 c7 bb 54 3d 4d bd
       -0.07722003 -0.05773881 -0.006075076 -0.050107315
000060 6a f7 5d bd e2 13 ab 3d 67 29 b0 3d 12 d2 c8 3d
       -0.05419103 0.08353402 0.08601647 0.09805693
000070 74 ba ce 3d 9f a8 c3 3d b0 e7 73 3d 28 98 80 3d
       0.10094157 0.09553646 0.059547126 0.062790215
000080 f2 32 6e 3d fd 3b 50 3c 5f 6a 62 3d 73 00 2b 3d
       0.058154054 0.012709615 0.055277225 0.041748475
000090 7e f4 e7 3b 1e 04 06 bc bf ff 9c 3c 7f ee f5 bc
       0.0070787063 -0.008179693 0.019164918 -0.03002095
0000a0 49 33 f5 3c b6 36 6e bd 64 41 b2 bc 10 29 cb 3b
       0.029931681 -0.058157645 -0.021759696 0.0061999634
0000b0 1c 5c 95 3c 6e b1 2b bd f2 51 c2 bc 4e 71 52 bc
       0.018232398 -0.041917257 -0.023720715 -0.012844397
0000c0 52 e5 dd 3c ac c6 3e bd 45 93 3f bd 3f 40 a6 3b
       0.027086888 -0.046576187 -0.046771307 0.0050735767
0000d0 fa 93 1f bd 15 19 14 bd 85 65 ee bc 88 6e 44 bd
       -0.03895948 -0.036156733 -0.029101143 -0.047956973
0000e0 1d 90 46 bd 78 6f 45 bc e5 c3 91 bd 41 7e 19 bd
       -0.04847728 -0.012050502 -0.07117442 -0.03747392
0000f0 ed ef dd bc 74 7a f3 38 9b 1b 13 3d c7 81 16 bd
       -0.027091945 0.000116099516 0.035915 -0.03674486
000100 b0 de 9a 37 52 e6 93 bc c0 36 c9 ba a4 38 b8 3c
       1.8461928e-05 -0.018054161 -0.00153514 0.022487946
000110 79 19 9e 3c cb ac 3e bd 4f e4 05 bd 80 da 92 3c
       0.019299256 -0.046551507 -0.032688435 0.017926455
000120 63 b3 2f bc 02 b4 13 3c af e5 c6 3c db 2b 1d bd
       -0.0107239215 0.009015085 0.024279444 -0.038371902
000130 7a d7 93 bd ab e0 79 bd 43 32 e0 bc bf d9 46 3c
       -0.07218833 -0.061005276 -0.027367717 0.012136876
000140 47 07 5f bd 0f cc 39 bd e7 51 e3 bb 09 97 c0 3c
       -0.0544503 -0.04536062 -0.0069372538 0.02350952
000150 a7 e8 9c bc 37 38 03 bd d8 01 be 3c f0 b4 80 3d
       -0.019153906 -0.032036033 0.023194239 0.06284511
000160 9c 05 1e 3c 14 52 aa 38 e7 97 7f 3c 77 ba 9f 3c
       0.009644892 8.12152e-05 0.015600181 0.019498093
000170 ba fd 6f 3d da c0 ce 3c 43 11 48 3d cd 73 fa 3c
       0.058591582 0.025238443 0.048844587 0.030572796
000180 a7 83 61 3d b4 4e 54 3b 27 37 77 bc 00 8f 78 bc
       0.055057194 0.0032395544 -0.015088833 -0.015170813
000190 7b 51 0e bc 41 46 43 3d 9f 00 44 3d a9 57 45 3d
       -0.008686419 0.04767442 0.047852155 0.048179302
0001a0 0d 4c 67 bd 5c 6b f7 3c 5c e2 cf 3c 6d dc a7 3c
       -0.056469012 0.03020256 0.025376491 0.02049085
0001b0 2d a3 93 3c 7e 3b 37 bd da 0c 90 bb a4 fe 9e 3d
       0.018022144 -0.04473447 -0.0043960633 0.077634126
0001c0 30 99 87 3d 22 7d e5 3c c7 a1 ad 3b a7 90 d4 3d
       0.06621015 0.02801377 0.0052988264 0.10379153
0001d0 ed 86 87 3d 95 6b a6 3d 32 78 19 3d 2f 3c c6 3d
       0.06617532 0.081259884 0.037468143 0.09679448
0001e0 40 62 a8 3d d1 c2 41 3d 1f 6a ea 3d 1f d3 ef 3d
       0.08221865 0.047304932 0.11446022 0.1171019
0001f0 37 a8 13 3d f2 7a c1 bc 46 d9 c4 bc 89 0e b3 bb
       0.036049094 -0.023618195 -0.024029385 -0.005464379
000200 82 03 39 3b 93 ed 62 3c f8 88 cb ba 61 46 d8 bc
       0.002823085 0.013850587 -0.0015528491 -0.026400747
000210 a3 3c 27 bd 8f 21 fb 3c 38 92 89 3d 77 bb b1 3c
       -0.040829312 0.03065565 0.06717342 0.021695836
000220 e0 9d ed ba 58 42 20 bc 1d 12 8a bd 30 3a 3e bd
       -0.0018128715 -0.009781443 -0.06741736 -0.04644221
000230 de d1 f5 bb aa d1 59 bd 95 a6 1a 3d 9e b1 73 bb
       -0.0075018248 -0.053178467 0.03775652 -0.0037184726
000240 c0 57 0f bd 2a 34 e8 bc a4 0d 90 bc c7 e0 56 3c
       -0.034995794 -0.028345186 -0.01758463 0.0131151145
000250 8c e6 e0 3c 3c e4 5f bd f5 59 eb 3c 90 dc c5 bc
       0.027453683 -0.05466102 0.028729418 -0.024153024
000260 2c e6 cf 3c 14 b7 08 bd 9e bd 6a 3d 52 a5 e3 3c
       0.02537831 -0.033377722 0.05730974 0.027788792
000270 8e a6 e6 3c c6 51 5b bd 87 e2 84 bc a1 dd eb 3c
       0.028155591 -0.053544782 -0.016221298 0.028792204
000280 43 59 9b 3c d8 0d c6 3c 83 25 79 bd d3 4c d6 bc
       0.018963462 0.024176523 -0.06082679 -0.02615968
000290 08 22 ff 3c 7d f9 a8 3c c0 1d ab bd 34 2c 0d 3d
       0.031144157 0.020626778 -0.08355284 0.034465984
0002a0 3d d6 37 3c 71 b6 bf ba 18 37 3a bd 5f 6d 15 3d
       0.011220512 -0.0014626515 -0.045462698 0.036481258
0002b0 56 1c 42 3d 8e 40 9c bd 6c 51 1b bc f5 84 ab bb
       0.047390305 -0.076295 -0.009479862 -0.0052343556
0002c0 11 81 ba bd 0d 0f 3a bd fa cd a7 bc ab 54 ff 3b
       -0.09106649 -0.04542451 -0.02048396 0.0077920756
0002d0 e4 a5 ab 38 d8 ad c2 ba 34 5e 27 bd 90 2f 46 bd
       8.184815e-05 -0.0014852835 -0.040861323 -0.048385203
0002e0 1d 36 1f 3c 8d 7d 47 3c 21 7d 68 bb d4 7a 40 bc
       0.009717491 0.01217593 -0.0035474973 -0.0117480345
0002f0 16 22 62 bd 43 b9 ab ba c2 42 b3 bc a8 ca 65 3b
       -0.055208288 -0.0013101477 -0.021882419 0.003506342
000300 43 ca fb bb d9 b0 05 3d 75 80 dc 3b d3 c3 28 3d
       -0.0076840236 0.03263936 0.0067291805 0.041202378
000310 4e 9d 93 3c d6 ab b1 bc 17 83 4a bd 4c 07 81 ba
       0.018019345 -0.021688383 -0.049441423 -0.0009844094
000320 d5 b7 95 bb 75 bf 99 3c 25 61 a0 3c 98 25 44 3c
       -0.0045690336 0.018768052 0.019577572 0.011971854
000330 ae d8 1e 3d bc 29 e3 3c 9e 93 ee 3d b0 38 1b 3e
       0.03878086 0.027729861 0.116492495 0.15158343
000340 ec a9 d4 3d 44 f1 b7 3d 03 f0 2e 3d 0c bc d8 3c
       0.103839725 0.08981565 0.04270936 0.026456855
000350 c1 2b 49 3d c6 ec 16 3d a5 8a ab 3c ab b8 40 bb
       0.049113993 0.0368469 0.020940134 -0.0029406946
000360 fe ae a4 bc 37 f0 fc 3b fe 5a 6c bc 72 93 2f 3d
       -0.020102974 0.0077190655 -0.014425991 0.042865224
000370 5b f8 af 3d 60 72 47 3b 75 4f 40 3d 0b 65 9a 3d
       0.08592292 0.0030433163 0.046950776 0.07538804
000380 e6 51 b3 3d 09 f4 3f 3d 2b 8d 13 3c db d3 33 bd
       0.08755855 0.04686359 0.009005825 -0.043903213
000390 b6 9b 7c 3c 93 f9 d3 b9 d0 3f bb 37 06 ee d3 bb
       0.015417984 -0.00040431003 2.2321852e-05 -0.0064675836
0003a0 bd ec fe 3c 1c c1 82 bd a5 b6 83 3b 51 81 6b bd
       0.031118745 -0.06384489 0.0040195757 -0.057496373
0003b0 dc ed 34 bd 35 6d f1 3b a1 85 85 bc a0 03 4f bd
       -0.044172153 0.007367755 -0.01629907 -0.050540566
0003c0 9a 01 89 3c da 1d 1a bd 9e b8 c5 bc 2e f5 2d 3d
       0.016724396 -0.037626125 -0.024135884 0.04247015
0003d0 7c 98 83 39 0a f9 9e bd 22 5d df 3c f5 4d 59 b9
       0.00025099877 -0.07762344 0.027266089 -0.00020723774
0003e0 bb 6c 92 bb 68 d8 7d 3c 37 16 52 bd eb e1 8b 3c
       -0.004468528 0.01549349 -0.051290717 0.0170755
0003f0 00 3f f6 bc b3 86 17 bd 9c 8a 91 bd d5 50 9e 3c
       -0.030059338 -0.036993694 -0.07106516 0.019325653

bias f4 [120]
000000 44 99 99 bc 97 9d 80 3d 51 02 ce bb ad bb b2 3d
       -0.01874984 0.06280058 -0.006286897 0.087272026
000010 de 18 07 3e 83 62 98 3d 1d 61 69 3c 08 11 1e bc
       0.1319308 0.074406646 0.014244345 -0.009647615
000020 56 60 04 3d b1 8f 3c 3d 82 80 84 bd 24 c3 87 3c
       0.032318436 0.046035472 -0.064698234 0.016572542
000030 0c b0 32 bc c1 26 17 3d 3b 62 44 3d 10 e4 bc bc
       -0.010906231 0.036902193 0.047945242 -0.023057967
000040 05 8c b1 bb 03 5e 0c 3d cc 03 63 3a a0 03 35 bd
       -0.005418303 0.034269344 0.00086599286 -0.04419291
000050 43 c6 34 bd 80 c7 8d bc ef da 21 bb 40 d7 96 3d
       -0.04413439 -0.017307043 -0.0024697145 0.073652744
000060 55 59 5b 3d 31 e9 69 bd fc 95 b9 3d 8e 24 79 bd
       0.05355199 -0.057107154 0.090618104 -0.060825877
000070 a0 f8 3d bd f5 b1 4f bd 8f 05 7c bc 0b 80 1a bd
       -0.046379685 -0.050706822 -0.015382185 -0.037719768
000080 a2 9f 2d bd 3a e8 97 bc 0e ea b4 3c 46 d1 26 3d
       -0.042388566 -0.018543351 0.022084262 0.040726922
000090 d1 1b 43 bd b1 40 ea bc b5 09 0c bd 3f 1c c1 3c
       -0.04763395 -0.0285953 -0.034188945 0.02357304
0000a0 73 f5 39 3d 59 6d 72 3b 69 13 ad bc aa 65 d8 bc
       0.045400094 0.0036991446 -0.02112742 -0.026415665
0000b0 21 9f 4e bc 87 96 8c bd 28 fc 0a 3d 4d 4e 1c bb
       -0.0126111815 -0.06864648 0.03393188 -0.0023850382
0000c0 1a 0d 05 bc b5 22 0e bb 69 f8 12 bd 9c c4 98 bc
       -0.008120799 -0.0021688167 -0.035881434 -0.018648438
0000d0 68 25 e7 3d 8f ad 5c bd d2 2a ae bc 3c d2 79 bd
       0.112864316 -0.053876456 -0.021260653 -0.06099151
0000e0 07 b9 d6 bb d4 49 b8 bc bb 72 c5 3b e5 7e 6d bd
       -0.0065528187 -0.022496141 0.00602564 -0.057982344
0000f0 f9 74 9e 3d 96 a5 49 bc f1 d9 1c bd 0c 71 82 bc
       0.077371545 -0.012307545 -0.038293783 -0.015923046
000100 3d d4 07 3c 11 42 cc bc 5c 19 ee 3c 2f b0 4a bd
       0.008290348 -0.024933847 0.029064827 -0.049484428
000110 01 fc 6c bc 14 15 06 3b 01 b9 91 bc 16 25 9a 3d
       -0.014464379 0.002045934 -0.017788412 0.07526605
000120 a5 b5 33 bd 5a 54 21 3d f9 b1 31 bc bf 00 a4 bc
       -0.0438744 0.039387085 -0.010845655 -0.020019887
000130 5d 02 e9 bc e6 de 84 3b 55 f5 78 bb 53 1f b0 ba
       -0.02844351 0.004054892 -0.0037988026 -0.001343707
000140 04 73 fe 3d e6 2a 80 bd 51 d1 ca 3c 05 f1 5c 3c
       0.12424281 -0.06258182 0.024758013 0.013485198
000150 83 2f c4 3c 74 f8 ee bc 24 33 02 bd b2 aa bc 3c
       0.023948437 -0.029171206 -0.031787053 0.023030613
000160 fd df 4b bb 3c d5 af 3b 85 ea d4 b9 b7 79 60 bd
       -0.003110885 0.0053659957 -0.00040610522 -0.054803576
000170 a2 69 8b bd ae 12 64 bd 41 09 30 bd 09 e0 14 3e
       -0.06807257 -0.055681877 -0.042977575 0.14538588
000180 6a d6 f3 3d aa 99 34 3c b6 e4 da 3c b4 38 0f 3d
       0.119061306 0.0110229645 0.026720386 0.034966186
000190 54 6c 00 3e f9 58 f5 3d 19 29 50 bd 71 7e 96 3d
       0.12541324 0.11979861 -0.050820444 0.073483355
0001a0 48 f2 f5 bc 91 f4 fb 3c 1e 47 c5 bc 1a 8b b5 39
       -0.030022755 0.030756267 -0.024081763 0.0003462665
0001b0 a8 bf f6 bb b9 8a be bc b2 2e 4f bd ff 0d a2 bd
       -0.0075301714 -0.023259507 -0.05058164 -0.07912826
0001c0 8d b5 1d bb 0a 78 04 3e 10 42 3d 3b dc f8 48 3c
       -0.0024064512 0.12936416 0.0028878488 0.012266364
0001d0 b3 c7 0d 3d 0c a7 11 3d 3a f5 0f 3d 6f 4e 95 3b
       0.034614276 0.0355597 0.035145976 0.004556469

weight f4 [84, 120]
000000 d7 84 b8 bd 06 e3 1c bb 8b e2 08 be cc a4 be 3d
       -0.09009712 -0.0023939027 -0.1336767 0.09308776
000010 92 86 7d bd d2 a9 cb 3d c2 65 9a 3d bf a0 4d bd
       -0.061895914 0.099445 0.0753894 -0.050202128
000020 1c 88 1d 3d a8 6b a7 3d 43 2e b3 bc 83 bb 6c bd
       0.038459882 0.08174831 -0.021872645 -0.057796013
000030 9e fe c0 bd 06 f7 51 3d c3 36 e4 3d ed c4 66 bd
       -0.094235644 0.05126097 0.111432575 -0.056340147
000040 e7 af 2a 3c 15 ed 62 bd ef 37 a4 bc ae e3 43 3c
       0.010417915 -0.05540188 -0.020046202 0.011956139
000050 b9 d9 d0 3d dd 37 7e bb 0a 00 94 3d c3 a5 d6 3d
       0.10197777 -0.0038790621 0.0722657 0.10480835
000060 d6 c2 1a 3d 17 8e c8 3d df a3 8a 3c 1d 03 9c bc
       0.037783466 0.097927265 0.016923843 -0.019044453
000070 cd 83 b6 3d f7 29 e8 3d b8 69 ea bc e2 36 1d 3c
       0.08911858 0.11336129 -0.028614864 0.009595605
000080 9f f9 d9 3c e7 c8 97 3d 11 ab dc bd 39 ab 39 bc
       0.026608286 0.07411366 -0.10774816 -0.011332327
000090 dd f6 53 bc 73 b1 5f 3d f0 1f 19 3e 28 6f 29 bd
       -0.012937275 0.05461259 0.1495359 -0.041365772
0000a0 71 79 93 bd 33 af 9f 3d 55 c1 d9 bb 8d d8 07 be
       -0.072008975 0.077970885 -0.0066453614 -0.13266201
0000b0 9e d0 db 3c ee 07 78 3d 3f b1 b3 3d fa 54 e7 3c
       0.026832875 0.060554437 0.087740414 0.028238762
0000c0 83 26 31 3d df 16 15 bc 95 4b c9 3d 91 e0 0c 3d
       0.04324962 -0.009099691 0.09828869 0.03439385
0000d0 28 8e 65 3d c2 28 d8 bd f0 9e 6c bd d4 25 17 3d
       0.056043774 -0.10554649 -0.057768762 0.03690131
0000e0 e0 45 6f bd 3b c5 84 3a 4a a9 17 3d a8 48 ff 3c
       -0.058416247 0.001012958 0.03702668 0.031162575
0000f0 04 85 26 3c 58 cc 4b bc 35 2c 78 bc d9 c1 6c 3c
       0.010163549 -0.012438856 -0.0151472585 0.014450514
000100 ef 36 b6 bd a4 cb ab bd 3a a8 bf 3d c5 1d 30 bd
       -0.088971965 -0.08388451 0.093582585 -0.04299714
000110 a7 72 1e bc 4b 12 87 bc 18 37 97 3d be 8c 17 bd
       -0.00967089 -0.016488215 0.07383555 -0.036999457
000120 c1 a2 08 bd 21 e3 ed 3c 56 1a c9 bd 79 2d 6b 3b
       -0.03335834 0.029038968 -0.09819476 0.0035885258
000130 90 49 0d bc 89 02 5f 3c 6f 7e 86 3d 02 10 ec bd
       -0.008623496 0.013611444 0.06567084 -0.11526491
000140 2c 9d f1 3d 08 9a 76 bd e9 60 10 3e b0 d2 00 3e
       0.11797556 -0.06020549 0.14099468 0.12580371
000150 3c 6a 98 3c 43 17 03 3e 90 1f e1 3d 29 7b 52 3c
       0.018605344 0.12801842 0.10992348 0.0128467465
000160 a2 27 40 bd f8 9e 79 bd 5c d3 48 bd 1d 79 db bd
       -0.046912797 -0.06094262 -0.049029693 -0.1071646
000170 1a af b3 3d 0f d6 99 3d 66 85 af bc 41 c1 70 3c
       0.08773632 0.075115316 -0.021425914 0.014694513
000180 4b 92 57 3d 5e 58 e6 3b 9a de 94 bd 2a a1 02 3d
       0.05262975 0.007029577 -0.072690204 0.03189198
000190 dc 1a 96 3d b2 c5 7c 3d 47 73 25 bc 4c 39 08 3d
       0.07329342 0.061711974 -0.010098285 0.033257768
0001a0 32 8a 4b bd f9 76 88 3c e1 fc a3 3b 1e 31 27 bd
       -0.04969234 0.016658293 0.0050045107 -0.040818326
0001b0 45 39 ac 3d b5 22 90 bd 65 ba 67 3d 44 cd 33 bd
       0.08409361 -0.0703787 0.056574244 -0.04389693
0001c0 c6 3b 97 bd 4b 80 86 3d 6b c7 ef bc 86 5d 93 bd
       -0.07384448 0.06567439 -0.029269895 -0.071955726
0001d0 40 a6 12 3e 5d cd aa bd 8a f7 69 3c ae 9a d9 3d
       0.14321232 -0.08339951 0.014280209 0.10625206
0001e0 72 fc 87 bc bc 5f 4b bd c8 d3 85 bd e2 3c e4 3c
       -0.016599867 -0.049651846 -0.06534535 0.027861062
0001f0 86 11 c5 bd e3 0d 59 3c c7 6e 8b 3c 49 48 9e bd
       -0.09622483 0.01324794 0.017020596 -0.07728631
000200 8f 39 62 bd 6d 16 bb bb ad c6 5f bd 1f 41 b2 3c
       -0.055230673 -0.0057094605 -0.05463283 0.021759568
000210 d3 81 f5 bc 10 a5 c3 bd 8c 20 71 bc c5 c5 ac 3d
       -0.029969132 -0.095529675 -0.014717232 0.08436159
000220 26 f4 73 3d 0f 33 9f 3d cd 45 30 bb 44 7e 0c 3b
       0.05955901 0.077734105 -0.0026897073 0.0021437565
000230 9f 07 95 3d 6a 44 83 3c be 37 1b bd d3 b1 bc bd
       0.07276844 0.016023833 -0.037894957 -0.09213605
000240 cd b1 a7 3d 55 e1 93 3d 6e b6 49 3d 44 cf c9 bd
       0.0818821 0.07220713 0.049246244 -0.09853986
000250 69 ac 87 3d 74 ba 37 bd 5a 17 55 39 cb 81 6d 3d
       0.066246815 -0.04485555 0.00020321962 0.05798511
000260 89 c7 58 3c 3c d0 93 3d 70 02 da bb df d6 53 bd
       0.013231167 0.07217452 -0.0066531226 -0.05171859
000270 03 fb 27 bc 0c c6 99 3d 7d 32 a7 3d 4e 39 fe bc
       -0.010252717 0.075084776 0.08163927 -0.031033184
000280 cc 96 88 3d eb 45 48 3b 6d d3 40 3d bd f8 63 bc
       0.06669387 0.0030559252 0.04707663 -0.013914284
000290 2a bc f1 bc b7 a4 0a 3d 34 48 96 bc 5e 93 61 bd
       -0.029508669 0.03384849 -0.018344976 -0.05507218
0002a0 fc 97 89 bb d6 a6 44 3d 5c 06 b4 bd af a4 8e 3d
       -0.004199026 0.04801067 -0.087902755 0.06965005
0002b0 7a 84 08 3d 5c 7d 1c bd 23 c2 97 3c 64 04 ad bb
       0.033329464 -0.03820549 0.018525189 -0.0052800644
0002c0 91 77 9f 3b 50 fa 9c bc 69 eb 48 bc 0e d7 94 bd
       0.0048665483 -0.019162327 -0.012263157 -0.07267581
0002d0 08 32 88 3d 33 00 6c 3c 44 83 94 3d 81 87 be bd
       0.06650168 0.014404344 0.072515994 -0.09303189
0002e0 0f ce 0b bc 3b 8a 05 3d 36 0e e4 3b 07 95 67 3c
       -0.008533015 0.03260253 0.006959702 0.014134652
0002f0 12 d2 6f bd 2e bc 26 3d 11 48 a9 3c 78 b2 c8 3c
       -0.058549948 0.040706806 0.020664247 0.024499163
000300 87 7d ba bc c1 6f 02 3d f6 6b b1 3d 1b 6b 6b bd
       -0.022764934 0.031844858 0.0866317 -0.05747519
000310 30 c3 12 3b 7d cb 97 bd 3e 4e 5a 3b d2 96 6c bc
       0.0022394173 -0.07411859 0.0033310796 -0.014440255
000320 4d 7f 28 bd ee a1 8f 3d a5 71 65 bd 33 c9 41 3b
       -0.04113703 0.070133075 -0.056016583 0.0029569387
000330 11 d1 9a 3d bb f5 97 bd 89 80 90 bd 2c f6 f8 3b
       0.075594075 -0.07419916 -0.07055766 0.0075977053
000340 5e 8e a3 bd 19 44 90 bc 64 d2 3c bd cc 27 aa bd
       -0.07986139 -0.017610596 -0.04609908 -0.08308372
000350 c4 a9 ae bc ff 79 85 3d dd 04 43 bd 54 11 b0 bd
       -0.021321185 0.065174095 -0.04761206 -0.08597055
000360 c8 f2 b3 bd ee b0 c0 bd dd fd 62 bc fb bd 5a 3d
       -0.08786541 -0.09408747 -0.013854471 0.053403836
000370 4c 87 39 bd 36 2d 9d bc 90 d6 6d bd db 85 37 3d
       -0.045295045 -0.019186597 -0.05806595 0.04480539
000380 9d 48 a9 bd 56 02 4e bd bf c6 8c bd b9 57 fa 3c
       -0.08265803 -0.050295196 -0.06873845 0.030559408
000390 ef 1c cb bc a0 c0 52 3d 55 28 16 bd 5f 1e 94 3d
       -0.02479407 0.051453233 -0.036659557 0.07232355
0003a0 91 e0 a3 3b e7 82 d8 3c a7 0d 89 bd 4c af 8f 3d
       0.0050011356 0.026429607 -0.06692057 0.07015857
0003b0 6d 3d 3f bc e2 52 91 bc 60 44 59 3c 2c 0f 9e bd
       -0.01167236 -0.017739717 0.013260931 -0.077177376
0003c0 53 57 9e bd a1 f0 d7 bd 35 50 1b bd 73 4e 79 3d
       -0.077314995 -0.10543943 -0.03791829 0.06086583
0003d0 d4 4e 44 3c 34 cc 64 3d 5b d2 61 bc 4f 4f 68 bd
       0.011981685 0.055858806 -0.013783063 -0.05671626
0003e0 cd cd 0d 3d b1 7b cb bd 33 b4 62 bc 05 fa 89 bd
       0.034620095 -0.09935702 -0.013836908 -0.067371406
0003f0 1b 40 74 bd 54 6a df bd 22 eb 94 bc 15 ea 91 bd
       -0.05963145 -0.10908952 -0.018178526 -0.07124726

bias f4 [84]
000000 8a 53 b8 bb d5 0c ff 3c 4f 16 9f bd 6f a1 e5 bd
       -0.005625193 0.031134048 -0.07767927 -0.11212432
000010 8d cf 81 bc aa 19 83 bd 36 2a 3f 3e 10 90 7e bc
       -0.015846038 -0.064013794 0.18668446 -0.015537277
000020 9e 9c 6f 3d 9a c3 04 3c 74 ec b2 bd d8 40 1d 3d
       0.05849897 0.008103276 -0.08736506 0.038391918
000030 60 c8 94 bd e7 d2 ca 3d 32 f2 97 3b 76 19 13 3d
       -0.07264781 0.09903508 0.004637026 0.035912953
000040 c1 46 1a bd 80 4e 20 ba 7d 42 8c 3d c9 ca b3 3c
       -0.037665132 -0.0006115213 0.06848619 0.021947281
000050 c0 0e 82 3d 32 aa 33 3d e2 5e 76 3d b2 a3 53 3a
       0.063504696 0.043863483 0.06014908 0.0008073404
000060 33 61 ed bc 18 a1 06 be 75 b0 8d 3d 1e f6 e9 bb
       -0.028977012 -0.1314739 0.06918422 -0.007139935
000070 7e ef b8 3c 08 57 b7 bd 48 63 06 bd ef d2 c5 3d
       0.022575136 -0.08952147 -0.032809526 0.09659373
000080 10 b1 bf bd 11 e6 53 bd 18 a0 f5 bc 01 8b bb 3d
       -0.09359944 -0.05173308 -0.029983565 0.09157372
000090 3e ac bc 3c 9b 8e 16 3d f8 b2 4c 3d 7d 72 4e 3d
       0.02303135 0.036757093 0.049975365 0.050402153
0000a0 58 e2 d2 3c 24 a3 b4 bd c4 ad 11 3e 9c b7 86 bd
       0.025742695 -0.08820179 0.14226443 -0.065779895
0000b0 b4 e5 c8 bd 7c 6d d6 3d 5d c8 92 bd 88 33 12 3d
       -0.098094374 0.10470101 -0.071671225 0.035693675
0000c0 dc 58 f4 3d 45 54 87 bd 69 4e 05 3e 33 19 84 bd
       0.11931011 -0.0660787 0.13018192 -0.06450119
0000d0 d7 7e c7 bc bf 01 cb bd b5 a5 16 3d cf d8 fa 3d
       -0.024352474 -0.099124424 0.036779124 0.12248384
0000e0 8d 09 66 bb de c6 30 3c 28 c3 97 3c 76 cc 9c 3d
       -0.0035100908 0.010789601 0.018525675 0.07656185
0000f0 c8 f3 31 3c cf 1e 16 3c 7e fc 3a 3d 5c 19 86 3d
       0.010861345 0.009162619 0.04565095 0.06547806
000100 07 f4 e0 3c d3 19 0a 3e b1 5a 8a bd 88 1e 89 bc
       0.027460111 0.13486414 -0.06755579 -0.016738191
000110 3c db 29 bd 03 2c 9f 3d 16 d6 9c bd 09 b9 f8 bd
       -0.041468844 0.077720664 -0.07658021 -0.12144668
000120 44 44 aa bc b4 26 02 3e cf e8 a1 3d 48 6a 84 38
       -0.020784505 0.12710077 0.07905733 6.314047e-05
000130 ef 92 19 3d 11 75 4d 3d fd b1 88 3d d5 dd 32 bd
       0.037493642 0.05016047 0.066745736 -0.043668587
000140 e7 51 88 3b e8 d7 d1 ba 49 19 a4 3d 95 94 ab 3d
       0.004160154 -0.001600978 0.08012635 0.08377949

weight f4 [10, 84]
000000 db f6 5f 3c dc ec 12 be 06 f8 26 bd b8 24 8a 3d
       0.013669695 -0.14348167 -0.040763877 0.06745285
000010 01 85 73 3d d2 11 aa 3d 48 c4 31 bd f7 89 ff 3d
       0.059453014 0.0830418 -0.04340008 0.124774866
000020 2b 8c be bd 2e d7 0f be d5 61 ba 3d 79 e2 a3 bd
       -0.09304079 -0.14046928 0.09100691 -0.080021806
000030 b3 09 a1 bc dc 3e 39 bd e4 28 fe bd 00 1c cb 3c
       -0.019657945 -0.045225963 -0.12410143 0.024793625
000040 4b b2 a6 3d 7e bc 1b 3d 9f a0 f4 3c 13 ea 90 3d
       0.081394754 0.038021557 0.029861746 0.07075896
000050 c4 ad 70 bd c3 c6 3b bd 7a 76 01 3e 3a 70 cc 3d
       -0.058759466 -0.04584385 0.12642851 0.09982343
000060 a8 c8 85 3d 35 0e 19 3e 94 e0 bf 3b e0 b8 af 3d
       0.06532413 0.14946826 0.005855629 0.08580184
000070 bd 13 db 3c 5e dc d0 bb ca 44 6a 3d a4 8c 8b 3d
       0.02674281 -0.006373926 0.05719451 0.068139344
000080 12 5e ab 3d bc 89 9d bd 45 0a 64 3d ac 3f b0 bd
       0.08367552 -0.07692286 0.055673856 -0.086058944
000090 7c 48 6b bd 07 60 a0 3d 30 e6 cd bd 9e 1f 4b bb
       -0.057442173 0.07830816 -0.100536704 -0.0030994187
0000a0 58 7f 5e 3c 82 92 48 3d ca a4 10 be 36 57 87 3c
       0.013580166 0.048967846 -0.14125362 0.016521078
0000b0 5f 57 dd bd e1 e0 7f bc 73 de 0f 3e d9 b8 3e 3c
       -0.1080768 -0.01561758 0.14049701 0.011640751
0000c0 6a 03 05 3c e7 37 4a 3d 23 db 0d be 70 22 ec bc
       0.00811849 0.04936972 -0.13853125 -0.028825015
0000d0 85 2e c7 3c fc 7b c5 bd f2 d6 c2 3d 81 86 72 bd
       0.024314174 -0.09642789 0.09513654 -0.059210304
0000e0 fe f0 23 3e a9 4e 0f be cf 31 ab bd 19 5f 0e be
       0.160099 -0.1399485 -0.083591096 -0.13903464
0000f0 c3 77 37 bd 4d 53 38 bd 31 90 e8 3d 41 49 06 3e
       -0.044791948 -0.045001317 0.11355627 0.13113882
000100 3a 94 e3 3d 4a 48 c2 3c e7 49 41 bd 85 f9 96 bd
       0.11112256 0.02371611 -0.04718962 -0.07371811
000110 91 5b 49 bd 1e cb 3a 3d 07 5a 07 bd 25 ee cb 3c
       -0.04915959 0.045603864 -0.03304484 0.02489383
000120 ad 63 8a 3d f5 25 0f bd 1e 5d 0c be b1 2c d3 3c
       0.06757293 -0.034948308 -0.13707396 0.025778146
000130 bb 0d 16 3d 8f 88 41 3d 5f dc d6 3c 8d 96 95 bd
       0.03663419 0.047249373 0.026228128 -0.07304106
000140 8b 42 be bc 05 7a f3 3c 61 07 97 bd 62 d4 03 be
       -0.02322509 0.02972127 -0.07374454 -0.12873986
000150 53 7f ef bd 46 1a 7d 3d 6d 34 b4 bd 8b 44 55 bd
       -0.11694207 0.061792634 -0.08799062 -0.05206732
000160 c3 17 f3 3c 5c 52 92 bd 69 bf ea bd 57 72 91 3d
       0.029674416 -0.07144615 -0.1146229 0.07101887
000170 0b 61 e7 3c 2c c6 8b 3c 75 a8 6b bd 45 19 ae 3d
       0.028244516 0.01706227 -0.0575337 0.085009135
000180 b5 25 4f bd 23 dc 42 be b7 af 91 bd ba 2e 1e 3e
       -0.05057307 -0.19029288 -0.07113593 0.15447512
000190 d8 18 47 3d d3 5a 70 3d 3b d4 21 be 93 64 a0 3d
       0.048607677 0.058680367 -0.15803616 0.07831683
0001a0 e5 89 0c bd 4b 12 21 bd 7d cc 3b be 08 05 d3 3c
       -0.034311194 -0.039324086 -0.18339725 0.025759235
0001b0 69 b5 b4 bd d9 21 95 3d e3 50 3f 3e 71 d0 a2 bd
       -0.08823664 0.072818466 0.186832 -0.07949913
0001c0 36 e8 ed 3d 45 37 cb 3c de 72 42 3e df 07 0a 3e
       0.11616556 0.024806628 0.18989131 0.13479565
0001d0 d3 8d 8e bd 20 0f a6 bd a1 be df bc b8 7f a6 bd
       -0.069606446 -0.081083536 -0.027312579 -0.08129829
0001e0 2f 23 f4 bb 61 db c2 3d 18 cb 25 be c7 8b 92 bc
       -0.0074504833 0.095144995 -0.16190755 -0.017888917
0001f0 f8 21 37 bd d2 83 25 3e 1f 10 00 be 4d 08 21 3d
       -0.04471013 0.16163567 -0.1250615 0.039314557
000200 e4 3f 0b 3e 16 ef 1e be 33 30 d8 bc 83 e5 d0 bd
       0.13598591 -0.15520892 -0.02639017 -0.10200026
000210 34 ce 8e bd ac 71 bd 3d b3 2b f2 3d 09 8b d4 3d
       -0.06972924 0.09250197 0.11824741 0.10378081
000220 ce 3a 21 bd b3 e8 5d bd 18 10 75 bd 84 96 1b 3d
       -0.03936272 -0.054176997 -0.0598298 0.03798534
000230 8b dd bd bd 07 40 a9 3d 06 be 10 3e 07 c2 15 3c
       -0.092707716 0.08264165 0.14134988 0.009140498
000240 47 69 5d 3c 52 b2 6b 3d 03 9a e1 3d 7e 57 38 3b
       0.01351387 0.057543106 0.110157035 0.0028128321
000250 50 3b 81 bd b6 9c 25 be a3 12 ac 3c b9 78 48 bd
       -0.06310141 -0.16173062 0.02100498 -0.048943255
000260 4a 2c e9 3c 7d 59 ce bd 03 d3 29 bd 70 72 75 3d
       0.028463501 -0.10075662 -0.041461002 0.05992359
000270 aa 6a 1d bd 7c 2c c8 3b 71 10 ac bd 6d a3 4c 3d
       -0.0384318 0.0061088186 -0.084015734 0.049960542
000280 ac 5b 5e bd bb f0 2b 3d 41 f7 0b bd d6 af d8 bc
       -0.054286644 0.041977625 -0.034171347 -0.026451033
000290 63 2e 81 bd a7 6d ec bd ea eb 79 be 4c 12 d2 bd
       -0.06307676 -0.11544352 -0.244064 -0.10257396
0002a0 44 db b1 3c 55 e2 99 bd ff b0 b1 bd 0b be c1 bd
       0.021711 -0.075138725 -0.086763375 -0.09460076
0002b0 fb 29 ae bc a3 70 0d bd 76 3b ec 3d 00 40 c3 3c
       -0.021260252 -0.034531247 0.11534779 0.023834229
0002c0 f4 41 cb bc b6 c3 89 bd 05 c8 39 bd 8b f2 31 3c
       -0.024811722 -0.06726782 -0.04535677 0.010861049
0002d0 3c 7a 85 bd 73 ea 05 3e 16 7b c6 3c f5 55 21 3d
       -0.06517455 0.13077717 0.024228614 0.039388616
0002e0 3e ea 93 3d 6f a0 36 be 5c f2 96 3d c6 a6 a1 3c
       0.072224125 -0.17834638 0.07370445 0.019732844
0002f0 2e bf 36 be b3 91 22 bc 0d 02 c0 3d b2 6a 51 3c
       -0.17846367 -0.009922433 0.09375391 0.012781786
000300 9f ea 79 bb 53 9e 01 3d 89 4e 1b bd 0d 97 06 bc
       -0.003813423 0.03164513 -0.037916694 -0.008214724
000310 37 82 e5 bd fa e9 d4 bc 10 c0 cd bd ff ae 7c bd
       -0.11206477 -0.025990475 -0.10046399 -0.061690327
000320 f2 1c d1 bd a8 3b d3 3c 5b 77 ec bd b9 32 43 3b
       -0.10210599 0.025785282 -0.11546203 0.0029784872
000330 62 6f b8 bd ea 1b db 3d 82 43 80 3d ed ca a9 bd
       -0.090056196 0.106986836 0.06262876 -0.08290658
000340 52 6d 91 3d 54 9e 85 3c a9 5a 80 3b f2 2a ae 3d
       0.07100929 0.016310848 0.0039170575 0.08504285
000350 79 db e6 bb a9 ea 06 3e 51 dd 11 3e a6 80 a2 bd
       -0.007045206 0.13175453 0.14244582 -0.07934694
000360 99 4b ba 3c 67 a4 15 be fe 5e 79 bb 07 c4 d6 3c
       0.022741126 -0.14613496 -0.0038051005 0.02621652
000370 f4 64 1f bd c1 e7 aa 3b 69 33 b0 3d 5b 52 c8 3d
       -0.038914636 0.0052156155 0.08603556 0.09781333
000380 a7 6d 44 3d 3c 07 95 3d e8 ae 54 bc 13 c4 ca bd
       0.047956135 0.072767705 -0.012981154 -0.099006794
000390 1c 2a f9 3c d6 17 be bd c2 75 b3 bc 45 b7 8e 3d
       0.030415587 -0.0928189 -0.021906737 0.0696855
0003a0 9c 4e aa 3d 00 02 bb 3d 5c 77 cf bd 43 5f 68 3d
       0.08315775 0.09131241 -0.10130188 0.056731474
0003b0 0e 61 78 bd 69 0d 00 bd 99 d2 7d 3d 07 34 53 bd
       -0.060639434 -0.03126279 0.06196842 -0.05156329
0003c0 17 83 9b 3d 60 8a 91 3d 8c e2 a7 3b 2c 38 a9 3c
       0.07593363 0.07106471 0.005123442 0.020656668
0003d0 1a 55 e7 3d 16 f8 15 be 07 67 08 bb 6c f2 9b bd
       0.11295529 -0.14645419 -0.0020813362 -0.07614598
0003e0 4f 7d 02 be 9a 41 22 3d c9 f1 72 bb 4f 4e d7 3c
       -0.12743114 0.039613344 -0.0037070385 0.026282458
0003f0 76 fc 5e 3b d8 cb 88 bd 08 3a 93 3c 15 91 a4 bd
       0.003402499 -0.06679505 0.017972007 -0.08035485

bias f4 [10]
000000 8c 4a 68 bd fd dc a8 3d 2c a5 4d bc 6d 3d 32 bd
       -0.05671172 0.08245275 -0.012551587 -0.04351561
000010 9e d5 e8 3d 14 13 ea bd 63 21 00 3e 6b bb 20 bc
       0.11368869 -0.1142942 0.12512736 -0.009810309
000020 b9 ad a3 3d da 81 9d bd
       0.07992119 -0.07690783
