model.pth (torch, 252527 bytes, 10 tensors)

weight f4 [6, 3, 5, 5]
00000000: 94a9 1f3e 81f3 59bd 6759 01be b254 d1bd
00000010: 1cd8 8bbd bc48 10bd 3d78 1dbd 0492 9a3d
00000020: 7009 7ebd b8e3 8ebe 24b4 f43c 4fb4 133e
00000030: 4a17 55bd c021 71bd 99c0 3fbe ebc2 fa3c
00000040: af9d f9bd 1c90 623c 8250 bebd 11ea 8cbd
00000050: a7d7 c83d 5640 823b 671a 87bd d7ff 1fbe
00000060: 9bda f9bd 9d56 0d3e fef3 a7bc c32a 23bd
00000070: b319 d03d 7382 3e3c 2211 debd 982c 653c
00000080: cc87 5c3d 1d07 163d 71a6 393a 32d6 44be
00000090: 83be 273e 3e9b 68bd 35ec ba3d 6bd2 a03d
000000a0: 10eb 1fbc 8dbd d33d ec9d 0a3e 0126 e03d
000000b0: 2578 9d3d bdf5 9cbc 3f18 af3b eae0 203e
000000c0: 22ec 7a3d a165 023e 2532 3cbd 21ac d5bd
000000d0: 55ee b93d 30ce 403e 8264 143e 30e4 fcbd
000000e0: 9d3c d9bd 626a 033e 32ba 183e 6073 2d3e
000000f0: 7637 54be 878b 2b3e 6949 753c 5393 a33e
00000100: f708 5a3e 4b2f 033b 5669 2cbd 0763 123e
00000110: ca0b cb3d 563f 283e 0d95 65bd 3e5b 1e3e
00000120: 5a3a 213d f504 353e 2cf4 433e 7903 8fbc
00000130: c1f5 d33d 4191 0c3d 778e 50bd fc5d c5bd
00000140: 763b bebd 65bc 3a3d 6b7f 3c3d 7018 acbc
00000150: a054 c53d 3873 883d c7ff debd f084 6ebe
00000160: 1019 5f3e bc92 e93d b1b2 4a3e fb7a a2be
00000170: 14c9 e6be d933 d13e e5ec 173e ae50 b33d
00000180: ea55 0bbe 510c 84be db48 183e d768 473e
00000190: 14a7 8bbc f9f4 25bd 8937 1b3d b1d9 84bd
000001a0: 731b 0a3d 1a2f 873c f720 42be 4e5f c73d
000001b0: b0ab 963d 8be8 aabb 4177 1d3e 3fad 38be
000001c0: bc56 96be 6be0 703d e9ab 193e d67d c93e
000001d0: 6a9b 92be f431 09bf 24ba b43e 2206 8d3d
000001e0: e45e 4f3e 4c31 9abd 0b24 9dbe 881a bb3d
000001f0: dc2b 383d c9f7 aebd 8583 3bbd 1bdf c13d
00000200: 286b dd3b ebcd 103d 2f95 ab3d a60f 33be
00000210: 298b bf3d f664 aebd 943c 2d3d 6b04 e33d
00000220: e85e 06be 23e3 47be 4d0c ff3d c2ec d53d
00000230: ef05 c83e ac04 9ebe db5a d9be 9735 ef3e
00000240: db15 05bd f970 333e eb9d 08be 7ee6 8fbe
00000250: a030 9e3e a851 d2bd 37e5 92bd eeb7 e73d
00000260: 46dc 3b3e 1412 853d 7cab 1ebd 3835 093e
00000270: f03e 723e a7fd 023d fc5d 7ebe 00da a1be
00000280: 37c5 9d38 9c04 b2bc 037c c6be 135b 96be
00000290: 639a aa3d 2bd8 443c 544d efbd 1f5f d0bd
000002a0: 1364 503e f0a6 9c3e 1732 03bc 2995 72bc
000002b0: c3f0 393e dcac 633e 6072 013e f763 2abe
000002c0: edef 9f3d cbe5 dc3d 76b3 a73e 95fa 30bd
000002d0: 09d8 1f3d 05f9 4f3e 71b0 053e 5105 99be
000002e0: 4f31 8abe a556 8dbd fd16 1ebd 0378 a7be
000002f0: d709 c1be 7794 4fbd 6ee2 883d 4c44 6bbe
00000300: 7505 52be 1a3d 863d 7c66 ba3d 48b2 f3bd
00000310: 2e85 e5bd fbfb 83bd 796f 82bd 853d 56bd
00000320: 4030 c0bd a322 763b 39e9 9f3e 8b9e d43e
00000330: 9e3b 5c3e b438 9a3d 264b 323e e12b b03e
00000340: b95d 9cbd 91e3 33be 31ea 4d3d 8ac2 143d
00000350: a272 99bd b4f4 7fbe 55fb 1f3e cab5 f03d
00000360: c275 1cbd 1d1c 80bd 0fc8 063d 4f4e cabc
00000370: 5eb1 073e 6366 34bd 2d52 cc3c 4ba2 32bd
00000380: 3911 61be 145a b3bd c97d f13d 5e45 bbbd
00000390: 1fbf 2fbe 4e7f 63bd 89b4 9fbe c7ae 51be
000003a0: 607b b8bc 46b9 70be 4886 7abe 9e24 6c3d
000003b0: ea44 9dbd 5569 7b3d 5b45 a7be cd90 99bd
000003c0: 81ad 0fbe 782c 0ebd 0bba 88bc 6cca a0bd
000003d0: c424 bb3e 2e86 61bd 8777 73bc c301 05be
000003e0: 5fe7 1c3e 6141 1dbe 8386 923d 08e3 ae3e
000003f0: 9366 45bb 9310 80bc 05b1 493e 2341 85be
0.15592033 -0.05321074 -0.1263176 -0.102212325 -0.06828329 -0.035225615 -0.038444746 0.075473815
-0.06202072 -0.2790811 0.029871054 0.14424251 -0.052024163 -0.058870077 -0.18725814 0.030610522
-0.12188279 0.013828304 -0.092926994 -0.06880582 0.098067574 0.0039749546 -0.06596833 -0.15624939
-0.12199899 0.13802572 -0.020502087 -0.039835703 0.10161152 0.011627781 -0.108431116 0.013987683
0.053840443 0.036627878 0.00070819916 -0.19222334 0.16381268 -0.056788675 0.09127084 0.07852634
-0.009760633 0.10338888 0.13536805 0.10944749 0.076889314 -0.019160146 0.0053434665 0.15710798
0.06126035 0.12734081 -0.04594626 -0.104332216 0.09078661 0.18828654 0.14491466 -0.12348211
-0.10607264 0.1283355 0.14914778 0.16938543 -0.20724282 0.16752444 0.014971116 0.31948337
0.21292482 0.0020017202 -0.042092644 0.14295588 0.09914358 0.1643041 -0.05605035 0.15464494
0.03936229 0.17677672 0.19136113 -0.01745771 0.10349608 0.034318212 -0.050917115 -0.09637067
-0.09288685 0.045589823 0.046019953 -0.021007746 0.096352816 0.06662601 -0.108886294 -0.23292899
0.21786904 0.114049405 0.19794728 -0.31734452 -0.45075285 0.4085987 0.14836462 0.08755623
-0.13606992 -0.25790647 0.14871542 0.19473587 -0.017047442 -0.040516827 0.03789476 -0.06486834
0.033717584 0.016501952 -0.18957888 0.09734975 0.073569655 -0.0052157096 0.15377523 -0.18034838
-0.29363048 0.05880777 0.15006985 0.39353818 -0.28634197 -0.5359185 0.35298264 0.06885935
0.20251042 -0.07528934 -0.3069156 0.0913592 0.044963703 -0.08543355 -0.045779724 0.09466382
0.006757159 0.03535263 0.08378064 -0.17486438 0.093527146 -0.085153505 0.0422941 0.11084827
-0.13122141 -0.1952024 0.12453518 0.104455486 0.39067027 -0.3086294 -0.4245213 0.46720573
-0.032491546 0.17523564 -0.13341491 -0.2810554 0.30896473 -0.10269481 -0.071726255 0.11314379
0.18345746 0.06497589 -0.03873776 0.13399208 0.23656821 0.031980183 -0.2484054 -0.31611633
7.5230775e-05 -0.021730714 -0.38766488 -0.2936636 0.08330228 0.012014429 -0.11684671 -0.10174393
0.20350675 0.30596113 -0.008007548 -0.01480607 0.1815825 0.2223391 0.12641287 -0.16639696
0.07809434 0.10786017 0.32754105 -0.043207724 0.039024387 0.20309837 0.13055588 -0.2988687
-0.26990744 -0.06901292 -0.038596142 -0.3270875 -0.3770282 -0.050678696 0.06683813 -0.22975272
-0.20509894 0.06554623 0.091015786 -0.11899239 -0.11207043 -0.06444546 -0.06368918 -0.052304763
-0.09384203 0.0037557266 0.31232622 0.4152721 0.21507117 0.075303465 0.1741148 0.34408477
-0.07635064 -0.17567278 0.05027217 0.03631834 -0.074925676 -0.2499569 0.1562322 0.117534235
-0.03819824 -0.06255362 0.032905634 -0.024695544 0.13251254 -0.044042956 0.024941528 -0.043611806
-0.21979226 -0.087574154 0.1179157 -0.0914409 -0.1716275 -0.05554133 -0.31192425 -0.20476829
-0.022519767 -0.23508176 -0.24465287 0.05765211 -0.0767916 0.06137975 -0.32670102 -0.07498322
-0.1403103 -0.034710377 -0.016690275 -0.07851109 0.36551487 -0.055059604 -0.0148600405 -0.12988953
0.15322636 -0.15356971 0.07154562 0.34157586 -0.0030120953 -0.015632903 0.19696434 -0.26026258

bias f4 [6]
00000000: 7b22 f5bd 9af7 413c b460 b13d a6d8 ae3d
00000010: 7d26 85bc 8381 46bc
-0.11969467 0.011838818 0.08661023 0.08537416 -0.016253704 -0.012115839

weight f4 [16, 6, 5, 5]
00000000: 5fa3 70be d79b b0bc 0f0b 243c 9163 a53d
00000010: ac91 a13e 9f47 f9be 5df8 0abe 8125 66be
00000020: b756 a03d f867 bd3e df40 0ebf 7e9f edbd
00000030: f267 4fbd 1f66 e6bd a3c5 aa3e c684 b5be
00000040: a7e3 86be a01b 69be 3724 973d 3a9f a53e
00000050: 6959 63be 139f 2cbc 2a02 003c fcb5 963d
00000060: 0166 713e 0fb5 b6be 66bc b9be ad05 91be
00000070: 752d acbe 0210 32bc 8fb7 34bf a4fc fdbe
00000080: 1a33 8fbd dcc5 9d3e fb97 1c3f 2b01 19bd
00000090: 1619 4fbd ae74 703b c82b 663e c2b5 0a3f
000000a0: abdf 0abe 9141 22be 3d67 71ba 37bd eabd
000000b0: a052 093f 71ef f1be 7d73 053e 4cf1 7abe
000000c0: 2eb1 7ebd f0ac b53e 65f9 b73e 609d 1d3e
000000d0: d673 503e 2157 933c 170b 9cbe f8aa d53e
000000e0: d1a2 0d3f ee87 fc3e f9cd 093f 31ec 9dbe
000000f0: 7db1 aebd f956 703e 1263 0abe 0b56 0d3e
00000100: 75a7 03be 7235 38be 73ce a0be c71b 2d3d
00000110: b6bf 03bf c249 dbbe e8b9 efbe db1e 953d
00000120: b127 afbd c896 5fbf 8623 97be 5db6 42be
00000130: 19a8 723e fe79 bdbd a933 a0be 36d6 9b3e
00000140: 07fe 0ebf aa7d b8be e1bc 24bf bb8e aebe
00000150: b9fb 3c3e 1637 7c3e 4cd3 e8bd e56b 98be
00000160: 509b fd3d eea5 e83c 203f d63d 48f4 2cbe
00000170: 8db8 01bf 574b 56be 76b2 d83c 46d6 8f3e
00000180: a492 053e bccc d03c 29f5 e83e 5699 a93e
00000190: bcf7 c6bc 0eba 133f 47be 3a3e 613d 3abd
000001a0: 5e1b a0bd c21c e63e ae5b 473e 1945 603d
000001b0: c478 3c3d 1866 42bf 36f9 4c3e fc5c 863d
000001c0: 523d 823c bc6f a3bd ba4c 40bf f846 adbe
000001d0: d133 b13c a668 28be 3ed0 d3bd 9d24 0dbf
000001e0: 2258 503e 8d92 453e ff5c 513d 9323 cbbc
000001f0: 8f14 b3bd 03bb c23c 4c5a ac3d b3c1 3c3e
00000200: 23ff c13e e2d8 183f 6956 29bf 768c 30bf
00000210: a8ad 1abf 40b6 82be eb8e fa3d 7389 dabe
00000220: a11b 04bf c6a6 39be 45ce 10bf a865 c53d
00000230: c1a0 18bf 4537 66bd 24c1 8fbe 0966 b3be
00000240: fb55 1f3e ef19 55be d453 5fbd 9367 8f3e
00000250: 6879 9f3d b7e0 3b3e 3c8e 0f3e e146 d5bd
00000260: 0f2d c2bd 10b2 b1bd 579f 083d 98ef 933d
00000270: b978 23bd 6c73 debd 7a3a 63be 9a4d fe3c
00000280: ea9e 333d 4e0c c03d 030b 0fbe 0279 a4be
00000290: 50e4 aebd f7e8 203e a281 a53e 87e7 08bd
000002a0: 8ed2 89bd 637c 1cbd 31d8 553e 0794 dc3e
000002b0: de60 863e 95ae 98bd 43d8 20be f12a 2abd
000002c0: 5415 a53e bfed d93e f874 193f 7244 d7bd
000002d0: 84cc 96bd 77eb 8e3e cd34 bf3e d1d2 c23e
000002e0: bfad e4be fd02 e4bc 32b7 cf3e d8d9 033f
000002f0: 0b14 af3e 2324 2bbe 3642 143e 0d64 d43e
00000300: a57e 913e d6a1 7b3e 98d5 6fbe 6201 b23d
00000310: c0f6 243e 9835 f63d 8cc4 183e d44c 6dbe
00000320: 72e5 453e 9446 393e 4cac 82bd 4a60 aa3d
00000330: be6c 3c3e bdf7 fdbd 5782 ea3d 9681 13be
00000340: 769c 243e 3c69 4e3e 074f 0abe 4202 72be
00000350: 91ba 71be 1d62 fabd c7de 1bbe a3fd edbb
00000360: 5350 30be c952 f5be 550d 40be 5e15 1dbd
00000370: 88c1 46be e5ca 35bd cea0 9abe ea2e 3cbe
00000380: bc27 14be 113b 653e aa70 58bc 26af 203e
00000390: cad4 9c3c f336 e73d 1b9a e83d 2fac 62bd
000003a0: 136e 0d3e 707d 13be c7f3 06be c1dd 93bc
000003b0: 8910 02bd 4d8f 973e ca71 ac3c d9b2 403e
000003c0: 67c1 12be 6d0c 223e de6e fa3d da91 8c3e
000003d0: 76f1 53be 4d5c 433e 455a df3d 0314 523e
000003e0: a113 803d 3740 083e 5fbe a9be fe39 15be
000003f0: 751d 73be 7de7 4dbe 62c6 d5bd 7cf2 623d
-0.23499821 -0.021558685 0.010012402 0.080756314 0.3155645 -0.48687455 -0.13571306 -0.22475244
0.078290395 0.36993384 -0.55567735 -0.11602686 -0.05063624 -0.11249947 0.3335391 -0.3545286
-0.2634556 -0.22764444 0.07379954 0.32348043 -0.22202076 -0.010535973 0.007813016 0.073589295
0.23574068 -0.35685012 -0.3627655 -0.28324643 -0.3362843 -0.010868074 -0.7059259 -0.49606812
-0.06992169 0.30815017 0.61169404 -0.03735463 -0.050561033 0.003669064 0.22477639 0.5418359
-0.13561885 -0.15845324 -0.0009208804 -0.11461871 0.536417 -0.47252992 0.13032337 -0.2450611
-0.06218069 0.35483503 0.3593246 0.15392065 0.20356688 0.017985882 -0.3047721 0.41732
0.55326563 0.49322456 0.53829914 -0.30844262 -0.08529947 0.23470677 -0.13514355 0.13802354
-0.12856849 -0.17989138 -0.31407508 0.04226282 -0.514644 -0.4282971 -0.46821523 0.07281276
-0.085524924 -0.8733945 -0.2951929 -0.19014879 0.23696937 -0.09251784 -0.31289414 0.30436867
-0.55856365 -0.36033374 -0.64350706 -0.3409327 0.184554 0.24630389 -0.11368427 -0.29769817
0.12383139 0.028399434 0.10461259 -0.16890061 -0.5067223 -0.20927177 0.026452284 0.28093165
0.1304422 0.02548825 0.45499542 0.331248 -0.02428805 0.5770577 0.18236648 -0.04546869
-0.0781772 0.44943815 0.19468567 0.054753397 0.04601361 -0.7593703 0.20016941 0.06560704
0.01589838 -0.07980296 -0.75117075 -0.33843207 0.021631153 -0.1644617 -0.103424534 -0.5513399
0.2034612 0.19294186 0.05111408 -0.024797237 -0.087441556 0.023770815 0.0841566 0.18433265
0.37889966 0.59705937 -0.66147476 -0.68964326 -0.6042123 -0.2552967 0.12234291 -0.4268299
-0.5160466 -0.18130025 -0.5656474 0.0963853 -0.5962029 -0.056205053 -0.28077042 -0.35038784
0.15560143 -0.20810674 -0.054523304 0.28008708 0.07786828 0.1834744 0.14019102 -0.1041391
-0.094812505 -0.08676541 0.033355083 0.07223433 -0.039910052 -0.10861859 -0.22190276 0.031042863
0.043852724 0.09377347 -0.13969044 -0.32123572 -0.08539641 0.15713869 0.32325464 -0.033423927
-0.06729613 -0.038204562 0.20883252 0.43081686 0.2624578 -0.07455174 -0.15707497 -0.04154486
0.32242835 0.42564198 0.59944105 -0.10511102 -0.07363227 0.2791402 0.3734497 0.38051465
-0.44663808 -0.027833456 0.40569454 0.5150428 0.3419498 -0.16713004 0.14478382 0.41482583
0.28416935 0.24573454 -0.23421323 0.0869167 0.16109753 0.12021941 0.14918727 -0.23173839
0.19325808 0.1809333 -0.06380519 0.08319147 0.18400857 -0.12400768 0.114506416 -0.14404902
0.1607531 0.20157331 -0.13506709 -0.23633674 -0.23606326 -0.12225745 -0.15221702 -0.007262902
-0.17218141 -0.47914723 -0.18755086 -0.038350455 -0.19409764 -0.04438295 -0.3020081 -0.18377271
-0.14468282 0.22385813 -0.013210455 0.15691814 0.019144434 0.112897776 0.11357518 -0.05533999
0.13811521 -0.1440332 -0.13178931 -0.018050076 -0.03175405 0.29601517 0.021050353 0.18818225
-0.1433159 0.15825053 0.122281775 0.27455026 -0.20697579 0.19078179 0.109058894 0.20515446
0.06253744 0.13305746 -0.33153054 -0.14572904 -0.23741706 -0.20107837 -0.10438229 0.055407032

bias f4 [16]
00000000: 1080 393f eff4 f63e 7a65 aa3e cbbf 413e
00000010: 9b0d 32bd c14d 063c 0a4e ab3e 90a3 133f
00000020: a270 133e 013e f93c ebf7 81bd b313 93be
00000030: 16af 213d ef35 9d3e 0fd5 debe 5074 b9be
0.7246103 0.48233745 0.33280545 0.1892082 -0.043470006 0.008197249 0.33457977 0.5767145
0.14398435 0.030425074 -0.06346115 -0.28725967 0.039473616 0.3070521 -0.43521926 -0.36221552

weight f4 [120, 400]
00000000: c1bd f4be a387 5e3e 4a56 22be 2b68 08be
00000010: 9b06 bebe e9dc 77bd 3876 b13d fd93 b03e
00000020: e4bc 61be d7ad 31be 5338 893d ec05 f73d
00000030: 1bf1 38be ed13 83bc 2b68 253d 5cce bd3e
00000040: 6f7f a23d 7fd5 bdbe abb9 1cbe e83a d73d
00000050: 073c 8d3e 8563 2c3e 6150 5dbe ef37 20bd
00000060: 55a2 ab3e 16b5 1abe 1e53 073e 150e a5bd
00000070: c543 243e ebac 32be 93b8 f1bc 9c4c 633e
00000080: 1b37 cbbb bd84 a9bb 8ec1 1ebb 9a5e ccbc
00000090: 7d7f 843b 00ed 3dbe 3751 1bbe 0598 d73d
000000a0: 5817 f63c 0c1e 533e cfb6 ac3d 3237 803e
000000b0: c08c 273e 0974 f0be 3cc7 b53e 5e51 33bd
000000c0: 1c13 ff3c 9044 6dbd 14b4 9f3c 55a7 a13d
000000d0: cbe3 073e c314 bebd e51f 0fbd 9f40 743d
000000e0: d53e 90be db5a 103d 931b 3e3e 8aa2 043e
000000f0: 1e98 013d d58e 803e 1aa5 9c3e 3f7f 203f
00000100: 613e cabe aa6c 03bf 9790 b0bd 5492 5b3d
00000110: 50df 853e f857 b3be 3c8f d63d 4349 8b3d
00000120: 6336 873c 3b1f 153e fcb1 9bbd 9309 45bd
00000130: 2cf8 0b3c 9e81 543e 5671 69bb 0415 213d
00000140: 7fa3 94be 1987 90bd bdc1 aabe ea54 3ebe
00000150: 0bf2 2e3e cd0e f03d f870 343e 575f 7b3d
00000160: 1851 2a3e 29cd a93e d597 a13d 0724 80bd
00000170: 6819 783e f4a8 563e 3629 363e c3e7 82be
00000180: d1c4 113e a62e d3be bb8d a0bd 1f7b 2abe
00000190: 35cc 753e 5e10 813e 2bc9 a73c d9da c0bd
000001a0: fa72 aabb 22dd 81bc b9e2 a6be f6c6 8abc
000001b0: 9a1e 0abe ddf3 13bc 130a dc3d 3660 c4be
000001c0: 66c2 a0be 91da bcbe acd7 643e 51a6 443c
000001d0: c7cd 2bbe 31b8 d43c 5043 7abb 61b4 783e
000001e0: a777 863e a76c 223d d2c9 c73e ee50 633e
000001f0: 4f83 793e a8c9 333e 7794 80be 6c68 76bd
00000200: c9a4 12bd 8b57 843e 472f 8abc 2b84 dd3d
00000210: 3683 4d3e 1163 37bc 0068 09be 5bf8 2d3a
00000220: 8edd 59bd 9040 50be e0b9 d9be 0c2b 62be
00000230: a77a bb3e c505 c7bb b9d4 4ebe 9ca9 2d3e
00000240: 4209 913c 6463 b3be e78a 9dbe c328 e43e
00000250: e536 b13d 62b4 95be 7149 393b 9212 953e
00000260: 7715 30bd f832 ea3d baa1 423d 473e 4e3d
00000270: 752b 4cbd aa9a bcbc 9f81 a3bc d988 1abe
00000280: 4bd9 d2be 1c3c 0a3f e106 633e 4a11 f93c
00000290: 237a 87bc e0b0 263e aac8 a4bd 27d9 e8bd
000002a0: 5f91 f1be 93f2 a3be 0dac 81be f419 b23e
000002b0: 5bd9 69bd 86c7 3cbd 9999 a73d 917c 11bb
000002c0: cff6 0cbe 9f71 373e 86bc cabc 7794 213d
000002d0: 513b 82bd 6111 28bd 12ab a13e 4610 78be
000002e0: c015 ee3d 5e0f c53e cc91 6b3e d7c7 debb
000002f0: 9b19 593c 48e2 193f cfb4 553e 64cd bfbe
00000300: 9627 46be 2c0b dc3d 297d 883e 4ddf afbd
00000310: fd6d 83be 7af5 debd ff20 4ebc f934 09bc
00000320: 430a 43be 0ca3 f6bd 95c7 9bbd e246 98be
00000330: a528 693d 225a e0bd 351a 12be f200 39be
00000340: 987d fcbd 841e e93d 674f 8b3c d39f 323e
00000350: d821 d63d 8748 3c3d cace d53d e5f7 2c3d
00000360: 5904 093e 8ac7 e53c 73cf 2bbd 30fa e03e
00000370: 2943 e8bc 5744 b03d 9ab9 693d a07e 1ebe
00000380: 4e76 c33d a0db 93be 1047 e63c fbfc 14bd
00000390: 82b5 2dbc f837 82be 44d5 cabc 9004 9abe
000003a0: aa89 873e db39 313d 0e98 2d3d 9e14 80be
000003b0: 1a13 c03d cf54 2fbe a045 84be e081 303e
000003c0: 9a73 30be 79ba 1b3e 1f64 a33d ccd5 053e
000003d0: 51f5 983e 30a1 15be 759f 3d3e fc44 283e
000003e0: 6285 1fbd b717 793e b162 2abd 3f3f 143d
000003f0: 1cbb 7cbc 425c 0cbd 558e 553c f8b0 45bd
-0.4780102 0.21731429 -0.15853229 -0.13320987 -0.37114415 -0.06051341 0.086651266 0.34487906
-0.22044712 -0.17351471 0.06700196 0.120616764 -0.18060724 -0.016000712 0.040382545 0.37071502
0.07934462 -0.37076947 -0.15305202 0.10509282 0.2758486 0.16834839 -0.21612693 -0.039115842
0.33522287 -0.15108141 0.132153 -0.080593266 0.16041477 -0.17448775 -0.029506957 0.22197193
-0.0062016374 -0.0051732943 -0.0024224254 -0.024947453 0.004043518 -0.1854744 -0.151677 0.10527042
0.030040428 0.2061693 0.084333055 0.2504211 0.16362286 -0.46963528 0.35503566 -0.04377877
0.031137042 -0.057926714 0.019495048 0.07893244 0.1327049 -0.09281304 -0.034942526 0.05963194
-0.28172937 0.035242897 0.18565206 0.12952629 0.03163921 0.25108972 0.30594712 0.6269416
-0.39500716 -0.51337683 -0.08621328 0.053606346 0.26146936 -0.35028052 0.104765385 0.06801083
0.016505426 0.14562695 -0.07602307 -0.048104834 0.0085430555 0.2075257 -0.0035620532 0.039326683
-0.29030988 -0.07057018 -0.33350936 -0.1858708 0.1708452 0.11721573 0.17621219 0.06137022
0.16632497 0.33164337 0.07890288 -0.06256872 0.24228442 0.20962888 0.17789158 -0.25567445
0.14235236 -0.41246527 -0.07839533 -0.1664853 0.2400368 0.252078 0.020481667 -0.09416742
-0.0052016946 -0.015852515 -0.3259485 -0.016940575 -0.13488236 -0.0090303095 0.10744109 -0.38354653
-0.31398314 -0.36885503 0.22347897 0.012002544 -0.16777717 0.025966736 -0.0038187094 0.24287559
0.26263162 0.0396544 0.39021164 0.22198841 0.24366497 0.17557395 -0.2511327 -0.06015818
-0.035801683 0.2584804 -0.016868247 0.10816225 0.20069584 -0.011193053 -0.13418579 0.0006636434
-0.053189807 -0.20337129 -0.42524624 -0.22086734 0.36617014 -0.006073686 -0.20198335 0.16959232
0.01770461 -0.35036767 -0.30770037 0.4456235 0.086530484 -0.29239184 0.0028272534 0.2911573
-0.04298922 0.11435503 0.047517516 0.05035236 -0.04984613 -0.023022968 -0.01995927 -0.15091266
-0.41181406 0.5399797 0.22170593 0.030403752 -0.016537732 0.1627841 -0.08046086 -0.113695435
-0.47181222 -0.32021007 -0.25326577 0.34785426 -0.057092052 -0.046088718 0.08183593 -0.0022199492
-0.13766025 0.17914437 -0.024748098 0.039448228 -0.0635897 -0.0410322 0.3157583 -0.24224958
0.11625242 0.38488287 0.23004836 -0.006798725 0.013250734 0.601109 0.20869754 -0.37461388
-0.19351038 0.10744318 0.2665799 -0.08587513 -0.25669852 -0.10886665 -0.012581109 -0.008374446
-0.19046883 -0.120428175 -0.076064266 -0.2974158 0.056923527 -0.109546915 -0.1426781 -0.18066767
-0.123286426 0.113827735 0.017005635 0.1744378 0.10455674 0.045967605 0.104398325 0.0422286
0.13380565 0.02804925 -0.041945886 0.43940878 -0.028352337 0.08606785 0.05706177 -0.15477991
0.09544049 -0.28878498 0.028110057 -0.036374073 -0.010602357 -0.25433326 -0.024759896 -0.30081606
0.26472217 0.043268066 0.04238134 -0.2501573 0.09378643 -0.17122196 -0.2583437 0.17237043
-0.17231598 0.15207852 0.07978081 0.13069838 0.29874662 -0.1461227 0.1851786 0.16432565
-0.038945563 0.24325453 -0.041598026 0.03619313 -0.01542547 -0.03426767 0.013034423 -0.048264474

bias f4 [120]
00000000: 030a f6be 20eb 25bf 7040 f33e b9a6 51bc
00000010: 34b9 7fbd 0b94 1abe 3595 00bf f483 833f
00000020: 083b 323f 7e25 4e3f 498a 8c3f d6a9 843f
00000030: 5670 0fbd 9dc3 58bd c38c 533f ce29 bcbc
00000040: 6aa5 aebd 5e97 a93e 63fa 223f 1f85 6abe
00000050: c7cd 003e f37b 56bd d35b 2abd 9913 4c3e
00000060: 9689 53bc a774 72bd 36af 9c3c b103 193e
00000070: bb3d 903f e282 8fbd 2af6 cfbc 6776 f4bc
00000080: 38c0 e53e 9da7 2f3c 4afe 6cbd 1b3e 0ebf
00000090: c64e 68bc e67f 9dbe 2c40 42bf 025f b43e
000000a0: ebac 7dbd 5f5b e53e 7b7e 713e 0747 11bd
000000b0: 0897 84be dbda 8abd d3e0 32bd 8d51 fe3b
000000c0: 440b 60bd dc63 2f3e 9791 36bd f6ed 0e3f
000000d0: 8640 d83e 5643 c6be c0ff 70bd 3a18 193f
000000e0: 1292 0d3f c8a9 cbbd 023c f33e f855 3f3b
000000f0: 9c64 613f 5995 c93c a78f c6bd f118 eb3e
00000100: b3e9 4f3f 829d 883f fd9b 103e f7ed 263c
00000110: 141f 843c e40c 11bc 476c c43e 3123 fa3e
00000120: da8f 0b3f 78ba 4c3e 0468 acbb d63b 10bd
00000130: 6e34 4cbd 3e8e f83e 4b6c 2c3d 59a5 83bd
00000140: 2eab 0cbd 0ced 70bf f381 48bd e9c9 02bc
00000150: dc81 40bd b629 9b3f 3188 bc3e 1c2f 63bf
00000160: 23c6 5ebd 8b5a f33c 5d5b e9bb 71e3 bf3c
00000170: 2069 e23e dc5f 5bbd e803 22bd 3dfd 803f
00000180: 207e dabd 88af b0bd 7ee6 b63f a1a6 42bd
00000190: f414 96bd f790 e8be c562 44bc 9377 f43c
000001a0: 14af 67bd 03ba 53bd d307 58bd 967e ecbf
000001b0: 40a2 d13d 163f 1bbf 11f6 8abd 0806 a2be
000001c0: c38f 93bc 7cca b23e af0f 2fbd 124a a6bd
000001d0: 0320 dabc 208f c2be 68fe 4dbe 95e8 59bd
-0.48054513 -0.648119 0.475101 -0.012796097 -0.062432483 -0.15095536 -0.5022767 1.0274644
0.69621325 0.8052596 1.0979701 1.036433 -0.03501924 -0.052920926 0.8263666 -0.022969153
-0.08527644 0.33123296 0.6366331 -0.22902344 0.12578498 -0.0523643 -0.041591477 0.19929351
-0.012911221 -0.05919328 0.019126516 0.14942814 1.1268839 -0.07007386 -0.025385935 -0.029841615
0.44873214 0.010721114 -0.057859696 -0.55563515 -0.014178937 -0.3076164 -0.7587917 0.35228735
-0.061932486 0.44796273 0.23583405 -0.035468128 -0.25896478 -0.067800246 -0.04367144 0.0077611865
-0.054698244 0.17127937 -0.04457244 0.5583185 0.42236727 -0.38723248 -0.058837652 0.5980259
0.5530101 -0.099444926 0.4750672 0.0029195528 0.8804414 0.024607347 -0.09695368 0.45917466
0.8121597 1.0673068 0.14122005 0.010188571 0.0161281 -0.008853171 0.3836386 0.48854974
0.54516375 0.19993007 -0.005261423 -0.035213314 -0.04985469 0.48546022 0.042095464 -0.06428022
-0.034342937 -0.94111705 -0.048952054 -0.007982709 -0.046998844 1.2122104 0.36822656 -0.8874376
-0.054388177 0.02970626 -0.007121487 0.023423882 0.4422083 -0.053558215 -0.039554507 1.0077282
-0.10668588 -0.0862723 1.4289091 -0.04752219 -0.07328215 -0.454231 -0.011986439 0.029842174
-0.056563452 -0.051691066 -0.052741837 -1.8476131 0.10236025 -0.60643137 -0.06785215 -0.31645226
-0.018012887 0.34920108 -0.042739566 -0.081195965 -0.026626593 -0.3799982 -0.2011658 -0.053200323

weight f4 [84, 120]
00000000: 98bd 45bd b079 6c3c 8c57 b83c b0eb a93d
00000010: 8621 1ebd 0c89 d0bc 94aa 4a3d 7e69 493d
00000020: 4cbd 0f3d 8490 393d 5f73 babd 8cc3 b8bd
00000030: 98cc a3bc 64e7 303d ac94 3c3d 9641 17bd
00000040: 1eeb 88bd fff4 1dbb ad55 7abd 58f9 b93c
00000050: 9e9b a3bd 4c39 bc3c 049e e2bc 502a 243d
00000060: 16ae 31bd 505d da3b 082a 64bc 20eb abbd
00000070: 84cb 593d 3ee2 a13d 8ce9 8d3c 56fd 11bd
00000080: 05a1 7abc e4cf de3c d062 913c 0a82 a6bb
00000090: ac11 3abd 0799 b9bd 4504 bf3c 1e5d a8bc
000000a0: 0c6a adbc 7be1 e6bd 503e 1cbc a35e 36bd
000000b0: 3481 72bd 7686 b53d b784 24bd 00c1 f3bd
000000c0: b206 a63d 05ac 1ebd 6f7c 99bd de38 50bd
000000d0: d5f7 9bbd f5fa 543d 5f1d 70bd 7843 a8bd
000000e0: 204e 253c 1a59 36bd 28ea 17bc 4ad8 1fbd
000000f0: 0aef 4dbd 00f8 4339 dc6b 173d 9f75 d2bd
00000100: a1c7 e73c fd55 a3bd 45e7 82bd 519f 85bd
00000110: a4d0 613d 1cce ef3c 50c8 edbc 74d6 b4bd
00000120: 3483 fcbc b35e e7bd 53ce 89bd 7cd2 843d
00000130: 5c1c 563d 80b4 8fbd c44a 2dbd 888e 153d
00000140: bcf1 24bd 3935 1f3c 1eba 12bd 6020 c5bc
00000150: ee0a b2bd 8400 dfbc 0f32 b0bd 82d6 d9bc
00000160: 8dd6 1cbd b4fa da3c bccd f3bc c05d 5a3d
00000170: ae44 eabd 6e39 82bc 0012 173d d6de f8bc
00000180: 7a80 623d 8bf2 7a3d 3071 e1bb 0c55 6e3d
00000190: 365a 273d 939a 9fbd 707d f43b 514a dcbd
000001a0: dc86 293d 1ab7 a43d 6051 5dbc c3e4 33bc
000001b0: 0948 e0bd c508 79bd bd9e 4cbd 5eed 8cbd
000001c0: a664 95bd 5e31 d6bd b0d4 a2bb 3457 92bc
000001d0: 6099 5e3d 0f83 1ebd a902 9e3b 4801 98bd
000001e0: 083e 293e eabe 1cbf 2e16 f5bb 0796 84bd
000001f0: af8a 67bd 1d9d 1dbe 0f7f 2fbe a92e 0c3e
00000200: 9d68 b43d 6400 ba3e 039c 243e 2f27 88be
00000210: c9e8 963d 828b 9bbd fa44 d13d da56 30bd
00000220: e111 8bbd 502d 52bd b780 a3be 7028 953e
00000230: 5bbf 9fbe 3cae 42bd a7fd 1dbd 0f3e 88be
00000240: af2d e9bd 7bfd 253d ef2d 09bc 774d 103e
00000250: 6e51 373e f16d 86bd 9d9e 69bc 2021 863c
00000260: d006 0f3e 675d 91bd 76dd 623d 821f 09be
00000270: a368 72bd 729d 8d3e b073 cd3e c6e2 703d
00000280: a479 c8bc b21c a8bc ea28 053c b0a1 b3bb
00000290: 87a6 bcbd 19dd 4b3d 7041 36bd 652d f53d
000002a0: 0f69 7bbc a95a 9fbd 5bd3 8d3d 197b 383c
000002b0: bb04 a43d 2187 f23e bb5e aabd ea92 aabe
000002c0: f64a 49bf 84e2 b53e 59ca f5bc b365 033f
000002d0: ab65 90bd d24e c0bd 3a45 14be c5bf 6ebe
000002e0: 5ec2 163d c497 883e e102 c93c 1066 b23d
000002f0: 6a9a 843d 996c a0bd 5eba 9fbe 9ac2 88be
00000300: 5f7c 3dbe 0916 963d fabc aa3d 4699 18bd
00000310: 92b8 33bc 7277 c5bc c064 8d3e a41b d63c
00000320: cba5 c6bd 1b24 073e 1338 c03c d804 b8bc
00000330: 4cc7 9c3d daea d1bd 5ff3 513e bb52 b23d
00000340: 9962 783d a733 b33d 2fcf 05bd 1e84 00bd
00000350: 42e2 b5bd bc16 8cbd dcfd 36bd ccb1 45be
00000360: 53e0 f93c 7643 653e 9d73 2abe 0487 973d
00000370: 368f f33d 5c04 ec3d 9027 78bc f719 44be
00000380: b82e ea3c 4a16 813c 8fc4 783d 97a0 21be
00000390: f69e 4cbe 920b 8dbe 1b9d bd3d cb83 61be
000003a0: 0b60 a139 77c4 993e 0a40 883d db6c 623d
000003b0: 13f4 4c3b 7ea6 9dbe dbf0 c0be adee 34bd
000003c0: 8a5f b1be 882c 693d 3a71 22be f1c8 5e3d
000003d0: 387f 41bd 9a11 663e cf3d af3e bf6d 6abe
000003e0: 219b b43e b799 0f3e 3d42 b03e e72d f0be
000003f0: 9202 c73d e426 b6bd 73d3 773e d91d 0a3d
-0.048276514 0.014433309 0.022502683 0.08296907 -0.03860619 -0.025455974 0.049479082 0.04917287
0.035092637 0.045303836 -0.091040365 -0.090216726 -0.019995019 0.04318942 0.046040222 -0.036927782
-0.0668547 -0.0024102328 -0.061116863 0.022701904 -0.07988666 0.02297654 -0.027663238 0.040079415
-0.043378912 0.0066639557 -0.013926037 -0.08394456 0.053172603 0.079044804 0.017323278 -0.03564199
-0.015297179 0.02719874 0.017747313 -0.00508142 -0.04542701 -0.09062391 0.023317466 -0.020552214
-0.021168731 -0.11273476 -0.009536341 -0.044523846 -0.05920525 0.08863537 -0.04016563 -0.11902046
0.08106746 -0.03873827 -0.07494437 -0.050835483 -0.076156296 0.051997144 -0.05862176 -0.08215994
0.010089427 -0.044518568 -0.009272136 -0.03902463 -0.050276794 0.00018689036 0.036968097 -0.10276341
0.028293433 -0.07975385 -0.063917674 -0.06524528 0.055130616 0.029273085 -0.02902618 -0.08829966
-0.030824281 -0.11297359 -0.06728806 0.06485459 0.05227314 -0.070168495 -0.04230763 0.03651288
-0.0402696 0.009717279 -0.035822026 -0.02406329 -0.08693491 -0.027221926 -0.08603298 -0.026591543
-0.03829055 0.026730873 -0.029761188 0.053312063 -0.11438881 -0.015896525 0.0368824 -0.030379694
0.055298306 0.061266463 -0.006879948 0.058186576 0.040857516 -0.077931546 0.0074612424 -0.10756362
0.041388378 0.08042736 -0.013508171 -0.010979834 -0.109512396 -0.06079938 -0.049956072 -0.06881212
-0.07294588 -0.10458635 -0.004969202 -0.017863847 0.05434549 -0.038699206 0.0048220945 -0.074221194
0.1652757 -0.6122881 -0.0074794507 -0.06473928 -0.056528743 -0.15391965 -0.17138313 0.13689674
0.08809016 0.36328423 0.16075139 -0.26592395 0.07368619 -0.075949684 0.10218234 -0.043051578
-0.067905195 -0.051312745 -0.3193414 0.29132414 -0.3120068 -0.047529444 -0.03857198 -0.26609847
-0.113856666 0.04052494 -0.008372768 0.1409205 0.17902157 -0.065639384 -0.014259008 0.016373217
0.13967443 -0.07097893 0.055386983 -0.13390926 -0.05918182 0.27659184 0.40127325 0.058810018
-0.024472065 -0.020521495 0.00812743 -0.005481921 -0.0921145 0.049771402 -0.044496 0.11971549
-0.015344872 -0.07780964 0.069250785 0.0112598175 0.08008715 0.4736872 -0.0831885 -0.33315212
-0.78630006 0.3552438 -0.030003713 0.51327056 -0.070506416 -0.09390034 -0.14479533 -0.23315342
0.036806457 0.26678288 0.024537506 0.08710873 0.06474765 -0.07833213 -0.31196874 -0.2671097
-0.18504475 0.073284216 0.08336826 -0.037255548 -0.010969298 -0.024104808 0.2761593 0.026136227
-0.09699591 0.13197367 0.023464238 -0.022463247 0.076552 -0.102498725 0.20502995 0.08707186
0.060640905 0.08750086 -0.03266829 -0.031375997 -0.08881046 -0.06840274 -0.044675693 -0.19306105
0.030502474 0.22389016 -0.16645665 0.07398799 0.1189255 0.11524269 -0.015146151 -0.1915053
0.02858673 0.015757699 0.060734328 -0.15783916 -0.19982514 -0.2754789 0.09258481 -0.22022931
0.0003077987 0.30032703 0.066528395 0.055279594 0.003127341 -0.30791086 -0.37683758 -0.04417293
-0.34643203 0.056927234 -0.15863505 0.05439085 -0.047240466 0.22467652 0.34226844 -0.22893427
0.35274604 0.14023481 0.34425536 -0.4691002 0.09717287 -0.088941365 0.24201755 0.03371987

bias f4 [84]
00000000: 8916 67bd a31d 913e 9002 973e f275 833d
00000010: 72c4 af3e c139 ea3e 0682 f73e 5a90 cc3d
00000020: 6237 e9be b9f6 693f 08d9 d0be b59b 1e3e
00000030: 0a49 9e3d 6073 683f bd3a cb3e 0c46 febd
00000040: bce5 4e3e 6b36 1bbe 2f55 fc3e 5130 90be
00000050: 04be d13e 2fdf b1bd d716 e63d 40ba a53e
00000060: e5e4 773e 7dcf 7bbe 4dda b6be d376 133e
00000070: fce8 b2be e196 07bf 419a 1dbe ca46 89bb
00000080: 27ef b1be 9726 e83c 291c a0bd 05e1 4c3f
00000090: 8366 87bd 3d73 d8bc 80d9 103e c6eb 533f
000000a0: d532 02bf 5d0d 473e bb68 913d 9717 e8be
000000b0: f986 d83e 9021 2bbe 0ecf 473f 9fa4 c3bd
000000c0: 19e6 423e f706 8f3e 8732 14bf 508c ef3c
000000d0: f86f c33e 45d9 3c3f 44bb 593e 82b8 733e
000000e0: 1e1a 25be 2d19 ac3e 7c9c 973e e41a 363f
000000f0: fc13 87bd d029 353e e76d e83d f079 c1bd
00000100: e215 ac3d d20e 73be f16c 393f 5d45 2f3d
00000110: 38ba f13e 28f9 5f3f e24b fb3d 5e7a 7c3e
00000120: 538b d5bd 78e7 fcbd 49f4 d63d 259d 10be
00000130: 077d 7b3f 76e6 6e3f a8bd e23e 3c23 0cbf
00000140: 6b8d 313f 0230 07bd f19b a8bd 7698 553f
-0.056417976 0.28342924 0.29494143 0.06418981 0.34329563 0.45747188 0.48341388 0.099884704
-0.45550066 0.91392094 -0.40790582 0.15489085 0.07728775 0.9080105 0.3969325 -0.12415704
0.20204824 -0.15157478 0.4928374 -0.28161862 0.40965283 -0.08685147 0.11234825 0.3236866
0.2420841 -0.24590869 -0.35713425 0.14400797 -0.34943378 -0.529646 -0.15390874 -0.004189347
-0.3475277 0.028338714 -0.07817871 0.8003085 -0.066113494 -0.026422137 0.1414547 0.82781637
-0.50858814 0.19438691 0.07100054 -0.45330498 0.42290476 -0.16712022 0.78050315 -0.09552883
0.19033088 0.27935 -0.578896 0.02924171 0.38171363 0.73769027 0.21262842 0.23800853
-0.16123244 0.33612958 0.29611576 0.7113478 -0.065956086 0.17691731 0.11349087 -0.09447086
0.08402611 -0.23736122 0.72431856 0.04279076 0.47212386 0.8748956 0.12270333 0.24656054
-0.104269646 -0.12348837 0.104958124 -0.14122446 0.9823765 0.93320405 0.4428532 -0.54741263
0.6935641 -0.03300477 -0.082328685 0.8343576

weight f4 [10, 84]
00000000: 4486 50bd c231 15bf 0db4 153e 2094 083f
00000010: f312 9f3e 657e 09bd 4e68 353e 59b4 37bd
00000020: a9ce 123d 41db 8e3d 4801 423d 0e67 81bc
00000030: ae79 46be bcbb 54bd 861f 5b3e a38f 06bf
00000040: 7336 c2be a052 a63e 0102 e3be 243a 5f3e
00000050: 89fa 94bd 7185 55bb 326e 8cbe 4f13 6cbf
00000060: 18a4 eb3d 9140 883e 7981 793e 424c b3bd
00000070: 8b1a 483e 020e 153a 5b3f 27bf f302 dbbe
00000080: 052b f3bd 9e4c 1a3d d9aa 37bd 9b91 bf3d
00000090: 0932 483d 4f50 9ebd eb4c 85be be64 2fbf
000000a0: 6a5a 413e 37b5 0c3d 77ff cabe 5941 0b3e
000000b0: 9a37 0a3d b7a6 2f3e 94f0 20bf c4df 3e3c
000000c0: 5be6 a43d b9ab f0be ef2a 963d a55e 743d
000000d0: 4499 cebe 0bda f0be 27de 3f3e 5f89 fbbd
000000e0: f88c 08bd d100 edbd 1dfe a33e 7432 bdbe
000000f0: bfd6 e1be 5f43 d7be 8036 43be bed9 6b3d
00000100: 8668 f13d a524 57bf 50cf 98be 34b7 a23d
00000110: 7a18 3f3e 6130 e8be f983 933d 6e25 863e
00000120: 8414 3bbf cf37 16be ea60 74be 7468 48bd
00000130: 2e88 813e 42e3 863c d1d7 10bf d978 c93e
00000140: 85d7 03be f37b 54bd 5cc0 fc3d 2818 f73d
00000150: 2647 fcbd 2b47 32bd 21eb e0bd 5354 45be
00000160: 9381 08be b258 3a3d 0588 ccbe 496b d73d
00000170: 5098 c23d c8fd a0be 16b7 143e a6cc d1bc
00000180: bbfe 293f f205 5d3d b2c2 3abf 7d1a d5be
00000190: 9dc0 053f 0973 353e 1eca 6b3e b9aa 513e
000001a0: 3556 113e cd27 e63d c10f 453e 4f76 88bf
000001b0: 4dea 8f3d 8aaf 3e3e bc17 b7bd 7601 44be
000001c0: 72ba 0bbe 5e47 e03e 7ef1 9cbe a20a 9cbe
000001d0: e7f4 253f 24a6 b63e 19bf 953d 455f f3be
000001e0: 6877 0abe f4b1 bb3e 2b39 4abf 6a2d 0fbf
000001f0: a5fb 963e eaeb 99be 8353 b73e d9c5 48be
00000200: 3c36 e2be d7c3 6d3e 96e3 aabe 4dae d13b
00000210: 5f82 e13e 5c04 06bf 5312 c23d 4f80 bebd
00000220: b860 56be 2731 80be 8b35 73be d247 823d
00000230: 1960 82bd e970 ac3e 137c 8cbd b865 08bd
00000240: 3f52 cd3d 4cd0 2e3f 1f08 2a3e 2540 8b3e
00000250: 1096 b6be ad37 4cbe 33c2 4fbe 53b4 27be
00000260: 79c1 92be 95c8 22bf f76d 88ba 73b3 043f
00000270: 4840 44bf 9ece 06bf 79b4 62bd e496 bdbd
00000280: 23fc cabe 8ff8 7bbf 8632 c6be eff3 05be
00000290: ec24 23bf 4206 e9bd c4cc e03d 7151 213c
000002a0: 899c debc b673 04be 83a7 1e3d cc88 91be
000002b0: f8bb cfbe dfa0 933e 0efc 9b3d ca89 a63d
000002c0: ac4b fbbe 3673 573d f3d0 033e e930 ce3e
000002d0: 272e 003c 65a3 b13d 7d8c 2e3e cea7 92be
000002e0: 494f 91be d0e0 ed3e d441 6ebf 276e d83d
000002f0: 45bd 9dbe bddd 9cbc 3090 07be cff6 c33e
00000300: 6148 9bbe d73b c2bd 759e 0f3e 45d5 74bd
00000310: 78c7 173e 132a fb3d 75e3 aabf b9d9 b23e
00000320: faab 50bd 4062 12bf 4e41 6fbd e74e 343e
00000330: fc7d 66bc 02b8 b9bd bd4a 603d 367e a63e
00000340: 0bba 84be 126a ba3d 2616 d03c 224f 003e
00000350: 0bc5 5a3e d28d aa3d a81f 123e 80b1 773c
00000360: cc70 d73e 7efc b7bd 60a2 7cbe dec1 8e3e
00000370: e2ab c43e d845 91be 3020 043e c0d7 bcbe
00000380: 5dcc 223d fa6c 9f3e 210d 33be 9c3b 963e
00000390: 74a6 bbbe b41c a5be 9788 4cbe b8d2 6c3d
000003a0: 1785 223d b95b 943e f7c1 ea3b 9b1f 02bf
000003b0: a2c3 aa3e 5e00 0a3d 6c47 2abe a709 99be
000003c0: a862 423f 63cb ca3d 74b7 51be 035c da3c
000003d0: 386c f4bd fe57 82bd fa0a d13e 69b7 0cbf
000003e0: 1e80 113d a3c2 743d 9283 033f 37f6 f0be
000003f0: 505b a4bc 600b a13d 4ec0 9c3b 2e2f 2a3e
-0.050909296 -0.5827905 0.14619465 0.5335102 0.31069145 -0.033567805 0.1771557 -0.044849727
0.035841618 0.06975413 0.047364503 -0.01579621 -0.19382355 -0.05193685 0.21398744 -0.5256292
-0.37932166 0.32484913 -0.44337466 0.21799523 -0.07274348 -0.0032580758 -0.27427822 -0.9221696
0.11505908 0.2661176 0.24365796 -0.087547794 0.19541375 0.0005685986 -0.6533105 -0.42775688
-0.1187344 0.037670724 -0.044840667 0.09353944 0.048875842 -0.077301614 -0.26035246 -0.68513095
0.18882146 0.034352507 -0.3964803 0.13599147 0.033744432 0.1715344 -0.62867093 0.01165003
0.08051749 -0.47006014 0.07332408 0.059660573 -0.40351307 -0.47041354 0.18737088 -0.12282061
-0.033337563 -0.11572421 0.3202981 -0.36952555 -0.4410915 -0.42043588 -0.19063759 0.057580702
0.117875144 -0.8404029 -0.29845667 0.079450995 0.18661681 -0.4534941 0.07202906 0.26200432
-0.7307818 -0.14669727 -0.23865095 -0.04892774 0.2529921 0.016465787 -0.5657931 0.39350012
-0.12875183 -0.05187602 0.12341377 0.12065154 -0.12318258 -0.043524902 -0.10982347 -0.19270448
-0.13330679 0.045494743 -0.39947525 0.1051851 0.095017076 -0.3144362 0.14522967 -0.02561028
0.6640431 0.053960748 -0.7295333 -0.4162177 0.5224703 0.17719664 0.2302632 0.20475282
0.14193042 0.1123806 0.19244291 -1.0661105 0.07027111 0.1862165 -0.08940074 -0.19141182
-0.13645342 0.4380445 -0.30652994 -0.30476862 0.64826816 0.3567363 0.073118396 -0.47533622
-0.13522112 0.36659205 -0.7899348 -0.5592867 0.29488865 -0.300628 0.35805902 -0.19606723
-0.44182003 0.23219238 -0.3337676 0.006398952 0.44044778 -0.523504 0.09476151 -0.09301817
-0.20935333 -0.250375 -0.23750894 0.06361355 -0.063659854 0.33679894 -0.06859603 -0.03330013
0.10025453 0.68286586 0.1660466 0.27197376 -0.35661364 -0.19943114 -0.20288925 -0.16377382
-0.28663233 -0.63587314 -0.0010408749 0.5183632 -0.76660585 -0.5265902 -0.055347893 -0.09257296
-0.3964549 -0.98426145 -0.3871042 -0.13081335 -0.63728213 -0.11378147 0.10976556 0.009846077
-0.027174251 -0.12934765 0.03873397 -0.2842468 -0.40573096 0.28833672 0.07616435 0.0813175
-0.4908117 0.052600108 0.12872677 0.4027169 0.007823504 0.08673743 0.1704578 -0.2864365
-0.28380802 0.4646058 -0.93069196 0.10567885 -0.30808464 -0.019148702 -0.13238597 0.38274238
-0.30328658 -0.0948407 0.1402529 -0.059773702 0.14822185 0.122638844 -1.3350664 0.34931734
-0.05094526 -0.5718117 -0.05841189 0.17608224 -0.014068123 -0.090683 0.054758776 0.32518166
-0.2592319 0.091022626 0.025401186 0.12530187 0.21364228 0.08327831 0.14269888 0.015118003
0.42078245 -0.08983706 -0.24671316 0.27882284 0.38412386 -0.283736 0.12902904 -0.36883354
0.039745677 0.3113783 -0.17485477 0.29342353 -0.3665043 -0.3224846 -0.1997398 0.057818145
0.039677706 0.2897623 0.0071642357 -0.50829476 0.3335238 0.033691756 -0.16628808 -0.29890177
0.7593179 0.09902074 -0.20480138 0.026655203 -0.119347036 -0.063644394 0.40828687 -0.5496736
0.035522573 0.059755933 0.51372635 -0.47062847 -0.020063072 0.07863498 0.0047836667 0.1661956

bias f4 [10]
00000000: 8c92 bdbe dfae ddbe 3a23 843d 6555 183e
00000010: 26f8 393f 1df2 ccbd 5720 553d 7a8e 8fbe
00000020: 7ad8 273e f998 053d
-0.3702587 -0.4329748 0.064520314 0.14876325 0.7264427 -0.10007117 0.052032795 -0.28038388
0.16391173 0.03261659
